results/test8/MoveToGoal/MoveToGoal-673.pt (torch, 672239 bytes, 17 tensors)

discrete_act_size_vector f4 [1, 2]
2.0 2.0
00000000: 0000 0040 0000 0040

network_body._body_endoder.seq_layers.0.weight f4 [128, 6]
-0.13592051 -0.4950727 0.55273217 -0.42590192 0.731255 0.6195452 -0.25176 0.44233924
0.72313666 -0.40768966 0.100887135 -0.1287452 0.33938318 -0.30930576 -0.42282894 0.20263438
-1.228316 -0.12670338 -0.09366227 0.47758442 0.6831773 0.11381261 0.8030494 -0.02031135
0.02100646 -0.7652349 -0.019397056 0.2792547 -0.15555131 -0.22580573 -0.29680106 0.123936564
1.2276366 0.48241884 0.35523713 -1.117164 0.041930698 0.27053007 0.06302691 0.34885642
0.34323442 0.24760988 0.23156694 0.014286127 0.39471018 -0.055924546 0.8014188 -0.5501763
1.0504557 -0.22282659 0.11549672 0.7410874 -0.8452369 -0.21709862 0.3953712 -0.093953185
-0.18962263 -0.62432384 -0.44306502 0.23886988 -0.27723363 -0.24431498 0.3423007 0.4458809
0.46468526 0.24216478 0.3636486 -0.4531479 -0.0740262 0.15450081 0.27214956 0.0032891594
-0.5256287 0.0086584 -0.560069 1.1218877 0.31184125 0.05095294 -0.030769447 -0.40950128
-0.0590227 -1.0312573 -0.30213878 -0.39622277 -0.368563 -0.027549243 0.9118279 0.70956975
0.42732787 -0.46520698 0.1892386 0.26667506 -0.29961362 0.15104851 0.089217454 -0.24906045
-0.2872926 0.29983383 0.092271216 -0.17642072 0.2243633 0.18595946 -0.51978195 0.6934573
0.61795026 0.29260775 -0.5688762 -0.22940235 -0.4642241 0.41653448 -0.10322003 -0.16785717
-0.6353308 0.69179326 0.049939502 0.17821804 0.11768637 -0.63895726 -0.2948593 0.15577532
0.20046362 -0.47710693 0.61849505 -0.24755621 -0.33834308 0.35271 0.63054985 -0.48259345
-0.30718338 -0.27584505 0.43420917 0.3066292 -0.10314118 -0.7033977 0.23498501 -0.004749407
0.46960098 0.76110363 -0.0898114 -0.08857275 -0.036174797 -0.22633472 0.55133396 -0.20094395
-0.34605968 -0.68377334 0.3505691 0.044056304 0.1153035 -0.3650237 0.35132793 0.04370801
-0.4264846 0.005541213 0.07238519 0.19626936 -0.17877837 -0.15005209 0.6218036 -0.11758069
0.2658358 0.1881541 0.34809676 -0.21189873 0.08313158 0.7072269 0.6499385 -0.72224635
0.62815374 0.123723775 0.031425845 -0.26768202 -0.061724167 0.16408779 0.1782037 0.35011765
0.29446688 0.23340134 -0.6488743 -0.05183883 -0.55127156 -0.7760624 0.3843183 -1.1595217
-0.58364266 -0.5077283 -0.30523962 0.29291016 -0.22462533 0.27902225 0.27748653 0.44917846
-0.079596266 -0.027794776 -0.4307 0.29005146 0.0844261 -0.03512758 0.06780807 -0.41814542
-0.93626994 0.24875025 -0.3386024 0.20092304 -0.26630732 -0.028826755 -0.34618074 -0.066139184
-0.7701473 -0.08617153 -0.18051961 0.36852562 0.83213437 0.30108836 0.3621541 -0.25793958
0.18566051 0.5032525 0.023929792 0.58021593 0.12132617 0.2636208 -0.30710754 0.027931014
0.14294212 0.0422478 -0.49136525 -5.05085e-05 -0.72543293 0.42434734 0.5835824 0.20831294
-0.60907966 -0.41317165 -0.042448208 -0.02019836 0.045752548 -0.22730368 0.03879517 -0.14709279
0.56514126 -0.2599434 0.008112232 0.9731703 0.36351797 -0.042594012 0.69981146 -0.4145567
0.440565 -0.0007371175 -0.051643267 -0.3050642 -0.64623785 -0.4052857 0.39704275 -0.121624954
00000000: bf2e 0bbe 2b7a fdbe db7f 0d3f d10f dabe
00000010: 8733 3b3f 849a 1e3f b0e6 80be 4a7a e23e
00000020: 7c1f 393f b3bc d0be ea9d ce3d c8d5 03be
00000030: a2c3 ad3e 535d 9ebe 097d d8be 637f 4f3e
00000040: 7539 9dbf 88be 01be 01d2 bfbd f285 f43e
00000050: b5e4 2e3f 9616 e93d a594 4d3f fd63 a6bc
00000060: bd15 ac3c 6fe6 43bf 93e6 9ebc 79fa 8e3e
00000070: d848 1fbe 9e39 67be 4ff6 97be 74d2 fd3d
00000080: 3223 9d3f 9aff f63e a4e1 b53e 3bff 8ebf
00000090: 86bf 2b3d eb82 8a3e 4114 813d 4f9d b23e
000000a0: 6cbc af3e 728d 7d3e e21f 6d3e 5c10 6a3c
000000b0: 7417 ca3e 2311 65bd c829 4d3f 5bd8 0cbf
000000c0: 5575 863f a72c 64be 8b89 ec3d e7b7 3d3f
000000d0: 7261 58bf 1a4f 5ebe 186e ca3e 876a c0bd
000000e0: 6f2c 42be b0d3 1fbf 6bd9 e2be 4e9a 743e
000000f0: 91f1 8dbe b52d 7abe 0a42 af3e 804a e43e
00000100: 3aeb ed3e 0bfa 773e 2630 ba3e 0003 e8be
00000110: 0c9b 97bd 7635 1e3e 3057 8b3e f08e 573b
00000120: 9a8f 06bf f6db 0d3c af60 0fbf 049a 8f3f
00000130: a8a9 9f3e 08b4 503d 3510 fcbc 27aa d1be
00000140: c9c1 71bd 3d00 84bf efb1 9abe b6dd cabe
00000150: 4ab4 bcbe f3ae e1bc 8e6d 693f 5da6 353f
00000160: b8ca da3e 9c2f eebe c3c7 413e a289 883e
00000170: f566 99be 76ac 1a3e a4b7 b63d b409 7fbe
00000180: 0418 93be d283 993e b1f8 bc3d a2a7 34be
00000190: 7ebf 653e 286c 3e3e 6e10 05bf 6b86 313f
000001a0: fd31 1e3f afd0 953e dfa1 11bf 73e8 6abe
000001b0: c8ae edbe 0244 d53e 0665 d3bd c0e2 2bbe
000001c0: 0aa5 22bf 5d19 313f 5d8d 4c3d ca7e 363e
000001d0: 8d05 f13d b492 23bf ccf7 96be 9183 1f3e
000001e0: 5646 4d3e 5c47 f4be b155 1e3f 607f 7dbe
000001f0: 4e3b adbe 6896 b43e b76b 213f 7d16 f7be
00000200: 2447 9dbe 903b 8dbe aa50 de3e 81fe 9c3e
00000210: af3b d3bd df11 34bf e99f 703e eaa0 9bbb
00000220: 8a6f f03e b0d7 423f 0aef b7bd a165 b5bd
00000230: 062c 14bd 4ac4 67be 3924 0d3f 40c4 4dbe
00000240: bc2e b1be c50b 2fbf cb7d b33e 6274 343d
00000250: 3e24 ec3d 63e4 babe 41e1 b33e 2c07 333d
00000260: 315c dabe 1093 b53b b03e 943d d6fa 483e
00000270: ad11 37be 41a7 19be 852e 1f3f 25ce f0bd
00000280: a11b 883e 78ab 403e bd39 b23e fbfb 58be
00000290: e440 aa3d d20c 353f 5f62 263f 23e5 38bf
000002a0: afce 203f e462 fd3d 63b8 003d 9e0d 89be
000002b0: 7bd2 7cbd a106 283e 087b 363e 9f42 b33e
000002c0: 5dc4 963e c300 6f3e a01c 26bf f454 54bd
000002d0: 2220 0dbf 07ac 46bf 5ec5 c43e 356b 94bf
000002e0: 9b69 15bf 7bfa 01bf 5e48 9cbe 52f8 953e
000002f0: 2f04 66be 01dc 8e3e b712 8e3e b8fa e53e
00000300: 5e03 a3bd dfb1 e3bc b684 dcbe a081 943e
00000310: 97e7 ac3d f0e1 0fbd f5de 8a3d 2817 d6be
00000320: 63af 6fbf 63b8 7e3e 4b5d adbe c5be 4d3e
00000330: 6f59 88be 1626 ecbc 9a3e b1be fb73 87bd
00000340: 6028 45bf b37a b0bd 22da 38be 64af bc3e
00000350: c206 553f 4128 9a3e 436c b93e a810 84be
00000360: ca1d 3e3e 28d5 003f 6908 c43c 0889 143f
00000370: db79 f83d 4ef9 863e 333d 9dbe 95cf e43c
00000380: 6b5f 123e 070c 2d3d 3a94 fbbe 17d9 53b8
00000390: f9b5 39bf 0e44 d93e a865 153f fd4f 553e
000003a0: a5ec 1bbf 3c8b d3be 2cde 2dbd 0877 a5bc
000003b0: 0667 3b3d 4cc2 68be afe7 1e3d 7e9f 16be
000003c0: 19ad 103f 4d17 85be 2be9 043c b021 793f
000003d0: 071f ba3e 0f77 2ebd d826 333f c740 d4be
000003e0: bc91 e13e 1e3b 41ba e487 53bd 6031 9cbe
000003f0: d86f 25bf 9b81 cfbe 3049 cb3e 8116 f9bd

network_body._body_endoder.seq_layers.0.bias f4 [128]
0.0 0.0 0.0 0.0 0.0 0.0 0.0 0.0
0.0 0.0 0.0 0.0 0.0 0.0 0.0 0.0
0.0 0.0 0.0 0.0 0.0 0.0 0.0 0.0
0.0 0.0 0.0 0.0 0.0 0.0 0.0 0.0
0.0 0.0 0.0 0.0 0.0 0.0 0.0 0.0
0.0 0.0 0.0 0.0 0.0 0.0 0.0 0.0
0.0 0.0 0.0 0.0 0.0 0.0 0.0 0.0
0.0 0.0 0.0 0.0 0.0 0.0 0.0 0.0
0.0 0.0 0.0 0.0 0.0 0.0 0.0 0.0
0.0 0.0 0.0 0.0 0.0 0.0 0.0 0.0
0.0 0.0 0.0 0.0 0.0 0.0 0.0 0.0
0.0 0.0 0.0 0.0 0.0 0.0 0.0 0.0
0.0 0.0 0.0 0.0 0.0 0.0 0.0 0.0
0.0 0.0 0.0 0.0 0.0 0.0 0.0 0.0
0.0 0.0 0.0 0.0 0.0 0.0 0.0 0.0
0.0 0.0 0.0 0.0 0.0 0.0 0.0 0.0
00000000: 0000 0000 0000 0000 0000 0000 0000 0000
00000010: 0000 0000 0000 0000 0000 0000 0000 0000
00000020: 0000 0000 0000 0000 0000 0000 0000 0000
00000030: 0000 0000 0000 0000 0000 0000 0000 0000
00000040: 0000 0000 0000 0000 0000 0000 0000 0000
00000050: 0000 0000 0000 0000 0000 0000 0000 0000
00000060: 0000 0000 0000 0000 0000 0000 0000 0000
00000070: 0000 0000 0000 0000 0000 0000 0000 0000
00000080: 0000 0000 0000 0000 0000 0000 0000 0000
00000090: 0000 0000 0000 0000 0000 0000 0000 0000
000000a0: 0000 0000 0000 0000 0000 0000 0000 0000
000000b0: 0000 0000 0000 0000 0000 0000 0000 0000
000000c0: 0000 0000 0000 0000 0000 0000 0000 0000
000000d0: 0000 0000 0000 0000 0000 0000 0000 0000
000000e0: 0000 0000 0000 0000 0000 0000 0000 0000
000000f0: 0000 0000 0000 0000 0000 0000 0000 0000
00000100: 0000 0000 0000 0000 0000 0000 0000 0000
00000110: 0000 0000 0000 0000 0000 0000 0000 0000
00000120: 0000 0000 0000 0000 0000 0000 0000 0000
00000130: 0000 0000 0000 0000 0000 0000 0000 0000
00000140: 0000 0000 0000 0000 0000 0000 0000 0000
00000150: 0000 0000 0000 0000 0000 0000 0000 0000
00000160: 0000 0000 0000 0000 0000 0000 0000 0000
00000170: 0000 0000 0000 0000 0000 0000 0000 0000
00000180: 0000 0000 0000 0000 0000 0000 0000 0000
00000190: 0000 0000 0000 0000 0000 0000 0000 0000
000001a0: 0000 0000 0000 0000 0000 0000 0000 0000
000001b0: 0000 0000 0000 0000 0000 0000 0000 0000
000001c0: 0000 0000 0000 0000 0000 0000 0000 0000
000001d0: 0000 0000 0000 0000 0000 0000 0000 0000
000001e0: 0000 0000 0000 0000 0000 0000 0000 0000
000001f0: 0000 0000 0000 0000 0000 0000 0000 0000

network_body._body_endoder.seq_layers.2.weight f4 [128, 128]
-0.023320317 -0.02376012 -0.08392324 0.17227641 0.041419037 -0.015322701 -0.055632785 -0.045169402
0.16732153 0.20054018 -0.02394864 0.009849064 -0.061886687 0.017074186 0.14704274 -0.14371517
-0.105467305 0.09565933 0.06896496 -0.05359216 0.12802802 -0.0019569413 0.0660873 -0.05500289
-0.075308286 -0.023610054 -0.027694544 -0.02972088 -0.00726427 -0.06480257 0.04120646 -0.04413561
-0.09945833 -0.024861537 -0.011866334 0.0009944099 0.07401552 -0.048411492 0.016901027 -0.038726058
-0.013194279 -0.046650812 0.058830578 0.0028192897 0.012246097 -0.065549426 0.014830006 0.009074205
0.041501127 0.0030819804 0.10488213 -0.06387682 -0.17054644 -0.07297509 0.025669249 -0.015430946
-0.14781077 -0.08542163 0.026679471 -0.021189693 -0.06602412 -0.00042151017 -0.059559938 0.13338415
0.117423795 -0.014079106 -0.111426406 0.016213683 -0.039309267 -0.1015453 0.047983237 -0.060652275
-0.046024375 0.015011697 -0.08463331 -0.060192984 -0.086000234 0.02789724 0.15150158 -0.04012348
-0.06297062 0.051709943 -0.039941676 -0.030969653 0.108841844 -0.025945468 0.012872743 -0.13932803
-0.12899767 0.09422772 0.02472075 -0.059689056 0.0735484 0.10200551 -0.039276984 -0.07909788
0.09185634 0.17543079 -0.18022732 -0.00024315549 -0.032528903 -0.052364085 -0.043766692 0.09800183
-0.024992283 0.039938886 0.049198657 0.09200828 -0.023633465 0.18369278 -0.039426845 0.0593307
-0.32356054 -0.12954493 0.07868656 -0.019461663 0.053196196 -0.13532734 0.04058659 -0.0025838155
0.05009183 -0.018926242 -0.031945426 -0.048520014 0.028141025 -0.14096133 -0.11761936 -0.07766813
-0.04448389 0.046430733 -0.003753306 -0.030284593 -0.07604391 -0.062610134 -0.07489076 0.13238283
0.06264824 0.067268 -0.050720323 -0.030998357 -0.05827447 -0.037302863 0.13360795 0.19065754
0.09089652 -0.10854754 -0.076293334 0.077157445 -0.0051744906 -0.16331238 -0.15410277 0.018063858
-0.27015534 0.0953611 0.03268846 -0.10903566 0.113361195 -0.04723598 -0.005693364 -0.053323496
0.02957189 0.10676728 -0.08007678 0.08690324 -0.08400389 -0.13214041 0.08301882 0.009212039
-0.035159077 -0.10595531 0.008535994 0.053196903 0.02807987 0.15788518 0.0063509196 0.062443048
0.04334538 0.027791468 0.073941775 0.042729624 -0.0615965 0.110496916 -0.08027048 -0.042842343
0.101748504 -0.042104274 -0.042044256 -0.013996993 -0.13319585 -0.17798178 -0.046696015 -0.11840778
0.12831454 -0.13488966 0.049873434 -0.032536954 -0.093840726 -0.13366045 -0.09539257 0.11288082
0.007189303 0.01075977 0.17355351 0.01816272 0.052955624 -0.09509784 0.10260364 0.017795302
-0.1100645 0.097765975 0.07088264 -0.109205805 -0.096287645 -0.001069778 0.034333546 0.021455664
0.06738214 -0.036427133 0.04287921 0.050674666 0.14472404 -0.022999503 -0.028849997 0.03878138
-0.13174641 -0.026664298 -0.06751214 0.046630066 -0.13244775 -0.026976211 -0.10042509 0.032990154
0.07324069 -0.15449315 -0.0075262487 0.07473495 -0.18935296 -0.10038118 -0.09427228 -0.09669341
-0.002799311 0.046519753 -0.025982901 0.017782826 -0.067809224 0.018573726 -0.07474985 0.081551366
0.022364127 -0.11139266 -0.092418514 0.07278071 -0.081142515 -0.074081495 0.039490517 0.082474746
00000000: 400a bfbc 95a4 c2bc f3df abbd 3a69 303e
00000010: 02a7 293d 110c 7bbc 34df 63bd 8d03 39bd
00000020: 5656 2b3e 685a 4d3e f02f c4bc f85d 213c
00000030: e57c 7dbd 2adf 8b3c 5f92 163e 122a 13be
00000040: 3eff d7bd 0ae9 c33d 803d 8d3d 7483 5bbd
00000050: c719 033e 0740 00bb c758 873d b64a 61bd
00000060: 3b3b 9abd df69 c1bc abdf e2bc 3479 f3bc
00000070: 1d09 eebb 36b7 84bd 1bc8 283d 8bc7 34bd
00000080: cfb0 cbbd 6caa cbbc 036b 42bc dc56 823a
00000090: 7395 973d 214b 46bd 0674 8a3c 379f 1ebd
000000a0: d12c 58bc ec14 3fbd 55f8 703d d5c3 383b
000000b0: dba3 483c c73e 86bd 8ef9 723c f9ab 143c
000000c0: 16fd 293d 0dfb 493b 71cc d63d dad1 82bd
000000d0: baa3 2ebe f773 95bd 5148 d23c 14d2 7cbc
000000e0: b55b 17be 89f1 aebd e88e da3c 0296 adbc
000000f0: a737 87bd 23fe dcb9 1ff5 73bd db95 083e
00000100: e37b f03d 0dac 66bc 8733 e4bd 8fd2 843c
00000110: c102 21bd fbf6 cfbd 128a 443d 856e 78bd
00000120: 0e84 3cbd 9ff3 753c 3b54 adbd eb8c 76bd
00000130: e420 b0bd c188 e43c 3b23 1b3e 8558 24bd
00000140: bef6 80bd cecd 533d e299 23bd 12b4 fdbc
00000150: 79e8 de3d 978b d4bc 33e8 523c 02ac 0ebe
00000160: f717 04be 76fa c03d 2c83 ca3c 837c 74bd
00000170: 8ba0 963d 44e8 d03d e7e0 20bd 12fe a1bd
00000180: 2d1f bc3d 21a4 333e 838d 38be 8ef7 7eb9
00000190: 073d 05bd b97b 56bd b444 33bd 2fb5 c83d
000001a0: 9ebc ccbc f596 233d 8884 493d d66e bc3d
000001b0: f89a c1bc f619 3c3e 0b7e 21bd c004 733d
000001c0: baa9 a5be 6da7 04be 6b26 a13d 116e 9fbc
000001d0: 41e4 593d 4093 0abe 203e 263d 3b55 29bb
000001e0: 172d 4d3d 350b 9bbc 35d9 02bd ecbc 46bd
000001f0: 0288 e63c 2b58 10be 6be2 f0bd 7810 9fbd
00000200: bd34 36bd 272e 3e3d 07fa 75bb 6517 f8bc
00000210: e9bc 9bbd be39 80bd 5460 99bd 5d8f 073e
00000220: b84d 803d cec3 893d 1dc0 4fbd 44f0 fdbc
00000230: 36b1 6ebd e3ca 18bd 86d0 083e bb3b 433e
00000240: f427 ba3d 2c4e debd ae3f 9cbd b904 9e3d
00000250: c68e a9bb 5c3b 27be 1ecd 1dbe a8fa 933c
00000260: cd51 8abe ae4c c33d 56e4 053d 174e dfbd
00000270: ea29 e83d 847a 41bd 668f babb bd69 5abd
00000280: c040 f23c cea8 da3d 4bff a3bd 53fa b13d
00000290: 3b0a acbd d14f 07be c505 aa3d 18ee 163c
000002a0: f702 10bd 19ff d8bd 8eda 0b3c ffe4 593d
000002b0: c107 e63c a7ac 213e 601b d03b 48c4 7f3d
000002c0: ed8a 313d efaa e33c c96e 973d 4205 2f3d
000002d0: 9d4c 7cbd 354c e23d d964 a4bd 747b 2fbd
000002e0: 8561 d03d 8875 2cbd 9936 2cbd a553 65bc
000002f0: 7e64 08be db40 36be 5244 3fbd c77f f2bd
00000300: e364 033e 8420 0abe 1648 4c3d 7845 05bd
00000310: 912f c0bd 49de 08be 2e5d c3bd 0f2e e73d
00000320: 3f94 eb3b bf49 303c 03b8 313e fcc9 943c
00000330: ffe7 583d a8c2 c2bd db21 d23d 74c7 913c
00000340: 7f69 e1bd 8739 c83d eb2a 913d 4ba7 dfbd
00000350: 7532 c5bd cb37 8cba 55a1 0c3d cac3 af3c
00000360: a6ff 893d 9e34 15bd 1ca2 2f3d 3d90 4f3d
00000370: 8a32 143e 7469 bcbc d456 ecbc 39d9 1e3d
00000380: 88e8 06be 166f dabc ce43 8abd 2bff 3e3d
00000390: 62a0 07be 37fd dcbc abab cdbd af20 073d
000003a0: 37ff 953d 7433 1ebe c09e f6bb a30e 993d
000003b0: bee5 41be a694 cdbd d311 c1bd 3207 c6bd
000003c0: a574 37bb 7f8b 3e3d 18da d4bc 4aad 913c
000003d0: 90df 8abd ed27 983c 7316 99bd 6704 a73d
000003e0: f934 b73c d621 e4bd eb45 bdbd 0e0e 953d
000003f0: 0c2e a6bd 0ab8 97bd cfc0 213d 85e8 a83d

network_body._body_endoder.seq_layers.2.bias f4 [128]
0.0 0.0 0.0 0.0 0.0 0.0 0.0 0.0
0.0 0.0 0.0 0.0 0.0 0.0 0.0 0.0
0.0 0.0 0.0 0.0 0.0 0.0 0.0 0.0
0.0 0.0 0.0 0.0 0.0 0.0 0.0 0.0
0.0 0.0 0.0 0.0 0.0 0.0 0.0 0.0
0.0 0.0 0.0 0.0 0.0 0.0 0.0 0.0
0.0 0.0 0.0 0.0 0.0 0.0 0.0 0.0
0.0 0.0 0.0 0.0 0.0 0.0 0.0 0.0
0.0 0.0 0.0 0.0 0.0 0.0 0.0 0.0
0.0 0.0 0.0 0.0 0.0 0.0 0.0 0.0
0.0 0.0 0.0 0.0 0.0 0.0 0.0 0.0
0.0 0.0 0.0 0.0 0.0 0.0 0.0 0.0
0.0 0.0 0.0 0.0 0.0 0.0 0.0 0.0
0.0 0.0 0.0 0.0 0.0 0.0 0.0 0.0
0.0 0.0 0.0 0.0 0.0 0.0 0.0 0.0
0.0 0.0 0.0 0.0 0.0 0.0 0.0 0.0
00000000: 0000 0000 0000 0000 0000 0000 0000 0000
00000010: 0000 0000 0000 0000 0000 0000 0000 0000
00000020: 0000 0000 0000 0000 0000 0000 0000 0000
00000030: 0000 0000 0000 0000 0000 0000 0000 0000
00000040: 0000 0000 0000 0000 0000 0000 0000 0000
00000050: 0000 0000 0000 0000 0000 0000 0000 0000
00000060: 0000 0000 0000 0000 0000 0000 0000 0000
00000070: 0000 0000 0000 0000 0000 0000 0000 0000
00000080: 0000 0000 0000 0000 0000 0000 0000 0000
00000090: 0000 0000 0000 0000 0000 0000 0000 0000
000000a0: 0000 0000 0000 0000 0000 0000 0000 0000
000000b0: 0000 0000 0000 0000 0000 0000 0000 0000
000000c0: 0000 0000 0000 0000 0000 0000 0000 0000
000000d0: 0000 0000 0000 0000 0000 0000 0000 0000
000000e0: 0000 0000 0000 0000 0000 0000 0000 0000
000000f0: 0000 0000 0000 0000 0000 0000 0000 0000
00000100: 0000 0000 0000 0000 0000 0000 0000 0000
00000110: 0000 0000 0000 0000 0000 0000 0000 0000
00000120: 0000 0000 0000 0000 0000 0000 0000 0000
00000130: 0000 0000 0000 0000 0000 0000 0000 0000
00000140: 0000 0000 0000 0000 0000 0000 0000 0000
00000150: 0000 0000 0000 0000 0000 0000 0000 0000
00000160: 0000 0000 0000 0000 0000 0000 0000 0000
00000170: 0000 0000 0000 0000 0000 0000 0000 0000
00000180: 0000 0000 0000 0000 0000 0000 0000 0000
00000190: 0000 0000 0000 0000 0000 0000 0000 0000
000001a0: 0000 0000 0000 0000 0000 0000 0000 0000
000001b0: 0000 0000 0000 0000 0000 0000 0000 0000
000001c0: 0000 0000 0000 0000 0000 0000 0000 0000
000001d0: 0000 0000 0000 0000 0000 0000 0000 0000
000001e0: 0000 0000 0000 0000 0000 0000 0000 0000
000001f0: 0000 0000 0000 0000 0000 0000 0000 0000

action_model._continuous_distribution.log_sigma f4 [1, 1000]
0.0 0.0 0.0 0.0 0.0 0.0 0.0 0.0
0.0 0.0 0.0 0.0 0.0 0.0 0.0 0.0
0.0 0.0 0.0 0.0 0.0 0.0 0.0 0.0
0.0 0.0 0.0 0.0 0.0 0.0 0.0 0.0
0.0 0.0 0.0 0.0 0.0 0.0 0.0 0.0
0.0 0.0 0.0 0.0 0.0 0.0 0.0 0.0
0.0 0.0 0.0 0.0 0.0 0.0 0.0 0.0
0.0 0.0 0.0 0.0 0.0 0.0 0.0 0.0
0.0 0.0 0.0 0.0 0.0 0.0 0.0 0.0
0.0 0.0 0.0 0.0 0.0 0.0 0.0 0.0
0.0 0.0 0.0 0.0 0.0 0.0 0.0 0.0
0.0 0.0 0.0 0.0 0.0 0.0 0.0 0.0
0.0 0.0 0.0 0.0 0.0 0.0 0.0 0.0
0.0 0.0 0.0 0.0 0.0 0.0 0.0 0.0
0.0 0.0 0.0 0.0 0.0 0.0 0.0 0.0
0.0 0.0 0.0 0.0 0.0 0.0 0.0 0.0
0.0 0.0 0.0 0.0 0.0 0.0 0.0 0.0
0.0 0.0 0.0 0.0 0.0 0.0 0.0 0.0
0.0 0.0 0.0 0.0 0.0 0.0 0.0 0.0
0.0 0.0 0.0 0.0 0.0 0.0 0.0 0.0
0.0 0.0 0.0 0.0 0.0 0.0 0.0 0.0
0.0 0.0 0.0 0.0 0.0 0.0 0.0 0.0
0.0 0.0 0.0 0.0 0.0 0.0 0.0 0.0
0.0 0.0 0.0 0.0 0.0 0.0 0.0 0.0
0.0 0.0 0.0 0.0 0.0 0.0 0.0 0.0
0.0 0.0 0.0 0.0 0.0 0.0 0.0 0.0
0.0 0.0 0.0 0.0 0.0 0.0 0.0 0.0
0.0 0.0 0.0 0.0 0.0 0.0 0.0 0.0
0.0 0.0 0.0 0.0 0.0 0.0 0.0 0.0
0.0 0.0 0.0 0.0 0.0 0.0 0.0 0.0
0.0 0.0 0.0 0.0 0.0 0.0 0.0 0.0
0.0 0.0 0.0 0.0 0.0 0.0 0.0 0.0
00000000: 0000 0000 0000 0000 0000 0000 0000 0000
00000010: 0000 0000 0000 0000 0000 0000 0000 0000
00000020: 0000 0000 0000 0000 0000 0000 0000 0000
00000030: 0000 0000 0000 0000 0000 0000 0000 0000
00000040: 0000 0000 0000 0000 0000 0000 0000 0000
00000050: 0000 0000 0000 0000 0000 0000 0000 0000
00000060: 0000 0000 0000 0000 0000 0000 0000 0000
00000070: 0000 0000 0000 0000 0000 0000 0000 0000
00000080: 0000 0000 0000 0000 0000 0000 0000 0000
00000090: 0000 0000 0000 0000 0000 0000 0000 0000
000000a0: 0000 0000 0000 0000 0000 0000 0000 0000
000000b0: 0000 0000 0000 0000 0000 0000 0000 0000
000000c0: 0000 0000 0000 0000 0000 0000 0000 0000
000000d0: 0000 0000 0000 0000 0000 0000 0000 0000
000000e0: 0000 0000 0000 0000 0000 0000 0000 0000
000000f0: 0000 0000 0000 0000 0000 0000 0000 0000
00000100: 0000 0000 0000 0000 0000 0000 0000 0000
00000110: 0000 0000 0000 0000 0000 0000 0000 0000
00000120: 0000 0000 0000 0000 0000 0000 0000 0000
00000130: 0000 0000 0000 0000 0000 0000 0000 0000
00000140: 0000 0000 0000 0000 0000 0000 0000 0000
00000150: 0000 0000 0000 0000 0000 0000 0000 0000
00000160: 0000 0000 0000 0000 0000 0000 0000 0000
00000170: 0000 0000 0000 0000 0000 0000 0000 0000
00000180: 0000 0000 0000 0000 0000 0000 0000 0000
00000190: 0000 0000 0000 0000 0000 0000 0000 0000
000001a0: 0000 0000 0000 0000 0000 0000 0000 0000
000001b0: 0000 0000 0000 0000 0000 0000 0000 0000
000001c0: 0000 0000 0000 0000 0000 0000 0000 0000
000001d0: 0000 0000 0000 0000 0000 0000 0000 0000
000001e0: 0000 0000 0000 0000 0000 0000 0000 0000
000001f0: 0000 0000 0000 0000 0000 0000 0000 0000
00000200: 0000 0000 0000 0000 0000 0000 0000 0000
00000210: 0000 0000 0000 0000 0000 0000 0000 0000
00000220: 0000 0000 0000 0000 0000 0000 0000 0000
00000230: 0000 0000 0000 0000 0000 0000 0000 0000
00000240: 0000 0000 0000 0000 0000 0000 0000 0000
00000250: 0000 0000 0000 0000 0000 0000 0000 0000
00000260: 0000 0000 0000 0000 0000 0000 0000 0000
00000270: 0000 0000 0000 0000 0000 0000 0000 0000
00000280: 0000 0000 0000 0000 0000 0000 0000 0000
00000290: 0000 0000 0000 0000 0000 0000 0000 0000
000002a0: 0000 0000 0000 0000 0000 0000 0000 0000
000002b0: 0000 0000 0000 0000 0000 0000 0000 0000
000002c0: 0000 0000 0000 0000 0000 0000 0000 0000
000002d0: 0000 0000 0000 0000 0000 0000 0000 0000
000002e0: 0000 0000 0000 0000 0000 0000 0000 0000
000002f0: 0000 0000 0000 0000 0000 0000 0000 0000
00000300: 0000 0000 0000 0000 0000 0000 0000 0000
00000310: 0000 0000 0000 0000 0000 0000 0000 0000
00000320: 0000 0000 0000 0000 0000 0000 0000 0000
00000330: 0000 0000 0000 0000 0000 0000 0000 0000
00000340: 0000 0000 0000 0000 0000 0000 0000 0000
00000350: 0000 0000 0000 0000 0000 0000 0000 0000
00000360: 0000 0000 0000 0000 0000 0000 0000 0000
00000370: 0000 0000 0000 0000 0000 0000 0000 0000
00000380: 0000 0000 0000 0000 0000 0000 0000 0000
00000390: 0000 0000 0000 0000 0000 0000 0000 0000
000003a0: 0000 0000 0000 0000 0000 0000 0000 0000
000003b0: 0000 0000 0000 0000 0000 0000 0000 0000
000003c0: 0000 0000 0000 0000 0000 0000 0000 0000
000003d0: 0000 0000 0000 0000 0000 0000 0000 0000
000003e0: 0000 0000 0000 0000 0000 0000 0000 0000
000003f0: 0000 0000 0000 0000 0000 0000 0000 0000

action_model._continuous_distribution.mu.weight f4 [1000, 128]
-0.011075862 0.016829992 -0.0022990007 -0.00027470334 -0.014572302 0.036603883 0.050266307 0.012505633
0.01313506 -0.00948858 -0.004632975 0.0434958 0.021647338 -0.0027679994 -0.021713592 0.01395451
0.0045156092 -0.011269022 -0.0288075 -0.00086024817 -0.0062456443 0.035761666 -0.0055290163 0.0033843764
-0.009295883 -0.002142415 -0.0044471095 -0.026387844 -0.00029699432 0.0009348886 0.00013966035 0.010572251
0.0072494852 -0.04463292 -0.0016974915 -0.030921638 0.017258875 0.0037456655 0.008386657 -0.025654444
-0.025319282 -0.02507853 -0.017565241 -0.005725993 -0.033720803 -0.022255566 -0.012147685 0.0022227901
-0.01834491 0.00035896973 -0.01465858 -0.016660823 0.011342476 -0.019370738 -0.0160605 0.009576979
0.00047313105 -0.0065526455 -0.04278178 0.004045311 0.017788863 -0.028932557 -0.02335166 0.012901497
0.014117086 0.0023632727 0.03162059 -0.007672628 0.002573665 0.0047627385 -0.005946502 0.0025945054
0.0050032954 -0.0078215245 -0.010029762 -0.0021443416 -0.011175417 0.00868378 0.0014847219 0.015552319
-0.0091642365 -0.005952683 0.007510592 -0.018970294 -0.020013196 0.014269054 0.034568068 0.024819741
-0.010657605 0.02196728 0.0025889506 -0.010767977 0.020168614 -0.009764676 0.04904754 0.037850786
0.0050876117 0.0075839623 -0.008957146 0.014606381 -0.0020007987 -0.039923105 0.033830862 0.014540903
-0.014632051 0.019295549 -0.015577832 0.0144703165 -0.030060038 -0.00472018 -0.008118684 0.019518944
0.0084360335 -0.024394805 -0.020052016 -0.006983089 0.025380174 0.014286937 0.020674296 0.012113928
0.028232684 0.012659545 0.0150557775 -0.018212935 0.016183315 0.00078785606 -0.014132643 -0.02248488
0.017734159 0.03248161 0.012505702 -0.009815797 -0.013485134 0.014965204 0.019822562 0.007157168
-0.0057846755 0.014728612 -0.00140656 0.01187872 -0.0010350634 0.0011648932 -0.012087339 0.011009861
0.007925112 0.0015996535 -0.021711292 -0.0007930659 0.010661238 -0.011588751 -0.015692793 -0.012694016
0.026340172 0.03652089 0.008115911 -0.039212964 -0.03165393 0.015633916 -0.008801938 -0.023238475
0.013564805 0.0022345255 0.038640305 0.021384984 0.012596192 -0.013648151 0.0010654101 -0.023011278
-0.008209672 -0.0063230963 -0.025860673 -0.0038232754 0.005759981 0.018816123 -0.014053269 0.004694562
-0.019894008 0.01011209 -0.018404583 0.025139933 0.028496265 -0.0069021075 -0.030376539 0.013504274
-0.0073364223 0.012955985 0.011861716 -0.012620874 -0.026788732 -0.032330297 0.030835653 -0.016592052
-0.022465901 0.011922745 0.007121639 0.03416514 0.003660246 0.008110191 0.011078917 0.014594713
-0.017117897 0.024166156 0.0018498165 0.036655746 0.029784082 -0.008264525 0.009255507 0.0018606427
-0.01623455 -0.0027511506 0.015346022 0.0009915152 0.005599705 0.0162008 0.010498972 -0.015939979
0.0058235633 -0.0037111954 -0.0035479472 0.017834123 0.021558186 -0.030274123 -0.015720239 -0.0052761002
-0.016009988 0.0062008696 -0.0040553617 0.0052912743 -0.015683997 -0.008188552 0.010397424 -0.025669042
0.009535843 -0.012414096 -0.0040750015 0.004985766 0.013107474 -0.0014654794 -0.000754199 0.02377536
0.00608478 0.018105125 -0.0011763576 -0.012010811 0.01824323 -0.0065713613 0.023690483 0.02308381
0.01147762 0.022759743 -0.045609165 -0.0045370013 0.010832212 0.004236704 0.012659003 0.0014645524
00000000: 8877 35bc 0ddf 893c d5aa 16bb 0f06 90b9
00000010: aac0 6ebc f4ed 153d 0be4 4d3d 6de4 4c3c
00000020: 6f34 573c fd75 1bbc 36d0 97bb a728 323d
00000030: c255 b13c 5367 35bb b4e0 b1bc 75a1 643c
00000040: adf7 933b b4a1 38bc b5fd ebbc 4782 61ba
00000050: 43a8 ccbb d37a 123d c02c b5bb 6acc 5d3b
00000060: c24d 18bc c267 0cbb 0fb9 91bb 522b d8bc
00000070: e7b5 9bb9 5013 753a ca71 1239 3c37 2d3c
00000080: 178d ed3b 02d1 36bd 5d7e deba 604f fdbc
00000090: 7c62 8d3c d779 753b 3068 093c 4529 d2bc
000000a0: 626a cfbc 7d71 cdbc fbe4 8fbc 1ca1 bbbb
000000b0: d31e 0abd 4e51 b6bc 1507 47bc 3bac 113b
000000c0: 1148 96bc 1a34 bc39 8a2a 70bc 477c 88bc
000000d0: cbd5 393c 62af 9ebc 4f91 83bc c3e8 1c3c
000000e0: 930e f839 93b7 d6bb f33b 2fbd 878e 843b
000000f0: f3b9 913c f803 edbc fb4b bfbc cd60 533c
00000100: 5a4b 673c 23e1 1a3b 9784 013d ab6a fbbb
00000110: efaa 283b bf10 9c3b e0da c2bb 9408 2a3b
00000120: aff2 a33b da25 00bc df53 24bc 1588 0cbb
00000130: 1919 37bc 6a46 0e3c 009b c23a 27cf 7e3c
00000140: 9825 16bc b90e c3bb 6a1b f63b 9767 9bbc
00000150: b7f2 a3bc c0c8 693c 3f97 0d3d c552 cb3c
00000160: 3c9d 2ebc baf4 b33c 62ab 293b 2b6c 30bc
00000170: a638 a53c 05fc 1fbc 13e6 483d 6d09 1b3d
00000180: fbb5 a63b e382 f83b fec0 12bc 9a4f 6f3c
00000190: d51f 03bb 6986 23bd 3b92 0a3d f83c 6e3c
000001a0: 45bb 6fbc b311 9e3c 2a3a 7fbc e814 6d3c
000001b0: 7840 f6bc bdab 9abb 3b04 05bc 31e6 9f3c
000001c0: 4a37 0a3c 9dd7 c7bc 2044 a4bc 65d2 e4bb
000001d0: 15ea cf3c c213 6a3c 245d a93c 7f79 463c
000001e0: 3b48 e73c fb69 4f3c 82ac 763c 4b33 95bc
000001f0: df92 843c 2088 4e3a 9a8c 67bc 3632 b8bc
00000200: 3a47 913c 700b 053d b7e4 4c3c 70d2 20bc
00000210: c0f0 5cbc 9d30 753c ed62 a23c ad86 ea3b
00000220: 608d bdbb 4750 713c 525c b8ba f69e 423c
00000230: f7aa 87ba 54af 983a f909 46bc b462 343c
00000240: 54d8 013c 77ab d13a e1db b1bc c0e5 4fba
00000250: 79ac 2e3c bfde 3dbc 2c8e 80bc 90fa 4fbc
00000260: 58c7 d73c ee96 153d 99f8 043c c69d 20bd
00000270: 8da7 01bd b312 803c 0136 10bc 9d5e bebc
00000280: ea3e 5e3c 1e71 123b 4c45 1e3d 902f af3c
00000290: 4260 4e3c 7f9c 5fbc 3ba5 8b3a 2682 bcbc
000002a0: dc81 06bc fa31 cfbb c3d9 d3bc eb8f 7abb
000002b0: 39be bc3b 4524 9a3c af3f 66bc d7d4 993b
000002c0: c2f8 a2bc 2ead 253c 35c5 96bc 43f2 cd3c
000002d0: 0071 e93c 132b e2bb 38d8 f8bc 0841 5d3c
000002e0: 5f66 f0bb 5745 543c a557 423c c8c7 4ebc
000002f0: 0b74 dbbc c66c 04bd 0d9b fc3c 0eec 87bc
00000300: 690a b8bc 9e57 433c a35c e93b bff0 0b3d
00000310: bde0 6f3b 9be0 043c 5984 353c aa1e 6f3c
00000320: d53a 8cbc 1af8 c53c 8b75 f23a 5624 163d
00000330: bffd f33c ee67 07bc 69a4 173c cfe0 f33a
00000340: 52fe 84bc a64c 34bb e26d 7b3c bbf5 813a
00000350: bb7d b73b 8ab7 843c e103 2c3c 8f94 82bc
00000360: 97d3 be3b 8737 73bb ad84 68bb de18 923c
00000370: cb9a b03c 7001 f8bc bbc7 80bc 23e3 acbb
00000380: 6127 83bc aa30 cb3b d7e2 84bb 6d62 ad3b
00000390: ba7b 80bc 4729 06bc f559 2a3c e247 d2bc
000003a0: 393c 1c3c 7e64 4bbc 9787 85bb a35f a33b
000003b0: bbc0 563c 5415 c0ba 70b5 45ba 8bc4 c23c
000003c0: d662 c73b 3351 943c 0330 9aba fec8 44bc
000003d0: d472 953c 9354 d7bb 8b12 c23c 421a bd3c
000003e0: a10c 3c3c a472 ba3c add0 3abd 20ab 94bb
000003f0: 9779 313c 0dd4 8a3b b567 4f3c 39f6 bf3a

action_model._continuous_distribution.mu.bias f4 [1000]
0.0 0.0 0.0 0.0 0.0 0.0 0.0 0.0
0.0 0.0 0.0 0.0 0.0 0.0 0.0 0.0
0.0 0.0 0.0 0.0 0.0 0.0 0.0 0.0
0.0 0.0 0.0 0.0 0.0 0.0 0.0 0.0
0.0 0.0 0.0 0.0 0.0 0.0 0.0 0.0
0.0 0.0 0.0 0.0 0.0 0.0 0.0 0.0
0.0 0.0 0.0 0.0 0.0 0.0 0.0 0.0
0.0 0.0 0.0 0.0 0.0 0.0 0.0 0.0
0.0 0.0 0.0 0.0 0.0 0.0 0.0 0.0
0.0 0.0 0.0 0.0 0.0 0.0 0.0 0.0
0.0 0.0 0.0 0.0 0.0 0.0 0.0 0.0
0.0 0.0 0.0 0.0 0.0 0.0 0.0 0.0
0.0 0.0 0.0 0.0 0.0 0.0 0.0 0.0
0.0 0.0 0.0 0.0 0.0 0.0 0.0 0.0
0.0 0.0 0.0 0.0 0.0 0.0 0.0 0.0
0.0 0.0 0.0 0.0 0.0 0.0 0.0 0.0
0.0 0.0 0.0 0.0 0.0 0.0 0.0 0.0
0.0 0.0 0.0 0.0 0.0 0.0 0.0 0.0
0.0 0.0 0.0 0.0 0.0 0.0 0.0 0.0
0.0 0.0 0.0 0.0 0.0 0.0 0.0 0.0
0.0 0.0 0.0 0.0 0.0 0.0 0.0 0.0
0.0 0.0 0.0 0.0 0.0 0.0 0.0 0.0
0.0 0.0 0.0 0.0 0.0 0.0 0.0 0.0
0.0 0.0 0.0 0.0 0.0 0.0 0.0 0.0
0.0 0.0 0.0 0.0 0.0 0.0 0.0 0.0
0.0 0.0 0.0 0.0 0.0 0.0 0.0 0.0
0.0 0.0 0.0 0.0 0.0 0.0 0.0 0.0
0.0 0.0 0.0 0.0 0.0 0.0 0.0 0.0
0.0 0.0 0.0 0.0 0.0 0.0 0.0 0.0
0.0 0.0 0.0 0.0 0.0 0.0 0.0 0.0
0.0 0.0 0.0 0.0 0.0 0.0 0.0 0.0
0.0 0.0 0.0 0.0 0.0 0.0 0.0 0.0
00000000: 0000 0000 0000 0000 0000 0000 0000 0000
00000010: 0000 0000 0000 0000 0000 0000 0000 0000
00000020: 0000 0000 0000 0000 0000 0000 0000 0000
00000030: 0000 0000 0000 0000 0000 0000 0000 0000
00000040: 0000 0000 0000 0000 0000 0000 0000 0000
00000050: 0000 0000 0000 0000 0000 0000 0000 0000
00000060: 0000 0000 0000 0000 0000 0000 0000 0000
00000070: 0000 0000 0000 0000 0000 0000 0000 0000
00000080: 0000 0000 0000 0000 0000 0000 0000 0000
00000090: 0000 0000 0000 0000 0000 0000 0000 0000
000000a0: 0000 0000 0000 0000 0000 0000 0000 0000
000000b0: 0000 0000 0000 0000 0000 0000 0000 0000
000000c0: 0000 0000 0000 0000 0000 0000 0000 0000
000000d0: 0000 0000 0000 0000 0000 0000 0000 0000
000000e0: 0000 0000 0000 0000 0000 0000 0000 0000
000000f0: 0000 0000 0000 0000 0000 0000 0000 0000
00000100: 0000 0000 0000 0000 0000 0000 0000 0000
00000110: 0000 0000 0000 0000 0000 0000 0000 0000
00000120: 0000 0000 0000 0000 0000 0000 0000 0000
00000130: 0000 0000 0000 0000 0000 0000 0000 0000
00000140: 0000 0000 0000 0000 0000 0000 0000 0000
00000150: 0000 0000 0000 0000 0000 0000 0000 0000
00000160: 0000 0000 0000 0000 0000 0000 0000 0000
00000170: 0000 0000 0000 0000 0000 0000 0000 0000
00000180: 0000 0000 0000 0000 0000 0000 0000 0000
00000190: 0000 0000 0000 0000 0000 0000 0000 0000
000001a0: 0000 0000 0000 0000 0000 0000 0000 0000
000001b0: 0000 0000 0000 0000 0000 0000 0000 0000
000001c0: 0000 0000 0000 0000 0000 0000 0000 0000
000001d0: 0000 0000 0000 0000 0000 0000 0000 0000
000001e0: 0000 0000 0000 0000 0000 0000 0000 0000
000001f0: 0000 0000 0000 0000 0000 0000 0000 0000
00000200: 0000 0000 0000 0000 0000 0000 0000 0000
00000210: 0000 0000 0000 0000 0000 0000 0000 0000
00000220: 0000 0000 0000 0000 0000 0000 0000 0000
00000230: 0000 0000 0000 0000 0000 0000 0000 0000
00000240: 0000 0000 0000 0000 0000 0000 0000 0000
00000250: 0000 0000 0000 0000 0000 0000 0000 0000
00000260: 0000 0000 0000 0000 0000 0000 0000 0000
00000270: 0000 0000 0000 0000 0000 0000 0000 0000
00000280: 0000 0000 0000 0000 0000 0000 0000 0000
00000290: 0000 0000 0000 0000 0000 0000 0000 0000
000002a0: 0000 0000 0000 0000 0000 0000 0000 0000
000002b0: 0000 0000 0000 0000 0000 0000 0000 0000
000002c0: 0000 0000 0000 0000 0000 0000 0000 0000
000002d0: 0000 0000 0000 0000 0000 0000 0000 0000
000002e0: 0000 0000 0000 0000 0000 0000 0000 0000
000002f0: 0000 0000 0000 0000 0000 0000 0000 0000
00000300: 0000 0000 0000 0000 0000 0000 0000 0000
00000310: 0000 0000 0000 0000 0000 0000 0000 0000
00000320: 0000 0000 0000 0000 0000 0000 0000 0000
00000330: 0000 0000 0000 0000 0000 0000 0000 0000
00000340: 0000 0000 0000 0000 0000 0000 0000 0000
00000350: 0000 0000 0000 0000 0000 0000 0000 0000
00000360: 0000 0000 0000 0000 0000 0000 0000 0000
00000370: 0000 0000 0000 0000 0000 0000 0000 0000
00000380: 0000 0000 0000 0000 0000 0000 0000 0000
00000390: 0000 0000 0000 0000 0000 0000 0000 0000
000003a0: 0000 0000 0000 0000 0000 0000 0000 0000
000003b0: 0000 0000 0000 0000 0000 0000 0000 0000
000003c0: 0000 0000 0000 0000 0000 0000 0000 0000
000003d0: 0000 0000 0000 0000 0000 0000 0000 0000
000003e0: 0000 0000 0000 0000 0000 0000 0000 0000
000003f0: 0000 0000 0000 0000 0000 0000 0000 0000

action_model._discrete_distribution.branches.0.weight f4 [2, 128]
-0.018582398 -0.00630805 -0.0008710308 0.01288719 -0.0082196025 0.003578914 0.0034469457 0.011204977
0.0066504697 -0.0048150285 -0.008785839 0.005181498 0.0022020373 -0.0035383317 -0.0060203127 0.00027974285
0.015429868 0.010813687 -0.0017186517 0.0050143115 -0.0089549 0.0030975032 0.011238145 -0.006053457
0.0075238566 -0.0022120676 -0.003270118 -0.012820466 0.008201676 -0.0066815116 0.013145243 -0.007321689
0.021581696 -0.0039006048 0.003313606 -0.0026600861 0.005481453 -0.0010767077 0.015214345 -0.011377144
-0.00080017245 0.008549631 -0.012776407 -0.016193142 -0.010194378 0.0023604443 0.0023428905 0.01321379
-0.0005370799 0.0045772246 0.00811893 0.018832793 0.0040223016 0.0060360897 -0.007931323 -0.0073360833
0.0039538494 -0.006015476 -0.0029513212 -0.005126491 0.005235541 0.00762626 -0.00091899274 0.0011972523
0.0062917224 -0.0058688386 -0.014283783 0.0016948488 -0.008703789 0.00091602065 -0.015143446 -0.0002593715
0.0031873833 0.0011523138 -0.008040166 -0.01702669 0.0011536665 0.024544917 -0.013280406 0.002383173
0.01578535 -0.0097185075 0.0042407764 0.015059384 -0.007861777 -0.010397873 0.015436746 0.006109061
0.0030910017 -0.0032052926 0.006626344 0.0010816169 -0.010497315 0.0051476983 -0.00054819667 0.00839542
-0.011874466 0.013286561 0.002793865 0.00076837826 0.008208406 0.003003855 -0.001097896 0.007080767
0.0080168145 -0.010945584 0.0019050733 -0.0017780084 -0.0011321747 -0.012809652 0.0070859576 0.0044984184
-0.0071880124 -0.0017662533 -0.00032085387 0.005043074 0.002056752 0.0077173184 -0.00829466 0.014875935
0.0029066259 -0.0032857978 0.011494805 -0.0040626074 0.012287447 0.0022645649 -0.0035840177 -0.009674351
0.0055688736 9.754561e-05 -0.0048249774 -0.0026608054 -0.011619876 0.010018679 -0.0075758207 -0.004301173
-0.0069780448 -0.007170313 -0.006141732 0.007768867 0.019527758 0.0080294 -0.0030354273 -0.0025376303
-0.01103342 -0.004303777 -0.005692129 -0.0067589725 0.004360674 0.0031474454 -0.011254367 -0.0009941121
0.006310881 -0.0062230793 0.006131244 -0.0071932375 -0.0044501005 -0.008472447 4.700875e-05 0.0046309703
-0.0031847816 0.009594788 -0.0011144037 0.0060284915 0.007219375 -0.005405807 0.003203307 0.00411421
0.0066238134 -8.272341e-05 -0.0017065796 0.0042474116 -0.005736613 -0.0010504175 -0.0075232396 0.0030691095
-0.005056691 -0.0044694436 0.0016521497 0.00060161395 0.0053075994 0.0056868964 0.00026716208 -0.0037316692
0.004805554 0.004463244 0.01465403 0.0011784573 0.0093723675 0.003579997 0.0014334741 6.9586604e-06
-0.0018554258 -0.0070564784 -0.010427722 0.007460922 -0.011294643 -0.002381603 -0.008710376 -0.018320728
0.009249856 -0.007996672 0.0021715674 -0.0053316415 0.0031570499 -0.024227077 -0.0122111775 0.006941425
-0.0075133033 -0.011561656 -0.0040099747 0.0017387113 0.005447625 0.0030684455 0.004562679 0.0076011196
-0.016250154 -0.0012683235 0.002625314 -0.0050587463 -0.004779249 -0.024225187 0.015576543 0.013080211
0.00042742465 0.011363684 -0.011800165 -0.0016213668 -0.013628862 -0.00663675 -0.00077598443 0.010122015
-0.008826988 0.00060409616 -0.0052491357 0.008766866 0.009209521 0.0024244653 0.009313134 0.0021011482
-0.005818497 0.003934625 -0.0043613403 0.0077020624 -0.0056361086 -0.004093133 -0.008119087 -0.0008852691
0.003590464 0.0151150515 -0.008693512 -0.005762504 -0.0012642522 0.012797962 0.009290167 0.0049448586
00000000: 1d3a 98bc c2b3 cebb e355 64ba cb24 533c
00000010: 83ab 06bc 378c 6a3b 27e6 613b 1495 373c
00000020: 2fec d93b 63c7 9dbb 7bf2 0fbc 8ec9 a93b
00000030: 0e50 103b 5be3 67bb 0b46 c5bb 73aa 9239
00000040: 8fcd 7c3c e42b 313c 6244 e1ba 184f a43b
00000050: 93b7 12bc 7bff 4a3b 3220 383c 145c c6bb
00000060: af8a f63b 56f8 10bb 7a4f 56bb ef0c 52bc
00000070: 5360 063c 95f0 dabb 255f 573c c7ea efbb
00000080: 19cc b03c 4aa1 7fbb 1529 593b d754 2ebb
00000090: c39d b33b 5120 8dba 9745 793c 3367 3abc
000000a0: aac2 51ba c013 0c3c 2354 51bc 7ba7 84bc
000000b0: 5206 27bc afb1 1a3b 2e8b 193b a77e 583c
000000c0: d2ca 0cba 8bfc 953b 4305 053c 3b47 9a3c
000000d0: 83cd 833b 64ca c53b 61f2 01bc 8763 f0bb
000000e0: 4b8f 813b 781d c5bb f46a 41bb 20fc a7bb
000000f0: e78e ab3b b5e5 f93b 8fe8 70ba 1fed 9c3a
00000100: cb2a ce3b 634f c0bb 8706 6abc b025 de3a
00000110: 569a 0ebc 1b21 703a 371c 78bc 41fc 87b9
00000120: 6be3 503b 3c09 973a e7ba 03bc 8f7b 8bbc
00000130: a036 973a 6c12 c93c 0f96 59bc 022f 1c3b
00000140: 4750 813c 603a 1fbc 36f6 8a3b a2bb 763c
00000150: afce 00bc d75b 2abc 68ea 7c3c 852e c83b
00000160: 6792 4a3b e30f 52bb cd21 d93b 0ac5 8d3a
00000170: eefc 2bbc 06ae a83b dbb4 0fba f28c 093c
00000180: 1f8d 42bc e0af 593c 4719 373b fe6c 493a
00000190: 8d7c 063c 53dc 443b 47e7 8fba c705 e83b
000001a0: f558 033c 1b55 33bc a7b3 f93a 100c e9ba
000001b0: 7b65 94ba 93df 51bc 5231 e83b 7867 933b
000001c0: 6b89 ebbb a081 e7ba 4738 a8b9 5f40 a53b
000001d0: 93ca 063b 8fe1 fc3b 53e6 07bc 32ba 733c
000001e0: 177d 3e3b 8a56 57bb b554 3c3c 9f1f 85bb
000001f0: 4a51 493c 1869 143b d7e1 6abb 2b81 1ebc
00000200: 197b b63b 6791 cc38 d81a 9ebb e860 2ebb
00000210: 4b61 3ebc 6325 243c 973e f8bb dbf0 8cbb
00000220: 15a8 e4bb f2f4 eabb 9540 c9bb fb91 fe3b
00000230: adf8 9f3c bf8d 033c 05ee 46bb 5f4e 26bb
00000240: 85c5 34bc b306 8dbb 0a85 babb 5f7a ddbb
00000250: fce3 8e3b 5f45 4e3b 3d64 38bc de4c 82ba
00000260: 82cb ce3b f9ea cbbb 9ae8 c83b 40b5 ebbb
00000270: 26d2 91bb 05d0 0abc 432b 4538 65bf 973b
00000280: c5b7 50bb 7533 1d3c 2f11 92ba a78a c53b
00000290: 8290 ec3b 3223 b1bb 93ee 513b 7fd0 863b
000002a0: 930c d93b cb7b adb8 4faf dfba df2d 8b3b
000002b0: 33fa bbbb 2aae 89ba 8285 f6bb 1d23 493b
000002c0: 99b2 a5bb 6974 92bb f28c d83a a1b5 1d3a
000002d0: 5feb ad3b 2559 ba3b e311 8c39 058f 74bb
000002e0: e977 9d3b 6840 923b 7517 703c 7776 9a3a
000002f0: 8f8e 193c 629e 6a3b 69e3 bb3a 707e e936
00000300: c231 f3ba 083a e7bb 09d9 2abc c07a f43b
00000310: 2b0d 39bc ab14 1cbb f7b5 0ebc 5a15 96bc
00000320: b58c 173c 7904 03bc db50 0e3b 0db5 aebb
00000330: 82e6 4e3b dd77 c6bc 6411 48bc e574 e33b
00000340: 2832 f6bb 1a6d 3dbc 1b66 83bb 78e5 e33a
00000350: fe81 b23b f917 493b 8782 953b d012 f93b
00000360: 0b1f 85bc e03d a6ba 760d 2c3b d7c3 a5bb
00000370: 3f9b 9cbb e673 c6bc c234 7f3c 624e 563c
00000380: f717 e039 bf2e 3a3c 7b55 41bc 0b84 d4ba
00000390: 974b 5fbc 1879 d9bb 6f6b 4bba cfd6 253c
000003a0: 129f 10bc 355c 1e3a f100 acbb e7a2 0f3c
000003b0: 88e3 163c c7e3 1e3b 1d96 183c 6bb3 093b
000003c0: 17a9 bebb 07ee 803b 93e9 8ebb 9561 fc3b
000003d0: 1baf b8bb b01f 86bb eb05 05bc 6711 68ba
000003e0: fd4d 6b3b 1fa5 773c 3b6f 0ebc 63d3 bcbb
000003f0: 44b5 a5ba 8bae 513c c935 183c 7b08 a23b

action_model._discrete_distribution.branches.0.bias f4 [2]
0.0 0.0
00000000: 0000 0000 0000 0000

action_model._discrete_distribution.branches.1.weight f4 [2, 128]
0.0034732444 0.005591498 -0.007901375 -0.008996694 0.005730231 -0.020567046 0.008179172 0.004127948
0.00876375 0.004825668 -0.013333924 -0.0036866553 -0.008295867 -0.011489133 0.005741995 -0.0069566183
-0.00538292 0.004068377 0.0023789462 0.010100553 0.00077637617 -0.006812437 0.012780984 0.004852029
0.007879706 0.011376117 -0.0011338199 0.0059247585 -0.005909638 -0.013655667 0.005492457 0.00010945761
0.010818346 0.003983348 -0.004083498 0.0025085458 -0.001812187 -0.009416378 0.005009655 -0.0031563651
-0.0055485587 0.003933274 -0.001853492 -0.0098955985 -0.008315752 -0.017877651 0.0059202597 0.01325116
-0.006200954 0.0055570914 -0.003892626 -0.010660042 -0.0065494366 0.008371572 -0.0015165161 -0.0077114874
-0.0022670636 -0.0007027416 -0.00136218 -0.009388036 -0.0061977203 -0.008282052 -0.009566307 -0.0019478372
-0.011415407 -0.009565196 0.004557095 -0.0022192646 0.004722872 0.004420033 -0.011729541 -0.0016610107
-0.0025193335 0.0030348294 0.0013412373 -0.0030968317 -0.004157733 -0.0025385253 -0.010336698 -0.025245259
-0.006975534 0.00045387415 0.019888457 -0.0046680435 -0.021832736 0.007362815 0.010016516 -0.0017981224
0.006796623 0.000368233 0.009462469 -0.0032112908 -0.008850796 0.00012735122 -0.0022469247 -0.010280677
-0.0017563449 0.0074135587 0.0037370292 0.0007060352 -0.007727881 -0.0006614452 -0.012251775 -0.0026786507
0.012080124 -0.008458209 0.0013921986 0.0012013558 -0.0017072285 0.010500221 0.006935586 -0.0013733527
-0.0017042423 -0.011746852 -0.017542763 -1.8360965e-05 -0.0021562874 0.001275773 0.0020920285 -0.011570545
0.0018935496 0.0026431803 0.008000679 -0.0076882476 0.00074708316 0.003157017 -0.008690489 -0.0057164817
0.008065767 0.019515641 0.001530532 0.012419089 0.008251079 -0.0048315856 -0.0035850871 0.013295139
0.009801108 0.007706472 0.0008378325 0.0103316335 -0.0075401845 0.0018499792 0.014485526 0.0058417725
0.0027946325 0.0028286863 0.0055520297 -0.006403231 0.011118571 0.007345464 0.007955437 -0.002574444
-0.002672362 -0.0040428634 0.00063264923 0.006941603 -0.0058741714 -0.00091834407 0.004632479 0.011899381
0.0031280823 0.004745755 -0.008462233 -0.001783563 -0.009891389 -0.006322656 -0.0005202588 -0.0032053594
-0.013323955 -0.00943246 0.0023293362 -0.010086331 0.006937947 0.004038635 0.00382698 -0.005809914
0.011414907 0.0022608025 -0.022493025 0.011244065 0.012505042 -0.008225793 -0.004886788 -0.005173205
-0.0021765276 -0.009309431 -0.019303804 -0.00034553607 0.0040659714 -0.005194708 0.011632516 -0.011517889
0.0019953947 0.008969202 0.010847747 -0.0026559553 0.0028457018 -0.005704449 -0.005419375 -0.0033098438
0.00326025 -0.010893914 0.0061496063 -0.013235429 -0.0071067996 0.020337483 -0.010868891 0.011840337
0.011365737 0.0060091177 0.004455918 0.0078048795 0.0029128864 0.011221949 0.0073945695 0.0009547621
-0.006291289 0.0035512547 -0.0015043014 -0.017353354 0.007877233 -0.0038559292 0.010145359 -0.008906476
0.010237058 -0.0016551281 -0.010463099 0.019603616 0.012563989 0.0009656831 0.0047488604 -0.008907384
0.008636593 -0.0015905787 0.011450012 -0.006301142 -0.00063906284 -0.010805737 -0.008327383 0.009790972
0.008505285 -0.011332362 0.011307975 -0.006486778 -0.009805498 0.004522467 0.008068497 -0.010022289
-0.0111687835 0.0065296874 -0.011400784 0.003486899 -0.0059295795 0.0071256966 0.0015124193 0.004383254
00000000: 5f9f 633b e338 b73b c574 01bc df66 13bc
00000010: a9c4 bb3b 397c a8bc ef01 063c bd43 873b
00000020: d595 0f3c a320 9e3b 8876 5abc d09b 71bb
00000030: 63eb 07bc eb3c 3cbc 5827 bc3b 58f4 e3bb
00000040: 3563 b0bb 0550 853b 18e8 1b3b ca7c 253c
00000050: b985 4b3a dd3a dfbb 5567 513c c5fd 9e3b
00000060: e219 013c e562 3a3c af9c 94ba 7a24 c23b
00000070: a3a5 c1bb 05bc 5fbc 12fa b33b 9b8c e538
00000080: 6f3f 313c bf86 823b ddce 85bb 6a66 243b
00000090: e886 edba 2747 1abc 0828 a43b 05db 4ebb
000000a0: afd0 b5bb b2e2 803b dff0 f2ba 2621 22bc
000000b0: cb3e 08bc 2774 92bc bdfe c13b 651b 593c
000000c0: 5f31 cbbb 4318 b63b 6d1b 7fbb 75a7 2ebc
000000d0: a89c d6bb eb28 093c d6c5 c6ba a5b0 fcbb
000000e0: 0493 14bb 3138 38ba 2d8b b2ba 47d0 19bc
000000f0: 3f16 cbbb 72b1 07bc 00bc 1cbc 924e ffba
00000100: b007 3bbc 57b7 1cbc af53 953b 1571 11bb
00000110: 52c2 9a3b edd5 903b 432d 40bc 45b6 d9ba
00000120: 671b 25bb fde3 463b 75cc af3a 37f4 4abb
00000130: 983d 88bb 635d 26bb 415b 29bc 25cf cebc
00000140: 0593 e4bb f5f5 ed39 1eed a23c 63f6 98bb
00000150: 91da b2bc c543 f13b 501c 243c faae ebba
00000160: 35b6 de3b 660f c139 7908 1b3c 8574 52bb
00000170: ee02 11bc 9589 0539 2441 13bb 4970 28bc
00000180: 2835 e6ba 70ed f23b f2e8 743b 3815 393a
00000190: 2a3a fdbb d664 2dba abbb 48bc 4d8c 2fbb
000001a0: b6eb 453c 4d94 0abc 6f7a b63a d076 9d3a
000001b0: 15c5 dfba 1e09 2c3c ea43 e33b 1202 b4ba
000001c0: e260 dfba de75 40bc d7b5 8fbc df05 9ab7
000001d0: 8050 0dbb d737 a73a 6a1a 093b 6292 3dbc
000001e0: fb30 f83a 3539 2d3b 4815 033c b2ed fbbb
000001f0: e7d7 433a f5e5 4e3b 8e62 0ebc 5351 bbbb
00000200: 4726 043c 44df 9f3c 229c c83a 6f79 4b3c
00000210: 892f 073c 4752 9ebb c8f3 6abb dbd3 593c
00000220: d494 203c 9386 fc3b fda1 5b3a 0346 293c
00000230: a713 f7bb 007b f23a b354 6d3c 576c bf3b
00000240: 2726 373b 7b61 393b cded b53b 32d2 d1bb
00000250: ab2a 363c 38b2 f03b 8557 023c 01b8 28bb
00000260: cb22 2fbb ff79 84bb 5fd8 253a 6376 e33b
00000270: 1f7c c0bb 07bd 70ba 0dcc 973b 9ff5 423c
00000280: 8300 4d3b 4782 9b3b 2da5 0abc 72c6 e9ba
00000290: 7e0f 22bc 482e cfbb fa61 08ba 0211 52bb
000002a0: b84c 5abc 9b8a 1abc c7a7 183b 2341 25bc
000002b0: b857 e33b 8756 843b 12ce 7a3b 1761 bebb
000002c0: 9705 3b3c f929 143b 4b43 b8bc 0739 383c
000002d0: f3e1 4c3c 7ac5 06bc 5921 a0bb fd83 a9bb
000002e0: 13a4 0ebb 9586 18bc 0323 9ebc 1129 b5b9
000002f0: d73b 853b 5e38 aabb 4f96 3e3c 87b5 3cbc
00000300: 2bc5 023b 8ff3 123c c0ba 313c 890f 2ebb
00000310: f47e 3a3b 63ec babb 0395 b1bb f7e9 58bb
00000320: eba9 553b 637c 32bc a382 c93b 6ad9 58bc
00000330: 28e0 e8bb cb9a a63c 6f13 32bc f9fd 413c
00000340: 5b37 3a3c 22e8 c43b f302 923b 13c0 ff3b
00000350: 20e6 3e3b 44dc 373c 254e f23b 0049 7a3a
00000360: 2827 cebb 2bbc 683b fb2b c5ba 9f28 8ebc
00000370: 830f 013c c2b3 7cbb b838 263c 78ec 11bc
00000380: 55b9 273c e2f0 d8ba 6b6d 2bbc c397 a03c
00000390: 30d9 4d3c e525 7d3a 549c 9b3b 47f0 11bc
000003a0: 7f80 0d3c f77a d0ba d598 3b3c cf79 cebb
000003b0: c886 27ba 8c0a 31bc 936f 08bc 506a 203c
000003c0: c059 0b3c 5fab 39bc 1645 393c 0a8f d4bb
000003d0: 3da7 20bc 3431 943b bb31 043c 8734 24bc
000003e0: 46fd 36bc fdf6 d53b 5bca 3abc 7584 643b
000003f0: eb4c c2bb ad7e e93b 5f3c c63a 66a1 8f3b

action_model._discrete_distribution.branches.1.bias f4 [2]
0.0 0.0
00000000: 0000 0000 0000 0000
