results/test10/MoveToGoal/MoveToGoal-6064.pt (torch, 672239 bytes, 17 tensors)

discrete_act_size_vector f4 [1, 2]
00000000: 0000 0040 0000 0040
2.0 2.0

network_body._body_endoder.seq_layers.0.weight f4 [128, 6]
00000000: 3373 3e3f 1d79 3cbe 58c6 edbd 5a15 a1be
00000010: f7b6 febe ff12 27be efc1 6ebe 003e 21bf
00000020: dd34 8abd 72df c8be a066 283e 63f1 0a3f
00000030: 3467 d53e 9f07 6e3d 06d8 093f a21b 923d
00000040: e303 2b3f 9b5e d8be 0f83 19be 45a7 36bf
00000050: ae95 4c3e 9e54 1bbf 5c68 08be 5413 263f
00000060: fa2c f2bd 9d52 e9be 1000 eebe a3a9 0cbf
00000070: 15fb 8f3e 1606 983f 1fa2 54bf 3fe2 e93e
00000080: 538c 83be e56f c4bd 5f8b 643e c576 a6bd
00000090: 44cd 703e 95f5 1c3f 1408 2c3e 18f1 703e
000000a0: 5611 e73e 105e 1dbd 07a4 87be 2ebc 9fbe
000000b0: c08f 71bd aee3 463f 38fc 37be c430 80be
000000c0: 9b3b eb3e 7735 b1be a9e5 39be 0a57 3dbe
000000d0: f010 953e 0dca 933e 9339 e0be 01bc 113f
000000e0: ac5a 613e 84a8 393f 0baa 8bbd 4632 e3bd
000000f0: cdde 703e 1124 33be 8fe7 a4bc 09cf b2be
00000100: 9b8a be3d 89b3 993e 3caa 813d 2a0f aa3e
00000110: f36a a13e 886e 043f d8f8 09bd dcd7 7cbe
00000120: df78 153e cecd 293d 952c df3e 1762 23bd
00000130: 2601 8b3e 511b 533e 8477 213f c4ef 34bf
00000140: a45f 34bf 9bef 88be 10cc 2bbf 7dc7 8ebd
00000150: 59cc f83d 6948 303e 1ee2 ab3b 5185 f3be
00000160: afe0 f83e 8c89 8dbd 9934 17be 54c3 363d
00000170: 4be0 96be 8cf2 d13e 2de3 ca3d dc33 e4bd
00000180: 6cd5 8cbf 30cf 183e 3f64 eabe 32d6 cabe
00000190: 7a6d b1be 1cb2 fcbe a5e4 48be 16ce fe3e
000001a0: d580 49be 1a5a 073f 70ea f6be 6c06 1a3f
000001b0: dd56 043e 752d ffbe 5c6d 8e3e 080a 453f
000001c0: 57cc b53e 35cb 053f 4b36 61bf dfe0 df3e
000001d0: 43f9 3cbf 0303 45be 54c0 acbe 13f0 373e
000001e0: 7f9b 12be 41a8 2d3e 6fc2 bcbe 728c cf3e
000001f0: 10ae fa3d a59f 56be fc71 f6be 19cd febe
00000200: cc07 61bd a78a f4be 4fcc 81bc 2e7a c33d
00000210: bff1 25be cf2e ae3e f30d e03e cb13 a8be
00000220: f030 903e b733 6bbe 8a82 cd3e 4656 88be
00000230: 37e7 dd3b c324 20bf 729b f23e e5fb fb3e
00000240: 094f df3e 759d 8e3e 150d 0dbf 21bc b23e
00000250: 90a5 28bd 1e0d 6dbe fc7f 82bd dd7c e53e
00000260: ada0 413e a6a5 07bf 5381 d53e 138b d83d
00000270: 81cb 82be c77d 1abf 03f7 d6be 6a0b d63d
00000280: a2ce 823e 0ca0 9cbe 9f6b 003f 4d48 a9be
00000290: 5e60 b83e 2fed 1f3d a80a 04bf 6815 293f
000002a0: 1f2e 61be 8347 043e 8880 533c d14f abbe
000002b0: 72fe cb3e baa8 9c3e 5322 b63e f831 913e
000002c0: eb10 20bd 3801 98be 6671 8abe 1117 923e
000002d0: acad 5d3f 79be 64be d70e 1e3e e32b 473f
000002e0: bb2b 40bf dc28 ca3e 5c15 8d3e 9549 84bf
000002f0: 6cc0 20bf 1863 40bf d25a 953d 4467 e2bd
00000300: 7fbd af3e 30c5 6ebd 14c1 b5bc e853 ab3d
00000310: 0328 503f 2dd0 2fbe f159 853e ca8b 9c3e
00000320: 6c9f 8ab8 bf06 103f 63ee c6be b992 ce3e
00000330: d4ea 8bbe 732f 7e3d 6216 a53e 160c 10be
00000340: 7933 ed3c fad2 cbbe b9c6 443e 403a 55be
00000350: 118f 5a3d ce39 94be 7f95 21bf 86bd a8be
00000360: 061c eabe 4e53 66be 1798 253e 93f8 d5bd
00000370: 9b5a 06be efb2 b43e 4983 063f c75d 5abe
00000380: a1e5 3bbe 9bb9 c6be de59 4bbf 89ca 4a3f
00000390: 6890 5a3f 2e73 7cbe ba7a 873d be5f 2b3e
000003a0: 3757 9d3d b6e6 fdbe cdec 15bf 8819 733f
000003b0: 2a1f 0dbf f256 99be 9296 e53d a720 8fbe
000003c0: 505e 503f 3160 b73e a164 c43e 8383 ae3d
000003d0: d619 8abd e0b4 2c3f 6238 74be fb2f 8ebe
000003e0: fa6a 81be ff3e ee3d 6eb6 1a3f d764 36bf
000003f0: 2ba7 333c eed3 ee3c 4857 e23e 0c58 a13e
0.7439453 -0.18405576 -0.11610097 -0.31461602 -0.49748966 -0.1631584 -0.23316167 -0.6298523
-0.06748364 -0.39232975 0.16445398 0.54274577 0.416803 0.058112737 0.5384525 0.07134177
0.66802806 -0.42259678 -0.14991401 -0.71348983 0.19978973 -0.6067599 -0.1332106 0.6487324
-0.11824985 -0.4557084 -0.46484423 -0.54946345 0.28121248 1.1876857 -0.8305988 0.45680425
-0.25692996 -0.09591655 0.22318791 -0.08128122 0.23515803 0.6131223 0.16799957 0.2352947
0.45130414 -0.038419783 -0.2649233 -0.31198257 -0.05897498 0.7769116 -0.17967308 -0.25037205
0.45943913 -0.34611103 -0.18154015 -0.18490234 0.29114485 0.2886509 -0.43793926 0.56927496
0.22007245 0.7252276 -0.068195425 -0.11093573 0.23522492 -0.17494227 -0.020129947 -0.3492358
0.09303781 0.30019787 0.06331298 0.33214694 0.31526908 0.5173116 -0.03368458 -0.24691719
0.1459689 0.041456036 0.435887 -0.039888468 0.27149314 0.20615889 0.6307299 -0.70678353
-0.70458436 -0.26745304 -0.6710825 -0.06971643 0.12148351 0.17215122 0.005245461 -0.4756265
0.4860892 -0.069110006 -0.14766158 0.044619873 -0.29467997 0.4100536 0.099066116 -0.11142704
-1.1002631 0.14922786 -0.45779607 -0.39616543 -0.34653836 -0.49354637 -0.19618471 0.49766606
-0.19678052 0.5287186 -0.48225737 0.6016605 0.1292376 -0.49839368 0.2781781 0.7696843
0.3550746 0.52263194 -0.8797347 0.4372625 -0.73817843 -0.1923943 -0.33740485 0.17962675
-0.1431713 0.16958715 -0.3686709 0.4053684 0.12240231 -0.20959337 -0.48133838 -0.49765852
-0.054939076 -0.47762033 -0.015844492 0.09544788 -0.162055 0.34020087 0.43760642 -0.328276
0.28162336 -0.22968946 0.40138656 -0.2662832 0.0067719477 -0.62556094 0.4738422 0.49215618
0.43614987 0.27854505 -0.55098087 0.34909156 -0.041173518 -0.23149535 -0.06372067 0.44821826
0.18908949 -0.52987134 0.4170023 0.10573401 -0.25545886 -0.6034817 -0.4198533 0.10451396
0.25548273 -0.30590856 0.50164217 -0.33062974 0.36011022 0.039044555 -0.5157876 0.6604829
-0.2199025 0.12917905 0.012909062 -0.33459333 0.39842564 0.30597478 0.35573062 0.28358436
-0.039078634 -0.2968843 -0.2703964 0.28533223 0.8659313 -0.22338285 0.15435348 0.7780134
-0.7506673 0.39484298 0.27555358 -1.0334955 -0.6279361 -0.75151205 0.07292713 -0.110548526
0.34324262 -0.05829352 -0.022186793 0.08365613 0.81311053 -0.17169257 0.26045182 0.305754
-6.6100474e-05 0.56260294 -0.3885375 0.40346316 -0.27327597 0.06205697 0.3224364 -0.1406711
0.028955208 -0.398094 0.19216432 -0.20823002 0.053359095 -0.2895035 -0.6311874 -0.32957095
-0.45724505 -0.22492716 0.16171299 -0.104478024 -0.131205 0.35292765 0.52544075 -0.21324836
-0.18349315 -0.3881348 -0.79434 0.79215294 0.85376596 -0.24653313 0.06615205 0.16735741
0.076826505 -0.4959008 -0.58564454 0.9496083 -0.5512568 -0.29949147 0.1121036 -0.279546
0.8139391 0.35815576 0.38358024 0.085211776 -0.06743209 0.67463493 -0.23849633 -0.2777098
-0.2527693 0.11633109 0.60434616 -0.7124762 0.010965149 0.02915379 0.44207215 0.31512487

network_body._body_endoder.seq_layers.0.bias f4 [128]
00000000: 0000 0000 0000 0000 0000 0000 0000 0000
00000010: 0000 0000 0000 0000 0000 0000 0000 0000
00000020: 0000 0000 0000 0000 0000 0000 0000 0000
00000030: 0000 0000 0000 0000 0000 0000 0000 0000
00000040: 0000 0000 0000 0000 0000 0000 0000 0000
00000050: 0000 0000 0000 0000 0000 0000 0000 0000
00000060: 0000 0000 0000 0000 0000 0000 0000 0000
00000070: 0000 0000 0000 0000 0000 0000 0000 0000
00000080: 0000 0000 0000 0000 0000 0000 0000 0000
00000090: 0000 0000 0000 0000 0000 0000 0000 0000
000000a0: 0000 0000 0000 0000 0000 0000 0000 0000
000000b0: 0000 0000 0000 0000 0000 0000 0000 0000
000000c0: 0000 0000 0000 0000 0000 0000 0000 0000
000000d0: 0000 0000 0000 0000 0000 0000 0000 0000
000000e0: 0000 0000 0000 0000 0000 0000 0000 0000
000000f0: 0000 0000 0000 0000 0000 0000 0000 0000
00000100: 0000 0000 0000 0000 0000 0000 0000 0000
00000110: 0000 0000 0000 0000 0000 0000 0000 0000
00000120: 0000 0000 0000 0000 0000 0000 0000 0000
00000130: 0000 0000 0000 0000 0000 0000 0000 0000
00000140: 0000 0000 0000 0000 0000 0000 0000 0000
00000150: 0000 0000 0000 0000 0000 0000 0000 0000
00000160: 0000 0000 0000 0000 0000 0000 0000 0000
00000170: 0000 0000 0000 0000 0000 0000 0000 0000
00000180: 0000 0000 0000 0000 0000 0000 0000 0000
00000190: 0000 0000 0000 0000 0000 0000 0000 0000
000001a0: 0000 0000 0000 0000 0000 0000 0000 0000
000001b0: 0000 0000 0000 0000 0000 0000 0000 0000
000001c0: 0000 0000 0000 0000 0000 0000 0000 0000
000001d0: 0000 0000 0000 0000 0000 0000 0000 0000
000001e0: 0000 0000 0000 0000 0000 0000 0000 0000
000001f0: 0000 0000 0000 0000 0000 0000 0000 0000
0.0 0.0 0.0 0.0 0.0 0.0 0.0 0.0
0.0 0.0 0.0 0.0 0.0 0.0 0.0 0.0
0.0 0.0 0.0 0.0 0.0 0.0 0.0 0.0
0.0 0.0 0.0 0.0 0.0 0.0 0.0 0.0
0.0 0.0 0.0 0.0 0.0 0.0 0.0 0.0
0.0 0.0 0.0 0.0 0.0 0.0 0.0 0.0
0.0 0.0 0.0 0.0 0.0 0.0 0.0 0.0
0.0 0.0 0.0 0.0 0.0 0.0 0.0 0.0
0.0 0.0 0.0 0.0 0.0 0.0 0.0 0.0
0.0 0.0 0.0 0.0 0.0 0.0 0.0 0.0
0.0 0.0 0.0 0.0 0.0 0.0 0.0 0.0
0.0 0.0 0.0 0.0 0.0 0.0 0.0 0.0
0.0 0.0 0.0 0.0 0.0 0.0 0.0 0.0
0.0 0.0 0.0 0.0 0.0 0.0 0.0 0.0
0.0 0.0 0.0 0.0 0.0 0.0 0.0 0.0
0.0 0.0 0.0 0.0 0.0 0.0 0.0 0.0

network_body._body_endoder.seq_layers.2.weight f4 [128, 128]
00000000: 278b 63bd 66a4 c4bd 0266 273b 93f8 913d
00000010: 52c4 01be 7b1f 71bb 4d27 28be 31af f73d
00000020: 7fe0 53bd 89e6 92bd a23e 40bd 9d2d debc
00000030: 7047 7d3d cd04 053d 829d dcba 14b2 a23d
00000040: c513 c5bc 57ff 6d3d 14e4 483e 72a7 a13d
00000050: afce 913d c890 fdbd d76a 20bd a219 e03d
00000060: 1099 2e3e 3002 5fbd b9dc 513c b961 813d
00000070: d1b7 7abd 6b99 2b3e 152b 5b3d 6662 33bd
00000080: 5c31 37bd 184d 9bbc 9a4f 993d fce8 18be
00000090: 2db2 3d3d 2a3a 14be ef54 0f3d 7f8f c7bd
000000a0: 85b0 0cbd a720 133e f222 c33c aee6 0cbe
000000b0: 2eb5 b13d 2fe0 99bd 61eb e43b e62c 93ba
000000c0: c62e 5b3e 683d 98bd 27a5 173d 4871 80bd
000000d0: f5d6 85bd 2f37 6a3e b0b4 9b3b d4a3 0e3e
000000e0: b144 7dbc cb2d ffbc fcb7 8c3d 1da6 0fbe
000000f0: 6d6d 103c a7f1 743c e71b 843d 5b60 b6bd
00000100: e8e6 13bd aab4 413c b28a 54bd 5f5f b53c
00000110: 91a2 5abb 0939 023d 0900 30bd b11c c0bd
00000120: 6971 91bc 36ec c4bb 0376 afbd 65fd d63d
00000130: b09a 1bbe 2ef8 9abd 20dc 9abd c8b4 903d
00000140: d5f9 be3d 9139 d7bb e18a b8bd 87e0 f1bd
00000150: 335a 0fbe 8240 4d3d 9154 4a3d 4dda 9d3d
00000160: 9db7 f03b 935e 22be 002c 813d 1dbe 7ebd
00000170: 1d99 93bd 9b34 81bd 6cf0 9a3d 01fb a3bd
00000180: 625b 063e aac2 2bbd 4316 073e 8ed0 3f3d
00000190: 5a8e 303d 3ffa 423c db56 043d fd60 d5bb
000001a0: cd8a 6fbd cd2f 6dbe ef51 073e ff88 e4bd
000001b0: f458 983d aa9c d2bd 1cd1 c6bd 156a 973d
000001c0: 795d 18bd 0fc4 d5bc e10a 94bd df44 2c3c
000001d0: 3c92 83bd e893 443d 616b c33d bc75 bfbc
000001e0: cff9 f9bd e876 0c3d fd65 b8bd 8e50 253d
000001f0: 84d8 c73d e158 dcbd 5cda 043e 8fc1 bb3d
00000200: 7376 d13d 9163 1e3d 8db3 f4bb ac56 dfbc
00000210: 9f8a f63d 2ffc afbb 5c25 36bd 9402 c13d
00000220: e25e cabd a87c 3cbc 3aa0 02bd d1f1 b43c
00000230: 5f6f a4bd aaa0 85be 0da0 52ba f128 76bd
00000240: 8adc 09be eda4 193d 97c9 dc3d 12d3 33bd
00000250: c703 863c 2581 9c3d 18cf e3bd 1130 c8bd
00000260: f412 90bd e3a5 893b e36e eabc 094d 24bd
00000270: 0361 9abc b5b8 acbd 97c3 0cbe 0521 103d
00000280: 1842 b0bd 0237 433d f292 3c3d bedd d3bd
00000290: 2a7f 0dbd f974 1d3d 4f92 eb3b 75ed 663d
000002a0: eb78 da3a fc5c 833d d6ff 9abd 3d67 493e
000002b0: 34ef 6b3d 9303 cbbd 9ea0 2d3e 055d b3bd
000002c0: 6494 24bb ec66 cd3c b3b1 3ebc ab07 07be
000002d0: 0302 7c3d 0974 22bd e108 f93c a766 923d
000002e0: 7b84 d0bc f551 f7bd 91cd 773c 08d1 0fbe
000002f0: 974c 843d 701b fe3c b8aa 813d 8a94 803c
00000300: fd73 843b 2771 0dbd d4a5 86bc 44fc b8bc
00000310: fd10 aa3d 42e3 e2bd 4474 e5bd 601a a23d
00000320: 1f0a c9bd d7c5 a33b de90 763d ccce 24bd
00000330: 9a16 ab3d c888 dfbd 0166 c4bd 0839 aebd
00000340: f12c 513e ca83 57be dbee 9abd 0a81 2abe
00000350: 965c 8d3d b354 313d a5d2 92bd a33b 1abe
00000360: b354 a43d 1cc8 953c bd6f 1abc 0b83 85bc
00000370: c6fb 23be 57f6 aabd ee2e b43b f2fe e5bc
00000380: 348d 44be 17c1 e53d cf4b 9e3d bfda 3bbe
00000390: a369 febd 9266 5ebd 8cec 2f3d a42c 4b3e
000003a0: 8333 343e b0a8 6fbd c324 09bd 5520 033d
000003b0: f636 173e b12b 0ebd 8504 d03c 1879 f73c
000003c0: ab26 98bd 643d f4bd dffd 57bd e1ec cbbd
000003d0: add6 183d 7ce3 1fbd 7aa8 3ebd 86fa 0ebd
000003e0: f17f e13c 4155 97bd d90d 113e f302 d73c
000003f0: 1206 c63d f942 6b3c 997d 3f3e 4302 3bbd
-0.055552628 -0.09601669 0.002554298 0.0712749 -0.12672547 -0.0036792445 -0.16421242 0.12093962
-0.051727768 -0.07172877 -0.04693473 -0.02712136 0.061835706 0.03247528 -0.0016831609 0.07944122
-0.024057278 0.05810484 0.19618255 0.07893266 0.071195 -0.123811305 -0.03916439 0.10942389
0.17050576 -0.054445446 0.012808972 0.06317467 -0.061210457 0.16757743 0.053507883 -0.043795012
-0.044724807 -0.01895766 0.07485886 -0.14932626 0.0463125 -0.14475313 0.03499311 -0.097441666
-0.03434803 0.14367925 0.023820374 -0.13759872 0.086771354 -0.07513463 0.006986067 -0.0011228591
0.21404561 -0.07433587 0.037022736 -0.06271607 -0.065351404 0.22872613 0.0047517642 0.13929683
-0.015458272 -0.031149765 0.0687103 -0.14028211 0.008815152 0.0149501925 0.064506344 -0.08905097
-0.03610888 0.011822859 -0.051890083 0.022140203 -0.0033361057 0.031792674 -0.042968784 -0.093804725
-0.017754273 -0.006009604 -0.08567431 0.1049755 -0.15195727 -0.07566868 -0.07561517 0.07065731
0.093249954 -0.0065681417 -0.09010864 -0.11810403 -0.13999252 0.050110348 0.049397055 0.07707653
0.007346107 -0.1585639 0.063072205 -0.062193025 -0.072069384 -0.06308862 0.07565388 -0.080068596
0.13120797 -0.041933693 0.13192086 0.046829753 0.043104507 0.011900484 0.032309394 -0.006511806
-0.05848198 -0.23162766 0.13214849 -0.111589424 0.074388415 -0.102837875 -0.09707853 0.073932804
-0.037198517 -0.026094465 -0.072286375 0.010514467 -0.06424376 0.047992617 0.09541965 -0.02337157
-0.1220585 0.034293085 -0.09003828 0.040360026 0.09758094 -0.1075914 0.12973922 0.09167778
0.102276705 0.038669173 -0.007467693 -0.027263008 0.120381586 -0.005370639 -0.044469222 0.0942432
-0.09881379 -0.01150433 -0.031891085 0.022087963 -0.08029055 -0.2609914 -0.00080347137 -0.06009764
-0.13463035 0.0375108 0.10780638 -0.043902464 0.016359223 0.0764182 -0.111234844 -0.09774793
-0.07034865 0.0042006834 -0.028617328 -0.04011253 -0.018845087 -0.084336676 -0.13746487 0.03518774
-0.086063564 0.04765988 0.046038575 -0.10345028 -0.0345451 0.038441632 0.007189072 0.0563788
0.0016668116 0.0641422 -0.07568328 0.19668289 0.05760117 -0.09912791 0.16955802 -0.087579764
-0.0025112862 0.025073491 -0.0116390465 -0.13186519 0.061525356 -0.03966144 0.030399742 0.07148486
-0.025453797 -0.12076179 0.015124694 -0.14044583 0.06459921 0.031018943 0.0633139 0.015695829
0.004042147 -0.03453174 -0.016436495 -0.022581227 0.083040215 -0.11078502 -0.112038165 0.07915187
-0.098163836 0.0049979496 0.06019675 -0.04023628 0.0835392 -0.10914761 -0.09589768 -0.085069716
0.204273 -0.21046367 -0.07565089 -0.16650787 0.06902425 0.043293666 -0.071690835 -0.15061812
0.080239676 0.018283896 -0.009426055 -0.016297838 -0.16014013 -0.08347767 0.0054987585 -0.028075669
-0.1919449 0.112184696 0.07729303 -0.18345164 -0.12422492 -0.054297037 0.042950198 0.19841248
0.17597775 -0.058510482 -0.033482324 0.032013256 0.1476706 -0.034709636 0.02539278 0.03020911
-0.0742925 -0.11925772 -0.052732345 -0.099572904 0.037314106 -0.039035305 -0.04654739 -0.034906887
0.027526828 -0.07389308 0.14165439 0.026246523 0.096691266 0.014359229 0.18700255 -0.045656454

network_body._body_endoder.seq_layers.2.bias f4 [128]
00000000: 0000 0000 0000 0000 0000 0000 0000 0000
00000010: 0000 0000 0000 0000 0000 0000 0000 0000
00000020: 0000 0000 0000 0000 0000 0000 0000 0000
00000030: 0000 0000 0000 0000 0000 0000 0000 0000
00000040: 0000 0000 0000 0000 0000 0000 0000 0000
00000050: 0000 0000 0000 0000 0000 0000 0000 0000
00000060: 0000 0000 0000 0000 0000 0000 0000 0000
00000070: 0000 0000 0000 0000 0000 0000 0000 0000
00000080: 0000 0000 0000 0000 0000 0000 0000 0000
00000090: 0000 0000 0000 0000 0000 0000 0000 0000
000000a0: 0000 0000 0000 0000 0000 0000 0000 0000
000000b0: 0000 0000 0000 0000 0000 0000 0000 0000
000000c0: 0000 0000 0000 0000 0000 0000 0000 0000
000000d0: 0000 0000 0000 0000 0000 0000 0000 0000
000000e0: 0000 0000 0000 0000 0000 0000 0000 0000
000000f0: 0000 0000 0000 0000 0000 0000 0000 0000
00000100: 0000 0000 0000 0000 0000 0000 0000 0000
00000110: 0000 0000 0000 0000 0000 0000 0000 0000
00000120: 0000 0000 0000 0000 0000 0000 0000 0000
00000130: 0000 0000 0000 0000 0000 0000 0000 0000
00000140: 0000 0000 0000 0000 0000 0000 0000 0000
00000150: 0000 0000 0000 0000 0000 0000 0000 0000
00000160: 0000 0000 0000 0000 0000 0000 0000 0000
00000170: 0000 0000 0000 0000 0000 0000 0000 0000
00000180: 0000 0000 0000 0000 0000 0000 0000 0000
00000190: 0000 0000 0000 0000 0000 0000 0000 0000
000001a0: 0000 0000 0000 0000 0000 0000 0000 0000
000001b0: 0000 0000 0000 0000 0000 0000 0000 0000
000001c0: 0000 0000 0000 0000 0000 0000 0000 0000
000001d0: 0000 0000 0000 0000 0000 0000 0000 0000
000001e0: 0000 0000 0000 0000 0000 0000 0000 0000
000001f0: 0000 0000 0000 0000 0000 0000 0000 0000
0.0 0.0 0.0 0.0 0.0 0.0 0.0 0.0
0.0 0.0 0.0 0.0 0.0 0.0 0.0 0.0
0.0 0.0 0.0 0.0 0.0 0.0 0.0 0.0
0.0 0.0 0.0 0.0 0.0 0.0 0.0 0.0
0.0 0.0 0.0 0.0 0.0 0.0 0.0 0.0
0.0 0.0 0.0 0.0 0.0 0.0 0.0 0.0
0.0 0.0 0.0 0.0 0.0 0.0 0.0 0.0
0.0 0.0 0.0 0.0 0.0 0.0 0.0 0.0
0.0 0.0 0.0 0.0 0.0 0.0 0.0 0.0
0.0 0.0 0.0 0.0 0.0 0.0 0.0 0.0
0.0 0.0 0.0 0.0 0.0 0.0 0.0 0.0
0.0 0.0 0.0 0.0 0.0 0.0 0.0 0.0
0.0 0.0 0.0 0.0 0.0 0.0 0.0 0.0
0.0 0.0 0.0 0.0 0.0 0.0 0.0 0.0
0.0 0.0 0.0 0.0 0.0 0.0 0.0 0.0
0.0 0.0 0.0 0.0 0.0 0.0 0.0 0.0

action_model._continuous_distribution.log_sigma f4 [1, 1000]
00000000: 0000 0000 0000 0000 0000 0000 0000 0000
00000010: 0000 0000 0000 0000 0000 0000 0000 0000
00000020: 0000 0000 0000 0000 0000 0000 0000 0000
00000030: 0000 0000 0000 0000 0000 0000 0000 0000
00000040: 0000 0000 0000 0000 0000 0000 0000 0000
00000050: 0000 0000 0000 0000 0000 0000 0000 0000
00000060: 0000 0000 0000 0000 0000 0000 0000 0000
00000070: 0000 0000 0000 0000 0000 0000 0000 0000
00000080: 0000 0000 0000 0000 0000 0000 0000 0000
00000090: 0000 0000 0000 0000 0000 0000 0000 0000
000000a0: 0000 0000 0000 0000 0000 0000 0000 0000
000000b0: 0000 0000 0000 0000 0000 0000 0000 0000
000000c0: 0000 0000 0000 0000 0000 0000 0000 0000
000000d0: 0000 0000 0000 0000 0000 0000 0000 0000
000000e0: 0000 0000 0000 0000 0000 0000 0000 0000
000000f0: 0000 0000 0000 0000 0000 0000 0000 0000
00000100: 0000 0000 0000 0000 0000 0000 0000 0000
00000110: 0000 0000 0000 0000 0000 0000 0000 0000
00000120: 0000 0000 0000 0000 0000 0000 0000 0000
00000130: 0000 0000 0000 0000 0000 0000 0000 0000
00000140: 0000 0000 0000 0000 0000 0000 0000 0000
00000150: 0000 0000 0000 0000 0000 0000 0000 0000
00000160: 0000 0000 0000 0000 0000 0000 0000 0000
00000170: 0000 0000 0000 0000 0000 0000 0000 0000
00000180: 0000 0000 0000 0000 0000 0000 0000 0000
00000190: 0000 0000 0000 0000 0000 0000 0000 0000
000001a0: 0000 0000 0000 0000 0000 0000 0000 0000
000001b0: 0000 0000 0000 0000 0000 0000 0000 0000
000001c0: 0000 0000 0000 0000 0000 0000 0000 0000
000001d0: 0000 0000 0000 0000 0000 0000 0000 0000
000001e0: 0000 0000 0000 0000 0000 0000 0000 0000
000001f0: 0000 0000 0000 0000 0000 0000 0000 0000
00000200: 0000 0000 0000 0000 0000 0000 0000 0000
00000210: 0000 0000 0000 0000 0000 0000 0000 0000
00000220: 0000 0000 0000 0000 0000 0000 0000 0000
00000230: 0000 0000 0000 0000 0000 0000 0000 0000
00000240: 0000 0000 0000 0000 0000 0000 0000 0000
00000250: 0000 0000 0000 0000 0000 0000 0000 0000
00000260: 0000 0000 0000 0000 0000 0000 0000 0000
00000270: 0000 0000 0000 0000 0000 0000 0000 0000
00000280: 0000 0000 0000 0000 0000 0000 0000 0000
00000290: 0000 0000 0000 0000 0000 0000 0000 0000
000002a0: 0000 0000 0000 0000 0000 0000 0000 0000
000002b0: 0000 0000 0000 0000 0000 0000 0000 0000
000002c0: 0000 0000 0000 0000 0000 0000 0000 0000
000002d0: 0000 0000 0000 0000 0000 0000 0000 0000
000002e0: 0000 0000 0000 0000 0000 0000 0000 0000
000002f0: 0000 0000 0000 0000 0000 0000 0000 0000
00000300: 0000 0000 0000 0000 0000 0000 0000 0000
00000310: 0000 0000 0000 0000 0000 0000 0000 0000
00000320: 0000 0000 0000 0000 0000 0000 0000 0000
00000330: 0000 0000 0000 0000 0000 0000 0000 0000
00000340: 0000 0000 0000 0000 0000 0000 0000 0000
00000350: 0000 0000 0000 0000 0000 0000 0000 0000
00000360: 0000 0000 0000 0000 0000 0000 0000 0000
00000370: 0000 0000 0000 0000 0000 0000 0000 0000
00000380: 0000 0000 0000 0000 0000 0000 0000 0000
00000390: 0000 0000 0000 0000 0000 0000 0000 0000
000003a0: 0000 0000 0000 0000 0000 0000 0000 0000
000003b0: 0000 0000 0000 0000 0000 0000 0000 0000
000003c0: 0000 0000 0000 0000 0000 0000 0000 0000
000003d0: 0000 0000 0000 0000 0000 0000 0000 0000
000003e0: 0000 0000 0000 0000 0000 0000 0000 0000
000003f0: 0000 0000 0000 0000 0000 0000 0000 0000
0.0 0.0 0.0 0.0 0.0 0.0 0.0 0.0
0.0 0.0 0.0 0.0 0.0 0.0 0.0 0.0
0.0 0.0 0.0 0.0 0.0 0.0 0.0 0.0
0.0 0.0 0.0 0.0 0.0 0.0 0.0 0.0
0.0 0.0 0.0 0.0 0.0 0.0 0.0 0.0
0.0 0.0 0.0 0.0 0.0 0.0 0.0 0.0
0.0 0.0 0.0 0.0 0.0 0.0 0.0 0.0
0.0 0.0 0.0 0.0 0.0 0.0 0.0 0.0
0.0 0.0 0.0 0.0 0.0 0.0 0.0 0.0
0.0 0.0 0.0 0.0 0.0 0.0 0.0 0.0
0.0 0.0 0.0 0.0 0.0 0.0 0.0 0.0
0.0 0.0 0.0 0.0 0.0 0.0 0.0 0.0
0.0 0.0 0.0 0.0 0.0 0.0 0.0 0.0
0.0 0.0 0.0 0.0 0.0 0.0 0.0 0.0
0.0 0.0 0.0 0.0 0.0 0.0 0.0 0.0
0.0 0.0 0.0 0.0 0.0 0.0 0.0 0.0
0.0 0.0 0.0 0.0 0.0 0.0 0.0 0.0
0.0 0.0 0.0 0.0 0.0 0.0 0.0 0.0
0.0 0.0 0.0 0.0 0.0 0.0 0.0 0.0
0.0 0.0 0.0 0.0 0.0 0.0 0.0 0.0
0.0 0.0 0.0 0.0 0.0 0.0 0.0 0.0
0.0 0.0 0.0 0.0 0.0 0.0 0.0 0.0
0.0 0.0 0.0 0.0 0.0 0.0 0.0 0.0
0.0 0.0 0.0 0.0 0.0 0.0 0.0 0.0
0.0 0.0 0.0 0.0 0.0 0.0 0.0 0.0
0.0 0.0 0.0 0.0 0.0 0.0 0.0 0.0
0.0 0.0 0.0 0.0 0.0 0.0 0.0 0.0
0.0 0.0 0.0 0.0 0.0 0.0 0.0 0.0
0.0 0.0 0.0 0.0 0.0 0.0 0.0 0.0
0.0 0.0 0.0 0.0 0.0 0.0 0.0 0.0
0.0 0.0 0.0 0.0 0.0 0.0 0.0 0.0
0.0 0.0 0.0 0.0 0.0 0.0 0.0 0.0

action_model._continuous_distribution.mu.weight f4 [1000, 128]
00000000: b4fa 2cbb c27d a83c 8147 2dbc 37ea a53c
00000010: ab76 803c bffc a0bc c138 02bc 1b64 81bc
00000020: 930f 0f3a df7d f33a e3ca be3c 8bae 333c
00000030: e0b8 7f3b 64e7 10ba 2df3 2e3c 9e3e c7bc
00000040: d44f 953c ed70 233c 8a27 dabb 975b 6bbc
00000050: 7bc4 bdbb cb61 b83b ea14 36bb cbfe f8bb
00000060: 22f9 d6bc 375a c1b8 962d 923c 1667 9fbb
00000070: 832a 9b3b 3af6 cf3c 1f04 2cbc f320 d33c
00000080: 0af9 693b 5eb0 243c 273c c23c bfa0 4e3c
00000090: 5b55 71bc 5d53 8ebc b6b1 ca3c 2b25 4bbc
000000a0: 7355 20bc 2e72 843b f71e 5abb a8bd 61bb
000000b0: 5ff4 4f3b 42e9 763b bfa7 773c 603a 203c
000000c0: eb02 e93b 6d2b bbbb 8ef8 30bc 1a71 513c
000000d0: 4c2d 3e3c a284 6abc d07f 66bc 7d24 05bb
000000e0: 5498 163d d8a1 1d3d f085 003c ffc9 943b
000000f0: 4200 c0ba eee6 0d3c ab84 b23c 7646 40bb
00000100: d713 633c b6e3 963b 36ec abbb 75ff f13b
00000110: e080 e63c ff04 f73b a3ad 83b9 3c75 1f3c
00000120: ea91 edbb 9768 a23a 67d9 cdbb 7b29 dc3c
00000130: 0ab3 88bc 27f6 07bc 8b6d fc3b a4c8 113c
00000140: 2aca 37bc 6bfd 92bc 87f2 83bc ff63 8dbb
00000150: ad3d bdbc 77e1 38bc 6c09 b03b 1f74 0abc
00000160: 9434 98bc 657f 803c 6571 b83a 42e6 d23b
00000170: 0db9 56bb b316 91bc e85d 003c 52af 7fbc
00000180: da05 b2bb 5e81 02bc 10eb e03b 9a96 64bc
00000190: a11d 38bc db01 8e3c 8850 1dbb 9566 cc3a
000001a0: 6f34 073c a4eb b9bc 0f6b ab3c 50b0 d33c
000001b0: 3c2b 2bbd 64a5 b2bb 8686 1cbc e539 5dbc
000001c0: c8cb be3a afea 0a3c 7c75 3abc 461a 91bb
000001d0: 75dd dc3a 88b1 f8bb c3ab 4dbd e72c 11bc
000001e0: b384 0f3c 0844 abbc e1df 36bd f7f1 86bc
000001f0: ca09 7c3c 572f c33c ddf0 04bc 755d a03b
00000200: 1cfd 0dbd 2dcc 9db8 3402 013c a886 563d
00000210: bf93 843c 2e4d 363c 63ac 27bc 8f15 733c
00000220: 4742 2b3d 4483 063d 8fcd 803b db63 0e3a
00000230: 739e dbbc 827c 543c 6759 83bc 8107 ca3c
00000240: 8118 97bb 9a89 893c 8fdf 1f3d d022 b7ba
00000250: 38b1 cfba 80a7 7bbb d77a 82bc 12c5 32bd
00000260: 1dc1 be3b 4c89 abbc eef2 21bc a3e4 a33c
00000270: de2b 20bc 3e55 1dbc 45ae 98ba 6e07 ccb9
00000280: c218 0e3d 929d 693b de40 04bc 2b7a 123c
00000290: 0bb0 12bd cbfc c6bb 58a1 713c 7b28 c53a
000002a0: b580 f1bb 1f5a 06bc 1793 163c c07c 073c
000002b0: 4584 52bc 394a bcbb eb97 0fbd 137b 82ba
000002c0: 13a3 843c d9e2 963c 12a4 ff3b 29b0 293d
000002d0: 1735 afbc 7c19 adbb a32c 92bb a3b0 12bc
000002e0: 5a3d 1fbb c0dd 76bb 97a6 96bc 1262 703c
000002f0: 73bd 963c af3e 2f3c 3bb1 1c3b cd3e 58bd
00000300: f206 e8bb b797 0cbd e23f ab3b c3e4 1dbc
00000310: 4454 b2bb 3929 9cba 6c03 9f3c df20 d73b
00000320: 1968 b2bb 4794 9b3c 75ce feba c656 81bb
00000330: c381 3e3c 5416 2c3c 9624 a0ba 0beb 1dbc
00000340: 6adf 1dbc e237 a1bc 4beb b9bc 70dd 113b
00000350: 6ce8 adbc a110 b2bb f3b9 b23c 2315 08bd
00000360: 2cbc 3ebc f561 f5bb 43fc 38bc 7e1c a13c
00000370: 0f86 e13c 3beb 6ebc cba9 353c 0249 4cbd
00000380: ba5f ab3c 8d91 6fbc c9b2 8cbb c358 3abc
00000390: 1ba1 123d ab84 263c 1f9a 883c eaac 52ba
000003a0: 5c5e 38bc 5cfb c03c 5658 b4ba d565 403a
000003b0: bff6 02bc cb57 ecb8 a371 213c 3b31 77bc
000003c0: 3720 d6bb 77e3 35bc 2162 963b 2b36 353b
000003d0: b1f3 953c 46d2 ab3b c77c a83c f7db 5d3c
000003e0: 9388 09bc af27 d83b 2de3 413c 201f 313b
000003f0: 8fcb 763c 3b90 1ebd 03dc c8bc cbef 203c
-0.0026394548 0.020567778 -0.01057613 0.020253284 0.015681585 -0.019651769 -0.0079481015 -0.015794804
0.0005457338 0.0018576941 0.023290103 0.010966907 0.0039020106 -0.0005527644 0.010678095 -0.02432185
0.018226542 0.009975654 -0.0066575455 -0.014365098 -0.0057912446 0.005626892 -0.0027783462 -0.007598733
-0.026241843 -9.219761e-05 0.017844003 -0.0048645837 0.0047352924 0.025385965 -0.010499029 0.025772547
0.0035701417 0.010051815 0.023710323 0.012611567 -0.014729823 -0.017373735 0.024742942 -0.012398998
-0.009785998 0.0040419316 -0.0033282617 -0.003444532 0.003173135 0.0037675654 0.015115677 0.009779543
0.0071109436 -0.005711964 -0.010801448 0.012783313 0.011607479 -0.014313849 -0.014068559 -0.0020315938
0.036766365 0.038484424 0.007844433 0.0045406814 -0.0014648514 0.008661015 0.021791777 -0.0029338873
0.013859711 0.004604782 -0.0052466644 0.007385189 0.028137624 0.0075384374 -0.00025115637 0.009732541
-0.0072500603 0.0012390789 -0.00628202 0.026875248 -0.016686935 -0.008298433 0.007703488 0.008897934
-0.011217633 -0.017943105 -0.016106857 -0.004314899 -0.023100698 -0.011284224 0.005372217 -0.008450537
-0.018579759 0.015685746 0.001407188 0.0064361403 -0.0032764107 -0.01771102 0.007834889 -0.015605764
-0.0054328265 -0.007965414 0.006863959 -0.013951922 -0.011237533 0.01733487 -0.00240043 0.0015594537
0.008252247 -0.02269537 0.020925073 0.025840908 -0.04178928 -0.005451845 -0.009553557 -0.013502573
0.0014556581 0.0084788045 -0.0113805495 -0.004428181 0.0016850667 -0.0075895227 -0.050212633 -0.008860803
0.008759665 -0.020906463 -0.0446471 -0.0164728 0.015383193 0.023826284 -0.008114067 0.0048939534
-0.034665212 -7.524374e-05 0.00787406 0.052374512 0.016183732 0.0111267995 -0.010233971 0.014836683
0.041811254 0.03284003 0.0039307545 0.000543175 -0.026808953 0.012969138 -0.016033841 0.024661781
-0.0046110754 0.016789246 0.03903156 -0.0013972167 -0.0015845662 -0.0038399398 -0.015927715 -0.043644972
0.0058213607 -0.020939492 -0.009884579 0.020006483 -0.009776084 -0.009602843 -0.0011648616 -0.00038915448
0.03469158 0.0035646898 -0.008072106 0.00894026 -0.03581242 -0.0060726157 0.01474794 0.0015041971
-0.0073700794 -0.0082001975 0.009190342 0.008269489 -0.012848918 -0.0057461527 -0.03505699 -0.0009954892
0.016191041 0.018418716 0.007801541 0.041427765 -0.02138762 -0.005282579 -0.0044608875 -0.008953246
-0.0024298043 -0.0037668794 -0.018389983 0.014671819 0.018400883 0.010696097 0.0023909349 -0.052794266
-0.007080906 -0.034324374 0.0052261213 -0.009637061 -0.005442174 -0.0011914141 0.019410811 0.006565198
-0.0054445383 0.018991603 -0.0019440191 -0.003947112 0.011627617 0.01050337 -0.0012217935 -0.009638558
-0.009635786 -0.019679967 -0.022695204 0.0022257231 -0.021228991 -0.005434111 0.021817183 -0.033223283
-0.011641543 -0.007488484 -0.011290613 0.019666906 0.027529744 -0.0145824505 0.011087845 -0.049874313
0.02091967 -0.014622104 -0.004293774 -0.0113737015 0.035798173 0.010163466 0.016675053 -0.00080366305
-0.011252966 0.023557357 -0.0013759236 0.0007339393 -0.007993399 -0.0001126971 0.009853753 -0.015087421
-0.006534602 -0.011101595 0.0045893346 0.0027650695 0.018304678 0.0052435724 0.020567311 0.013541213
-0.008394378 0.0065965275 0.011833948 0.0027026609 0.015063181 -0.038711768 -0.024518972 0.009822796

action_model._continuous_distribution.mu.bias f4 [1000]
00000000: 0000 0000 0000 0000 0000 0000 0000 0000
00000010: 0000 0000 0000 0000 0000 0000 0000 0000
00000020: 0000 0000 0000 0000 0000 0000 0000 0000
00000030: 0000 0000 0000 0000 0000 0000 0000 0000
00000040: 0000 0000 0000 0000 0000 0000 0000 0000
00000050: 0000 0000 0000 0000 0000 0000 0000 0000
00000060: 0000 0000 0000 0000 0000 0000 0000 0000
00000070: 0000 0000 0000 0000 0000 0000 0000 0000
00000080: 0000 0000 0000 0000 0000 0000 0000 0000
00000090: 0000 0000 0000 0000 0000 0000 0000 0000
000000a0: 0000 0000 0000 0000 0000 0000 0000 0000
000000b0: 0000 0000 0000 0000 0000 0000 0000 0000
000000c0: 0000 0000 0000 0000 0000 0000 0000 0000
000000d0: 0000 0000 0000 0000 0000 0000 0000 0000
000000e0: 0000 0000 0000 0000 0000 0000 0000 0000
000000f0: 0000 0000 0000 0000 0000 0000 0000 0000
00000100: 0000 0000 0000 0000 0000 0000 0000 0000
00000110: 0000 0000 0000 0000 0000 0000 0000 0000
00000120: 0000 0000 0000 0000 0000 0000 0000 0000
00000130: 0000 0000 0000 0000 0000 0000 0000 0000
00000140: 0000 0000 0000 0000 0000 0000 0000 0000
00000150: 0000 0000 0000 0000 0000 0000 0000 0000
00000160: 0000 0000 0000 0000 0000 0000 0000 0000
00000170: 0000 0000 0000 0000 0000 0000 0000 0000
00000180: 0000 0000 0000 0000 0000 0000 0000 0000
00000190: 0000 0000 0000 0000 0000 0000 0000 0000
000001a0: 0000 0000 0000 0000 0000 0000 0000 0000
000001b0: 0000 0000 0000 0000 0000 0000 0000 0000
000001c0: 0000 0000 0000 0000 0000 0000 0000 0000
000001d0: 0000 0000 0000 0000 0000 0000 0000 0000
000001e0: 0000 0000 0000 0000 0000 0000 0000 0000
000001f0: 0000 0000 0000 0000 0000 0000 0000 0000
00000200: 0000 0000 0000 0000 0000 0000 0000 0000
00000210: 0000 0000 0000 0000 0000 0000 0000 0000
00000220: 0000 0000 0000 0000 0000 0000 0000 0000
00000230: 0000 0000 0000 0000 0000 0000 0000 0000
00000240: 0000 0000 0000 0000 0000 0000 0000 0000
00000250: 0000 0000 0000 0000 0000 0000 0000 0000
00000260: 0000 0000 0000 0000 0000 0000 0000 0000
00000270: 0000 0000 0000 0000 0000 0000 0000 0000
00000280: 0000 0000 0000 0000 0000 0000 0000 0000
00000290: 0000 0000 0000 0000 0000 0000 0000 0000
000002a0: 0000 0000 0000 0000 0000 0000 0000 0000
000002b0: 0000 0000 0000 0000 0000 0000 0000 0000
000002c0: 0000 0000 0000 0000 0000 0000 0000 0000
000002d0: 0000 0000 0000 0000 0000 0000 0000 0000
000002e0: 0000 0000 0000 0000 0000 0000 0000 0000
000002f0: 0000 0000 0000 0000 0000 0000 0000 0000
00000300: 0000 0000 0000 0000 0000 0000 0000 0000
00000310: 0000 0000 0000 0000 0000 0000 0000 0000
00000320: 0000 0000 0000 0000 0000 0000 0000 0000
00000330: 0000 0000 0000 0000 0000 0000 0000 0000
00000340: 0000 0000 0000 0000 0000 0000 0000 0000
00000350: 0000 0000 0000 0000 0000 0000 0000 0000
00000360: 0000 0000 0000 0000 0000 0000 0000 0000
00000370: 0000 0000 0000 0000 0000 0000 0000 0000
00000380: 0000 0000 0000 0000 0000 0000 0000 0000
00000390: 0000 0000 0000 0000 0000 0000 0000 0000
000003a0: 0000 0000 0000 0000 0000 0000 0000 0000
000003b0: 0000 0000 0000 0000 0000 0000 0000 0000
000003c0: 0000 0000 0000 0000 0000 0000 0000 0000
000003d0: 0000 0000 0000 0000 0000 0000 0000 0000
000003e0: 0000 0000 0000 0000 0000 0000 0000 0000
000003f0: 0000 0000 0000 0000 0000 0000 0000 0000
0.0 0.0 0.0 0.0 0.0 0.0 0.0 0.0
0.0 0.0 0.0 0.0 0.0 0.0 0.0 0.0
0.0 0.0 0.0 0.0 0.0 0.0 0.0 0.0
0.0 0.0 0.0 0.0 0.0 0.0 0.0 0.0
0.0 0.0 0.0 0.0 0.0 0.0 0.0 0.0
0.0 0.0 0.0 0.0 0.0 0.0 0.0 0.0
0.0 0.0 0.0 0.0 0.0 0.0 0.0 0.0
0.0 0.0 0.0 0.0 0.0 0.0 0.0 0.0
0.0 0.0 0.0 0.0 0.0 0.0 0.0 0.0
0.0 0.0 0.0 0.0 0.0 0.0 0.0 0.0
0.0 0.0 0.0 0.0 0.0 0.0 0.0 0.0
0.0 0.0 0.0 0.0 0.0 0.0 0.0 0.0
0.0 0.0 0.0 0.0 0.0 0.0 0.0 0.0
0.0 0.0 0.0 0.0 0.0 0.0 0.0 0.0
0.0 0.0 0.0 0.0 0.0 0.0 0.0 0.0
0.0 0.0 0.0 0.0 0.0 0.0 0.0 0.0
0.0 0.0 0.0 0.0 0.0 0.0 0.0 0.0
0.0 0.0 0.0 0.0 0.0 0.0 0.0 0.0
0.0 0.0 0.0 0.0 0.0 0.0 0.0 0.0
0.0 0.0 0.0 0.0 0.0 0.0 0.0 0.0
0.0 0.0 0.0 0.0 0.0 0.0 0.0 0.0
0.0 0.0 0.0 0.0 0.0 0.0 0.0 0.0
0.0 0.0 0.0 0.0 0.0 0.0 0.0 0.0
0.0 0.0 0.0 0.0 0.0 0.0 0.0 0.0
0.0 0.0 0.0 0.0 0.0 0.0 0.0 0.0
0.0 0.0 0.0 0.0 0.0 0.0 0.0 0.0
0.0 0.0 0.0 0.0 0.0 0.0 0.0 0.0
0.0 0.0 0.0 0.0 0.0 0.0 0.0 0.0
0.0 0.0 0.0 0.0 0.0 0.0 0.0 0.0
0.0 0.0 0.0 0.0 0.0 0.0 0.0 0.0
0.0 0.0 0.0 0.0 0.0 0.0 0.0 0.0
0.0 0.0 0.0 0.0 0.0 0.0 0.0 0.0

action_model._discrete_distribution.branches.0.weight f4 [2, 128]
00000000: 972c 02bc ed4f 1ebc 4d9a 40bc daaf 923b
00000010: e765 aebb 8356 94b9 8fcc a63b 67ba 0bbc
00000020: 91c9 0c3c 2f8b 543c 6f03 98bb d8de 15bc
00000030: 2703 9cbb 481e d9bb e7d6 13bc db0e a13b
00000040: 8a00 15bb 705e 863a 5fc5 1a3c 17cb 2e3c
00000050: c1c7 07bb 9df8 c1ba 5a22 c13b 6ffa 4bbc
00000060: 47ed 2439 5fd9 4bbc 6bef 513b 243e 913c
00000070: 34eb 173b 54f9 89bc 599b 19bb 0c45 a33c
00000080: aad1 bcbb fa3b c5bb b864 6d3a 1b67 01bc
00000090: a3d9 dcbb 2928 c33b 57b7 723c 52d9 f7b7
000000a0: 9fef 46bb dff9 0fbc 6b5c dbbb dc46 97bb
000000b0: 0081 54ba 1ada 4f3b fa7c 113b 7fba 1639
000000c0: 29f9 ac3b a583 deba 9f32 b739 958c 09bc
000000d0: fd41 633c 7018 41bc f720 81bc 9f76 6dbb
000000e0: 07d0 023b 055d 703a e3fb e43b 8f10 6bbb
000000f0: 862c 44bc 14e9 8d3b f1d9 073c cd92 e7bb
00000100: 1df5 6e39 1ab3 953b 8d13 793c 8915 883b
00000110: 1bd9 8abc bca5 b2bb 2b9e a2bb 1df7 7d3b
00000120: 3f6d 07bc 2f5b 2b3b a2e1 e43b f2af 913a
00000130: 84af 1bba 14fc 923b 3fd4 123c b34d 10bc
00000140: a282 86bb 17b8 5b3b 6495 493c cfb0 003c
00000150: 97f0 52bc 8bda f43b 2510 c13b ba1b f5ba
00000160: 0d23 52bc 7d5b 27bc f2ec 50bc fb84 82ba
00000170: 487e 183c f2b7 3c3c 28f9 dd3b cf2d 0fbb
00000180: 04dc 093c b8d4 caba 0f25 0b3c 8df5 7ebb
00000190: 48c2 d8b9 db2c f7ba 7c21 2d3b 3167 483c
000001a0: bbb9 0bbc cfe3 543b 5e9e a33a 72b1 11bc
000001b0: 6313 9d3b 33ea 923a d7e5 89bb f88e 71bb
000001c0: 912e 1bbb 3069 b23b bc9d 32bc 0025 183c
000001d0: 1401 253b 10b4 f53a df3b 523b dff8 f2ba
000001e0: a3ec 593a 308d b53b 80a9 7ebc c7e3 8ebb
000001f0: f8a3 ea3a 2c29 ca3c e8b0 1c3b 2db1 5c3b
00000200: 1429 a6b7 098a b5bc 1eed 943c b3c9 b83c
00000210: 2da0 383b 5391 813c f7e5 693b 3335 a13c
00000220: 253f 163c f8ee 0ebb ad79 06bc 2ad5 8e3c
00000230: aa8c e2b8 3fa5 283c 971c 37bc 90c0 e23a
00000240: d0ec d3ba 6831 d4bb 5a9d f338 8bda 38bc
00000250: ddc9 53bb f4d7 c83b ecdc 94bb 0d5c d73b
00000260: e22a cd3b 6a5d dcbb dab6 eabb 6338 b53b
00000270: 589a ddbb f718 8d3a 5691 cbbb 491f 09b9
00000280: 6b13 293c fc3e 34bb 69e9 c53b 93f2 3cbc
00000290: 3c6a 1ebc e2aa fd3a 67ad f63b 6369 0ebc
000002a0: 23da 36bc 3845 d63b 0302 a23a b244 f9bb
000002b0: abc4 243c ecc8 003c bfeb b739 0cbe 073c
000002c0: 1337 853c 2777 deba cba1 5c3b a0d5 54bb
000002d0: af67 21bc 1915 90bc bd4a 6d3c d484 413b
000002e0: 1357 dcbb 45df e63b d491 ae3b 17a2 393c
000002f0: 9ff7 013c 50ec efbb 3eae 84bb 544e abba
00000300: 67cf dcbc d77b bf3c df46 9e38 a5f4 5f3c
00000310: 7955 90bb d256 c9bb 3fa9 27bb 5721 283c
00000320: 1cce 9ebb 101f 533b 022a 0c3c e2de baba
00000330: 7171 2d3c d34d c13a 93f4 20bb 0881 66bb
00000340: fdef e6b7 fb1a b93b 2f8b e6bb bb06 c1bb
00000350: aaf1 58bc 10bb dfbb 05bc 25bc 24cd 2abc
00000360: 3227 65bc 2cf8 2e3c bb69 55bc 79fb bc3b
00000370: c100 32ba f0a7 46bc 7049 dc39 13bc 26bc
00000380: 0308 8bb9 470c 3f3c e319 8a3a 9ab5 783b
00000390: af44 c3bb 5678 bd3b bdc9 f6bb aa9d ecbb
000003a0: a843 313b 3882 e03b 4b90 3b3c cba2 4dbc
000003b0: d344 0cbc 4c83 aabb d209 41bb 779a 3c3a
000003c0: 34b5 ba3c d31a ad3b 4e08 023b 6725 d33b
000003d0: c030 643a 4870 c2ba ac84 353c ca02 5a3b
000003e0: ba36 53bc aecb 9f3a ec82 15bb 4b82 473c
000003f0: 3ca3 9bbb 57b1 87bc 828d 1fbc ca3c 6b3c
-0.007945201 -0.0096626105 -0.011755538 0.0044765295 -0.0053222063 -0.00028293216 0.0050903033 -0.0085283285
0.008592979 0.012972637 -0.004639081 -0.009147368 -0.004761118 -0.0066259243 -0.009023405 0.004915101
-0.0022735917 0.0010251533 0.009446471 0.010668538 -0.0020718428 -0.0014798824 0.0058939876 -0.012449845
0.00015728651 -0.012441962 0.0032033573 0.017729826 0.0023180963 -0.016842522 -0.0023438542 0.019930385
-0.0057622986 -0.0060191127 0.0009055841 -0.007898117 -0.0067398115 0.005955715 0.014814219 -2.9545892e-05
-0.0030355228 -0.008787601 -0.0066943667 -0.0046166014 -0.00081063807 0.0031715692 0.0022199736 0.0001437459
0.0052787256 -0.0016976489 0.00034942196 -0.008395334 0.013870713 -0.0117856115 -0.01576279 -0.0036234034
0.001996042 0.00091691344 0.006988035 -0.0035868024 -0.011973506 0.0043307636 0.008291707 -0.0070670606
0.0002278876 0.0045684697 0.015202415 0.004152958 -0.016949227 -0.005451886 -0.0049627027 0.0038752027
-0.008265792 0.002614688 0.0069849053 0.0011115058 -0.00059389346 0.0044856165 0.008961736 -0.008807587
-0.004104928 0.0033526474 0.012303684 0.007854654 -0.012874744 0.0074723414 0.005891817 -0.001870028
-0.01282574 -0.010214684 -0.012751805 -0.0009957844 0.009307452 0.011518465 0.0067740865 -0.0021847372
0.008414272 -0.0015474772 0.008492722 -0.0038903684 -0.0004134348 -0.0018857972 0.0026417663 0.012231634
-0.008528168 0.0032484417 0.001248311 -0.008892404 0.004793571 0.0011208713 -0.0042083072 -0.0036858898
-0.0023678879 0.0054446682 -0.010901865 0.009286165 0.0025177645 0.0018745679 0.0032079143 -0.0018537304
0.00083131547 0.0055405125 -0.015543342 -0.0043606493 0.001790165 0.024677835 0.0023909155 0.003367494
-1.980787e-05 -0.022160547 0.018179473 0.022557115 0.0028171644 0.015816366 0.0035690048 0.019678688
0.009170328 -0.0021809917 -0.008207721 0.017435629 -0.000108027205 0.010293304 -0.01117625 0.001729982
-0.0016168598 -0.0064756162 0.00011616452 -0.011282573 -0.0032316365 0.0061292592 -0.0045429375 0.0065722526
0.0062612155 -0.006725003 -0.007162911 0.0055304035 -0.006762784 0.0010764886 -0.0062123938 -0.00013076993
0.010319571 -0.0027503362 0.0060397875 -0.011532444 -0.009668883 0.0019353295 0.0075279954 -0.008692118
-0.011160406 0.0065390132 0.0012360219 -0.007607066 0.010056655 0.0078604035 0.00035080125 0.008285057
0.016261613 -0.0016972766 0.0033665772 -0.0032475963 -0.00985138 -0.017588185 0.014483151 0.0029528635
-0.0067242472 0.007045659 0.0053274427 0.011330149 0.007932573 -0.007321872 -0.0040490916 -0.0013069608
-0.026954366 0.023374481 7.547228e-05 0.013669168 -0.0044047204 -0.006144383 -0.0025583056 0.010261855
-0.0048463475 0.003221456 0.008554937 -0.0014257098 0.010586129 0.0014747925 -0.002455984 -0.0035172123
-2.752989e-05 0.0056489683 -0.007035635 -0.005890695 -0.013241211 -0.0068277195 -0.010115628 -0.010424886
-0.013986396 0.010679286 -0.013025696 0.0057672826 -0.00067902735 -0.012125 0.00042016385 -0.010176676
-0.00026518115 0.011660642 0.0010536279 0.003795004 -0.0059591155 0.0057821674 -0.0075313733 -0.0072209435
0.0027048383 0.006851461 0.011447976 -0.01255102 -0.008561331 -0.00520364 -0.0029455316 0.0007194648
0.022791483 0.0052827387 0.0019841376 0.0064436677 0.0008704774 -0.0014834488 0.011078995 0.0033265823
-0.012891466 0.0012191439 -0.0022813631 0.01217706 -0.0047496837 -0.016564054 -0.009738328 0.014357755

action_model._discrete_distribution.branches.0.bias f4 [2]
00000000: 0000 0000 0000 0000
0.0 0.0

action_model._discrete_distribution.branches.1.weight f4 [2, 128]
00000000: 2c45 453b bb6f 10bc a5a1 2f3b 7aa5 ab3b
00000010: a310 783b 2181 103c 56e4 2d3c 8ded 6ebb
00000020: 4fd5 8ebb 3386 ecb9 e920 873c 0793 053c
00000030: 9b57 0fbb c503 db3b 9028 bd3a 17ac a6bb
00000040: 9512 813c 3bdb b83c f07f 773a 504c dabc
00000050: 5b17 c53b 8fbd 273c 4cb1 3d3c 8dd8 debb
00000060: 4eb4 a6bb 5555 9dbb 6405 893b 93dc 0ebc
00000070: f6a9 983b 4f9a 1abb f673 303a 60c3 0dba
00000080: 5340 513b f388 5dbc 236c 0e3c b1d5 303c
00000090: 873a c73b f83d 353c 2133 abbc db98 faba
000000a0: da38 22bc 9292 58bb 9e7f a93b 7d8d 6cbb
000000b0: 9fa4 c13b 1ca6 243b a7cd 543b f8a4 8b3c
000000c0: 2fcf 3fb9 82b3 6d3a 1370 e73b 2e89 1e3c
000000d0: 95fc b73a 9a70 12bc d3bd 883b 0d08 b8bb
000000e0: fe8a 1139 008e 5bbc 947b 82bc dc9f 10bb
000000f0: 304f 20bc b57a 673c a97d 263a bc19 4bbc
00000100: 2d3f 44bc f658 45bb 10f2 9d3b 0b32 f83b
00000110: 9c55 82ba 15fb 88bc 5740 a0bc e563 fdbb
00000120: 2fbd 04bc 2b4c 863c 471f 573c 460a b23b
00000130: 8a9e 5b3b eb8f 0c3c 83d9 c7bb ef57 183a
00000140: 9da7 f5ba b5d1 4dbc dac5 523c 2001 4f3c
00000150: c090 0d3c d72c 8a3b 6bb7 403b ea0e a8bc
00000160: d5bb d4bb f3c1 85bb 031d 233a 5e0c a9bc
00000170: f7f6 aa3a 4b1f 87bb 82dd 953c 27f3 9cbb
00000180: 5797 813b f3b9 22bc b307 8db9 b4a1 ac3b
00000190: 8f04 753b 370e 02bb 8ba2 863c 7b7f 6fbc
000001a0: 7a12 99ba 9bff 233c 10b2 663c ed47 d83b
000001b0: 34e8 b23b cf93 41bb 6e87 b13c 91db 493c
000001c0: 0fe4 353c c165 a939 7b82 8e3b 387a 833a
000001d0: 6410 c7ba 2302 3bbb 63ad c23b 278c ee3b
000001e0: 60d0 3bbb 6fb6 b3bb a3af c73b 9dfd f03b
000001f0: c07d 9bbb a9b2 bfb9 ff23 5f3a bbff debb
00000200: e5d8 1bbc 5864 09bc 70c4 a43b cd1a 6d3c
00000210: f372 10bc df36 f03b ed73 4a3b a3ab 0d3c
00000220: e7ec a4bb 3729 55bc c09c 9b3c a7d4 15bb
00000230: 9b0a 7abb 7b53 9439 b34c 1c3b 67f4 3f3b
00000240: 093f c93b 21d4 1d3b a84f 6abc 30cc 23bb
00000250: c0fd 06bc 025c 21bb 9ecf 8e3b d3ed 633b
00000260: 12fb d4bb df5b 3ebc 85d8 693b 6812 14bc
00000270: c879 313b f26e f8ba ad45 04bb 953e c53b
00000280: 48d1 44ba 049c 073c b838 763b 30ab d1b9
00000290: ac8b 853b 82bb fcba 4f5a a6bb 3eb6 a1bb
000002a0: 7fb9 743c e820 17bc 15dd 74bc 0ff7 e639
000002b0: 533f d93a 5252 8cba 0cbb 36bb 0dd5 2f3c
000002c0: 1330 6f39 ba26 b23b b7b5 96bb 5237 4dba
000002d0: dde5 313c b77e 653c fd7e 063c 3d25 2e3c
000002e0: a063 5fbb 4b2d e83b 570d 8dba 9322 f6ba
000002f0: 4b36 a63b cef2 143c cfed 5f3c 1b99 f3bb
00000300: fab6 10bb bf59 133b 4b3f ce3a bb09 3bbb
00000310: 0e04 2f3c bb7c 68bb 65c8 313c 8819 94bb
00000320: 4725 0bbc 3f84 393c 998e a13b f938 283a
00000330: 4301 b43b e2e7 9b3b 1fe0 28bb 6bf8 703a
00000340: eca8 1c3c 7dec 83bb 889b 57bc 77f3 99bc
00000350: dcb5 48bb f026 1c3b 6ff7 ecb9 d1ce 393b
00000360: 3db6 e23b 48c6 cfbc 03d6 583c 4311 41b9
00000370: 9076 7e3c 3b9d 2cbc 173d 89bb a734 bcbb
00000380: afc2 443c 47d3 6bbc 9af3 573c 30f8 23ba
00000390: f59d e4bb 638d 54bc c9cd 9a3c 0503 e6bc
000003a0: ba3f 603c e38b 093b 8b46 913c 453f 733b
000003b0: 2f1f 9cba 7936 373c a833 c03a 9016 dd3b
000003c0: 0858 d03a bbc2 c63a 7b79 3dbc d7ae 8f3b
000003d0: a865 ea3a 7504 c9ba 770d 183a 3af5 183c
000003e0: e8f4 743c 2209 92ba c073 e3bb 6353 573c
000003f0: b733 453c 6a7b c43a c5e3 9dbb 53de fc3a
0.0030101044 -0.008815701 0.0026799229 0.005238232 0.0037851713 0.008819849 0.010613522 -0.003645751
-0.0043589245 -0.00045113414 0.016495185 0.00815273 -0.0021872285 0.006683799 0.0014431644 -0.0050864327
0.01575593 0.022565475 0.00094413664 -0.026647717 0.006014747 0.010238065 0.011577915 -0.006800717
-0.005087412 -0.004801432 0.004181551 -0.008719581 0.004658933 -0.002359051 0.0006731147 -0.0005407836
0.003192921 -0.013521421 0.008692774 0.0107931355 0.006079975 0.011062138 -0.020898404 -0.0019119041
-0.00990125 -0.0033046347 0.005172684 -0.0036095076 0.005909517 0.0025123423 0.003247121 0.017046437
-0.00018292361 0.0009067581 0.007062921 0.009676261 0.0014037067 -0.008937979 0.0041730194 -0.005616194
0.00013880056 -0.013400555 -0.015928067 -0.002206794 -0.009784505 0.014128377 0.0006351122 -0.012396272
-0.011977953 -0.003011284 0.004820116 0.007574325 -0.0009943726 -0.016721288 -0.01956193 -0.0077328556
-0.0081017455 0.016393742 0.013130016 0.0054333536 0.0033511245 0.008579235 -0.0060989275 0.0005811443
-0.0018741969 -0.012562205 0.012864554 0.012634546 0.008640468 0.004216771 0.00294062 -0.020514924
-0.006492118 -0.0040819584 0.00062222796 -0.02063578 0.0013043572 -0.0041236035 0.0182941 -0.004789728
0.0039548087 -0.009932029 -0.00026899352 0.0052683 0.003738675 -0.0019844898 0.016434928 -0.014617796
-0.001167848 0.010009672 0.014080539 0.006600371 0.0054598097 -0.0029537564 0.021671023 0.012320415
0.011101737 0.00032310004 0.0043490506 0.0010030931 -0.001518738 -0.002853521 0.0059410795 0.007279891
-0.0028658137 -0.0054843943 0.0060939356 0.007354452 -0.004745215 -0.0003656347 0.0008512139 -0.006805388
-0.009512161 -0.00838574 0.0050283 0.014471722 -0.0088164685 0.00733076 0.003089185 0.008646878
-0.005033124 -0.013010315 0.018995643 -0.0022862346 -0.0038153294 0.00028290958 0.0023849427 0.0029289962
0.0061415476 0.0024082738 -0.014301218 -0.0024993531 -0.00823921 -0.0024621491 0.004358246 0.0034779205
-0.0064996565 -0.011618583 0.0035682034 -0.0090375915 0.0027080644 -0.0018953963 -0.0020183132 0.0060194233
-0.0007507992 0.008276943 0.0037570428 -0.0003999113 0.004075488 -0.0019281956 -0.0050766836 -0.004935055
0.014936804 -0.009224154 -0.014945288 0.00044053092 0.0016574658 -0.0010705686 -0.0027882485 0.010731948
0.00022810725 0.0054367455 -0.004599299 -0.0007828373 0.010858026 0.014007262 0.008208987 0.0106289955
-0.003408648 0.0070854775 -0.0010761422 -0.0018778614 0.00507239 0.009091092 0.013667538 -0.007434023
-0.0022081719 0.0022483913 0.0015735416 -0.0028539735 0.010682119 -0.0035474736 0.010851 -0.004519645
-0.008492774 0.011323034 0.004930329 0.0006417181 0.0054933145 0.004757867 -0.0025768352 0.00091922906
0.0095617585 -0.0040259943 -0.01315964 -0.01879285 -0.0030625975 0.002382692 -0.0004519778 0.0028352032
0.006918697 -0.025363103 0.013234618 -0.00018412345 0.015531197 -0.010535534 -0.0041881907 -0.0057435813
0.012009307 -0.014393634 0.013180638 -0.00062549394 -0.0069768378 -0.012973162 0.018896954 -0.028077612
0.013687069 0.002098792 0.017733833 0.003711657 -0.0011911149 0.011182421 0.0014663832 0.0067470744
0.0015895376 0.0015164235 -0.011564608 0.004384856 0.0017883079 -0.0015336411 0.0005800346 0.00933581
0.014950968 -0.0011141638 -0.0069412887 0.01314244 0.012036256 0.0014990394 -0.004818412 0.0019292332

action_model._discrete_distribution.branches.1.bias f4 [2]
00000000: 0000 0000 0000 0000
0.0 0.0
