results/test12/MoveToGoal/checkpoint.pt (torch, 672239 bytes, 17 tensors)

discrete_act_size_vector f4 [1, 2]
00000000: 0000 0040 0000 0040
2.0 2.0

network_body._body_endoder.seq_layers.0.weight f4 [128, 6]
00000000: 8ab7 e43e b455 dc3e 929a 733d b387 cfbe
00000010: b40b 63bf a382 e73e ba4d 8bbe 8142 c93c
00000020: 2106 8d3e 5ae6 b0be 5da3 91be c591 4e3e
00000030: bfde f8be a45f 033f 03a2 8b3e 1ef9 e33e
00000040: a3d5 c4bd fa94 73be 97d6 1e3e 7d01 013f
00000050: 5f78 cb3e 05e8 07bf bcff 25be 410a 1e3d
00000060: 4c29 4d3e 9bd2 c8be 0f50 803d b5c4 b5be
00000070: a126 03bf 59ef 323f a60e d03e 084d f0be
00000080: 6086 febe 8dd9 1dbe 019a 4e3e 3774 393e
00000090: 58cb ea3d 9409 57bf 33ea ee3e 292b 09bf
000000a0: eb76 963d a521 9d3e c6eb 443f 1c21 7e3f
000000b0: 34f4 e13e d7f7 9cbe 74cd 863e 8a88 c9bc
000000c0: 003e bbbd 4568 4b3e 121c b6be ad95 3b3e
000000d0: 6d98 26bd 41f9 293e 4eec 4f3e 8415 c8be
000000e0: 3295 953e 7ebc a93d 0035 25bf 92e4 733e
000000f0: 17c1 afbe 2fec d0be dea1 3cbf 98fb 94be
00000100: 47fc 05be 3bd2 3dbe 317e b1bd 7c0d 663d
00000110: 4cbf 0dbe aae7 5f3f 1401 bbbe 604b 933e
00000120: 9fca 34bf b651 a0be 1e22 1f3f 855f be3e
00000130: 149e 5cbd 5c70 003c 68ac 923e c42b dd3e
00000140: 6885 f93e 770e 193f d7aa c03d 269d 25be
00000150: 368f 70be c7f1 43bf 7569 1d3f 9e77 f1bd
00000160: 9b9c 0bbe 2206 ffbd 7be6 32bd b338 b53d
00000170: bc60 ecbe 28a7 a13f ca2e 23bf b8d2 97be
00000180: 1342 ed3e f29c 023f 4744 97be 7814 9e3e
00000190: 4d2f 86bd f1ab 5cbf 212f a3be 3a14 0fbe
000001a0: 74e4 e7be 739e 5a3d 35e6 b63e a8dc debd
000001b0: 59df f73d ca1e aebd ada4 f4bd 4775 17bf
000001c0: 9f1e e83e 0457 84bd 6d09 6c3f c284 c03d
000001d0: b6d4 59be 043b b2bb f990 293e 9167 0bbd
000001e0: de9f a2be 1fc7 de3e fd27 723e 5af5 9dbe
000001f0: a8a4 c2be f4ac 663e 1c5f ca3e 6870 403c
00000200: 0e8f 093f ae3b f43d 6c56 0e3e 5733 053e
00000210: cb20 1a3f 229f 9a3e 5552 7f3e a871 febb
00000220: 03c2 01be ddc0 e93e c977 983e 1f4d e2be
00000230: a118 ae3e bd1a 4ebf ade4 ac3d eaa8 f83e
00000240: 6b1c 643d ecc0 d03e 253e a2be c918 a1be
00000250: bc44 f4be 784b 86bf 7bd6 7c3e d2ee 42bf
00000260: 5c78 84be 26de 89be fe7f 86bd 3142 b9be
00000270: 9cc2 8ebd b4a5 1e3d db21 e5be dacd 7dbe
00000280: 9cb3 143e 2ac4 c2bd 7e87 673e 2833 f7be
00000290: 078d dfbe a01a 563d 6cd2 10bf 48d1 61bd
000002a0: cdd5 643e 00da b63e 6889 1cbc 8ad1 64bd
000002b0: 52f8 3d3e 2423 833e 516f 3f3e cda8 10bf
000002c0: fe1d 0e3f 5186 6fbe e945 603e 88f9 9cbe
000002d0: f903 50bc 038b b8bc 64c7 c73e f05c ab3e
000002e0: b6e1 b6be af36 253e d863 93be 0644 01bf
000002f0: 0418 de3e b091 543f 84e1 18bc f6cb bebe
00000300: 5d32 6fbd 5974 cf3d de5f 07be 9956 bcbc
00000310: 1cd2 20be 8840 17bf c764 e9bd 1b97 6cbe
00000320: 86f0 10be 4171 f1bd f7ab 00bd 72cd 78be
00000330: 925d cc3d 5eb8 dc3d d4c9 a93e 80bd 933e
00000340: 7a42 19bf f906 72bd 1ae4 113f 2b63 963e
00000350: 72ec 29bc 4d8d ffbe fbe7 2fbc 2cb6 e1bf
00000360: 12b6 b6be 06e3 343e 1df1 2a3f bee3 c5be
00000370: 6f31 4cbd f211 ccbe e4c2 e3be e5de 4dbe
00000380: c5a8 d33e 7161 5cbd e9d2 acbe a19d 1a3f
00000390: 78ee 43be 26c3 a7be 8d01 a8be f432 3bbf
000003a0: 24c1 e6be 7f1b adbd 72d2 aabe 5cee ca3d
000003b0: 3def b6be 6425 52be ddbd 373e af40 01bc
000003c0: 8a1c 863c 454e 4a3e d773 3b3f 86dd c1bd
000003d0: 1a13 c7be d8af e9bd 323e cbbe 0902 a83e
000003e0: 1d9c 55be dcf5 073f 46b0 ce3d dfc7 333a
000003f0: e94c 88be b752 c03e eead b73e 946e 713e
0.4467128 0.43034136 0.05947358 -0.40533218 -0.8868973 0.45216855 -0.27207738 0.024567844
0.27543738 -0.34550744 -0.2844495 0.20172794 -0.48607442 0.5131781 0.27272043 0.44526
-0.096110605 -0.23787299 0.15511547 0.50392896 0.39740273 -0.5308841 -0.16210836 0.038583998
0.20035285 -0.3922318 0.0626527 -0.35501638 -0.5123082 0.69896466 0.40636176 -0.4693377
-0.49711895 -0.1541502 0.20175935 0.18110739 0.11464566 -0.8399899 0.46663055 -0.5358148
0.073469006 0.3068973 0.7692226 0.9926927 0.44131625 -0.30657837 0.26328623 -0.02460124
-0.09142685 0.19863994 -0.3556829 0.18318816 -0.04067271 0.16598989 0.20304987 -0.39078915
0.2921539 0.08287905 -0.64533997 0.23817661 -0.34327003 -0.40805194 -0.7368449 -0.290982
-0.13084517 -0.18537228 -0.08666647 0.056165203 -0.13842505 0.87462866 -0.3652426 0.28768444
-0.70621675 -0.3131234 0.62161434 0.3718225 -0.053861693 0.007839289 0.2864716 0.43197453
0.48734593 0.59787697 0.09407585 -0.16173229 -0.2349213 -0.765408 0.6148904 -0.11790393
-0.13633959 -0.124523416 -0.043676835 0.08848705 -0.46167552 1.2629137 -0.6374327 -0.29652953
0.46339473 0.5102073 -0.2954428 0.3087499 -0.06551991 -0.8619986 -0.31871894 -0.1397256
-0.45291483 0.053373765 0.3572251 -0.108819306 0.12103147 -0.08501966 -0.11945472 -0.59163326
0.45335862 -0.064619094 0.9220188 0.094003215 -0.21272549 -0.005439164 0.16559209 -0.034034315
-0.31762594 0.43511292 0.23648067 -0.3085125 -0.38016248 0.22526914 0.39525688 0.01174555
0.5373391 0.119254455 0.13900155 0.13007866 0.6020629 0.30199534 0.24933751 -0.0077650137
-0.12671666 0.45654956 0.2977889 -0.44199464 0.34003165 -0.8050955 0.08442054 0.4856637
0.055691164 0.40772188 -0.31688038 -0.31464222 -0.4770869 -1.0491781 0.24691193 -0.7614566
-0.25873077 -0.26927298 -0.06567381 -0.36183313 -0.069707125 0.038732246 -0.44752392 -0.24785557
0.1452164 -0.095100716 0.2261028 -0.48281217 -0.43662283 0.052271485 -0.5657108 -0.055131227
0.22347184 0.35713196 -0.009554245 -0.055863895 0.18551758 0.25612748 0.18694808 -0.5650757
0.55514514 -0.23391081 0.21901669 -0.30659127 -0.01269626 -0.022527223 0.3901931 0.33469343
-0.3571908 0.16134141 -0.28787112 -0.5049442 0.43377697 0.830348 -0.009331111 -0.37264985
-0.05839764 0.101296134 -0.13220164 -0.022990512 -0.1570515 -0.5908284 -0.11396175 -0.23104517
-0.14154252 -0.117891796 -0.031414 -0.24297121 0.099787846 0.10777353 0.33161795 0.28855515
-0.5986706 -0.05908868 0.5698868 0.29372534 -0.010371314 -0.4991249 -0.010736461 -1.763372
-0.35685784 0.17664728 0.6677416 -0.38650316 -0.04985183 -0.3985744 -0.44484627 -0.20104559
0.41339698 -0.053803865 -0.33754662 0.6039677 -0.19133937 -0.32766074 -0.32813683 -0.73124623
-0.4506923 -0.0845251 -0.33363682 0.09908745 -0.357294 -0.20522076 0.17943521 -0.007888957
0.01637103 0.1975642 0.7322363 -0.0946608 -0.3888176 -0.11410493 -0.3969589 0.32814053
-0.20860334 0.53109527 0.10092215 0.0006858091 -0.26621178 0.37563106 0.35874885 0.23577338

network_body._body_endoder.seq_layers.0.bias f4 [128]
00000000: 0000 0000 0000 0000 0000 0000 0000 0000
00000010: 0000 0000 0000 0000 0000 0000 0000 0000
00000020: 0000 0000 0000 0000 0000 0000 0000 0000
00000030: 0000 0000 0000 0000 0000 0000 0000 0000
00000040: 0000 0000 0000 0000 0000 0000 0000 0000
00000050: 0000 0000 0000 0000 0000 0000 0000 0000
00000060: 0000 0000 0000 0000 0000 0000 0000 0000
00000070: 0000 0000 0000 0000 0000 0000 0000 0000
00000080: 0000 0000 0000 0000 0000 0000 0000 0000
00000090: 0000 0000 0000 0000 0000 0000 0000 0000
000000a0: 0000 0000 0000 0000 0000 0000 0000 0000
000000b0: 0000 0000 0000 0000 0000 0000 0000 0000
000000c0: 0000 0000 0000 0000 0000 0000 0000 0000
000000d0: 0000 0000 0000 0000 0000 0000 0000 0000
000000e0: 0000 0000 0000 0000 0000 0000 0000 0000
000000f0: 0000 0000 0000 0000 0000 0000 0000 0000
00000100: 0000 0000 0000 0000 0000 0000 0000 0000
00000110: 0000 0000 0000 0000 0000 0000 0000 0000
00000120: 0000 0000 0000 0000 0000 0000 0000 0000
00000130: 0000 0000 0000 0000 0000 0000 0000 0000
00000140: 0000 0000 0000 0000 0000 0000 0000 0000
00000150: 0000 0000 0000 0000 0000 0000 0000 0000
00000160: 0000 0000 0000 0000 0000 0000 0000 0000
00000170: 0000 0000 0000 0000 0000 0000 0000 0000
00000180: 0000 0000 0000 0000 0000 0000 0000 0000
00000190: 0000 0000 0000 0000 0000 0000 0000 0000
000001a0: 0000 0000 0000 0000 0000 0000 0000 0000
000001b0: 0000 0000 0000 0000 0000 0000 0000 0000
000001c0: 0000 0000 0000 0000 0000 0000 0000 0000
000001d0: 0000 0000 0000 0000 0000 0000 0000 0000
000001e0: 0000 0000 0000 0000 0000 0000 0000 0000
000001f0: 0000 0000 0000 0000 0000 0000 0000 0000
0.0 0.0 0.0 0.0 0.0 0.0 0.0 0.0
0.0 0.0 0.0 0.0 0.0 0.0 0.0 0.0
0.0 0.0 0.0 0.0 0.0 0.0 0.0 0.0
0.0 0.0 0.0 0.0 0.0 0.0 0.0 0.0
0.0 0.0 0.0 0.0 0.0 0.0 0.0 0.0
0.0 0.0 0.0 0.0 0.0 0.0 0.0 0.0
0.0 0.0 0.0 0.0 0.0 0.0 0.0 0.0
0.0 0.0 0.0 0.0 0.0 0.0 0.0 0.0
0.0 0.0 0.0 0.0 0.0 0.0 0.0 0.0
0.0 0.0 0.0 0.0 0.0 0.0 0.0 0.0
0.0 0.0 0.0 0.0 0.0 0.0 0.0 0.0
0.0 0.0 0.0 0.0 0.0 0.0 0.0 0.0
0.0 0.0 0.0 0.0 0.0 0.0 0.0 0.0
0.0 0.0 0.0 0.0 0.0 0.0 0.0 0.0
0.0 0.0 0.0 0.0 0.0 0.0 0.0 0.0
0.0 0.0 0.0 0.0 0.0 0.0 0.0 0.0

network_body._body_endoder.seq_layers.2.weight f4 [128, 128]
00000000: b47f 2dbd a827 1abe cad1 10bd 9b69 f33d
00000010: 88aa e3bd 8bd6 ba3d e236 aebd a9eb f63d
00000020: e6af 2dbe a1f4 893d 6287 f83d f123 e83c
00000030: 13cf 393d 850c 3f3d 9a4e 88bd 5054 72bc
00000040: 5790 633b 0527 803d 802c d33d 9b73 d7bc
00000050: fae9 903d a27c 28bc 5633 223d 3737 803d
00000060: f8c2 adbd 801d ab3d 627e dc3d 71b8 6f3e
00000070: 06c6 053d 0239 52bd 1e29 78bc 24ad ccbc
00000080: 9a24 3ebd 90c2 8fbd d099 24bc f180 5fbd
00000090: ff29 cebc c55e 8b3c aeef 13bc 608c 8bbd
000000a0: a1ee 003b 604f 8abd 62b7 2abe 09b5 f5bd
000000b0: 19e2 8bbd d23d d5bc f0d2 563e feef c93c
000000c0: 537c 2a3d edae e1bd 4a9f 4dbd b0fd 743c
000000d0: 2e90 943d 667c 6b3d 293a 483e 8b9d 073e
000000e0: 852f 763d 8fea 563d bc59 833d e5bc 173d
000000f0: ca77 653d 43d9 023e 1f43 383c eebc c9bd
00000100: b8b0 84bd 4aee 1ebd 343d 0bbd 1d1d 263e
00000110: 70c7 793c 9277 e4bd 11d8 39bc 4d5d 0e3e
00000120: 97e0 db3c f5e2 f33d 172f 963d f7b2 373c
00000130: fe52 943d 9f7d c63c 8d55 3f3c 41d3 0fbd
00000140: 4d35 01be 73fd 043e 5dbc c0bd 82fa 833c
00000150: 4fd9 a83d fc09 a73d be44 0fbc 4a03 ae3d
00000160: d876 743d 1060 2c3e 00c3 03bc 0af8 e13b
00000170: 73c7 aebd ab8b c9bc 0b18 acbd 6fcf a93c
00000180: fb86 9fbc 1e18 a63c 0f4b 23bc 64ce 3f3d
00000190: 83ad 93bc c671 d23d 505d 013e 5a63 523e
000001a0: 8fb5 eebd e9d7 113d 7aab 8cbc 9243 473c
000001b0: ff28 2abd 7615 1b3e 8d4f 143e 0567 6c3d
000001c0: 5235 04be e915 a03a fc5f 5bbe ece4 8e3d
000001d0: a080 6dbd 3e0c b5bd 29b1 ed3b da7f 113e
000001e0: 0e18 2fbe 2dd2 aa3c 379f 113e 0c05 16bd
000001f0: afde 1d3e eb1d 73be a993 833d f408 973c
00000200: c829 c9bc 8cb9 ec3c aabe c2bd cc72 bc3d
00000210: 0208 f23d 1f27 3fbd da5f d03d 7dab 963d
00000220: 0422 663d 7032 8dbd 19a0 fd3a 0f24 b1bd
00000230: 3249 eb3d ea7b 953d 9dfd 273e 3fb7 7bbd
00000240: 6d2f 3a3d 8db6 8abc a6a2 86bd 339d 36bd
00000250: 8d38 c63b 2c03 21bc 12d7 afbc 1a51 89bd
00000260: 4291 f83d 240b 563d 38ca 773d dd27 81bc
00000270: fd1a 91bc 32f5 1ebe ec08 163e 728e 3cbd
00000280: b35f 893c 53d5 373d 0298 8d3d fcee 04be
00000290: 3115 8ebd c1e8 e23b 632a b5bd 0b75 783b
000002a0: a0ff 75bd f53d a5bd 424d a23d d806 ec3d
000002b0: a2b8 f53d d581 8c3d 0133 c1bd 569a ce3c
000002c0: d2f8 df3d e892 c2bd d48f 20bc 2fa9 ff3d
000002d0: ff4f 303e 4487 973c 26d8 80bd ac13 89bc
000002e0: b9e3 f53c a167 60bd 3fb1 14be 7c71 ee3d
000002f0: 5b23 c73d 8aa6 0fbd ac56 19bc 72e7 f5bd
00000300: 705f cbbd 61aa 03be 29d1 2c3d 8878 403d
00000310: 99d7 e03d 3332 19bd 491f fabb cb88 aa3d
00000320: 9079 24bd 65ea b7bd 827d f53c 32bd 79bd
00000330: 3233 373e 51a7 e6bc 9f02 9bbd e802 bb3d
00000340: 751b ae3d 3081 bdbd 22d8 b73d f968 f7bc
00000350: 6ad7 163e 3d1b 10bd 9c04 3e3e 33cc 923c
00000360: c461 d13c cf99 86bd 8d40 333e 09f4 4f3c
00000370: 7b55 e5bc 2860 803d c155 7b3b 27ac 803d
00000380: 6cc6 973d 3138 a6bd 1f54 bd3d ac79 2d3b
00000390: 477e b43d bb4f 24bd a7ec b73b 14bb 213e
000003a0: a1db f73d 125c b13d 8460 38bd 7054 0f3e
000003b0: 8dd5 813c de74 97bd 1924 683b a577 0ebd
000003c0: a812 293c b019 b93d 83d5 07be 5ef0 b93b
000003d0: 189a 213d 77ea 9e3d 9181 703c b26a 1ebe
000003e0: 0697 22bd 5b78 373d 6eec 3dbc 6042 0cbe
000003f0: 9b97 083e 5699 dc3d 545b a9bd 2382 a33d
-0.042358115 -0.1505419 -0.03535632 0.11885377 -0.11116511 0.09122952 -0.08506562 0.12056667
-0.16961631 0.067361124 0.12135197 0.02833745 0.045363497 0.0466428 -0.06655617 -0.0147906095
0.0034723484 0.062574424 0.10311222 -0.026300242 0.070758775 -0.010283621 0.03959974 0.062605314
-0.08484453 0.08355236 0.10766293 0.23410203 0.032659553 -0.051323898 -0.015146522 -0.024984904
-0.046421625 -0.07019532 -0.010046437 -0.054566327 -0.02516651 0.017012963 -0.009029312 -0.06813884
0.0019673484 -0.06753421 -0.16671517 -0.1199742 -0.06830234 -0.026030455 0.20978904 0.02465057
0.04162247 -0.110196926 -0.050200738 0.014953062 0.072540626 0.057491682 0.19553436 0.13243692
0.060103912 0.052469786 0.064136 0.03704538 0.056022443 0.12778191 0.011246472 -0.098504886
-0.06479019 -0.03880147 -0.033993915 0.16222043 0.0152453035 -0.11155619 -0.011343018 0.13902779
0.026840491 0.11908523 0.073332004 0.011212102 0.07242392 0.024229823 0.011678112 -0.035113577
-0.12617989 0.12987308 -0.094109274 0.016110662 0.08244573 0.08156201 -0.008744417 0.08496721
0.05968365 0.1683352 -0.008042097 0.0068960236 -0.08534136 -0.024602732 -0.08403023 0.020728795
-0.019473543 0.020275172 -0.009966626 0.04682769 -0.018027073 0.10275607 0.12633252 0.20545712
-0.11655723 0.0356063 -0.01717161 0.012162106 -0.041543003 0.15144905 0.14483471 0.057715435
-0.12910965 0.0012213561 -0.21423334 0.06977257 -0.057983994 -0.08840226 0.007253785 0.14208928
-0.1709902 0.020852173 0.14220892 -0.036625907 0.15416978 -0.23741882 0.06424648 0.018436886
-0.024556056 0.02889707 -0.095090225 0.09201583 0.118179336 -0.04666817 0.10174532 0.073569275
0.056184784 -0.06894386 0.0019350081 -0.08649456 0.1148857 0.07299025 0.1640534 -0.061454054
0.045455385 -0.01693275 -0.065739915 -0.04458351 0.006049222 -0.009827416 -0.021464858 -0.06704922
0.12137081 0.05225672 0.060495585 -0.015766079 -0.017713064 -0.15523222 0.14651841 -0.046034284
0.016769266 0.044881176 0.06913759 -0.1298179 -0.06937636 0.006924719 -0.08845975 0.003791156
-0.060058236 -0.08068458 0.07924892 0.11524743 0.119981065 0.06860701 -0.09433556 0.025220077
0.109361306 -0.095006764 -0.009799916 0.12483441 0.17218016 0.018497117 -0.06291227 -0.016733013
0.030015813 -0.05478633 -0.14520739 0.11642739 0.097235404 -0.035070933 -0.009359043 -0.12007035
-0.09930313 -0.12857963 0.04219166 0.046989948 0.10978622 -0.03740139 -0.007633124 0.083268724
-0.040154994 -0.08980254 0.029967073 -0.060971446 0.17890623 -0.028155955 -0.07568859 0.09131414
0.08501331 -0.09253156 0.08976771 -0.030201422 0.14730611 -0.035182226 0.18556446 0.017919635
0.025559314 -0.065723054 0.17505093 0.01269246 -0.027994862 0.0626834 0.0038350674 0.062828355
0.07410893 -0.081161864 0.092445605 0.0026470227 0.08813148 -0.0401151 0.005612928 0.15794021
0.12102438 0.08660139 -0.04501392 0.13997054 0.0158489 -0.073953375 0.0035421907 -0.03478207
0.010319389 0.090381026 -0.13265042 0.005674406 0.039453596 0.07759564 0.014679329 -0.15470389
-0.03969481 0.044792514 -0.011592014 -0.13697195 0.13339083 0.10771434 -0.082693726 0.07983806

network_body._body_endoder.seq_layers.2.bias f4 [128]
00000000: 0000 0000 0000 0000 0000 0000 0000 0000
00000010: 0000 0000 0000 0000 0000 0000 0000 0000
00000020: 0000 0000 0000 0000 0000 0000 0000 0000
00000030: 0000 0000 0000 0000 0000 0000 0000 0000
00000040: 0000 0000 0000 0000 0000 0000 0000 0000
00000050: 0000 0000 0000 0000 0000 0000 0000 0000
00000060: 0000 0000 0000 0000 0000 0000 0000 0000
00000070: 0000 0000 0000 0000 0000 0000 0000 0000
00000080: 0000 0000 0000 0000 0000 0000 0000 0000
00000090: 0000 0000 0000 0000 0000 0000 0000 0000
000000a0: 0000 0000 0000 0000 0000 0000 0000 0000
000000b0: 0000 0000 0000 0000 0000 0000 0000 0000
000000c0: 0000 0000 0000 0000 0000 0000 0000 0000
000000d0: 0000 0000 0000 0000 0000 0000 0000 0000
000000e0: 0000 0000 0000 0000 0000 0000 0000 0000
000000f0: 0000 0000 0000 0000 0000 0000 0000 0000
00000100: 0000 0000 0000 0000 0000 0000 0000 0000
00000110: 0000 0000 0000 0000 0000 0000 0000 0000
00000120: 0000 0000 0000 0000 0000 0000 0000 0000
00000130: 0000 0000 0000 0000 0000 0000 0000 0000
00000140: 0000 0000 0000 0000 0000 0000 0000 0000
00000150: 0000 0000 0000 0000 0000 0000 0000 0000
00000160: 0000 0000 0000 0000 0000 0000 0000 0000
00000170: 0000 0000 0000 0000 0000 0000 0000 0000
00000180: 0000 0000 0000 0000 0000 0000 0000 0000
00000190: 0000 0000 0000 0000 0000 0000 0000 0000
000001a0: 0000 0000 0000 0000 0000 0000 0000 0000
000001b0: 0000 0000 0000 0000 0000 0000 0000 0000
000001c0: 0000 0000 0000 0000 0000 0000 0000 0000
000001d0: 0000 0000 0000 0000 0000 0000 0000 0000
000001e0: 0000 0000 0000 0000 0000 0000 0000 0000
000001f0: 0000 0000 0000 0000 0000 0000 0000 0000
0.0 0.0 0.0 0.0 0.0 0.0 0.0 0.0
0.0 0.0 0.0 0.0 0.0 0.0 0.0 0.0
0.0 0.0 0.0 0.0 0.0 0.0 0.0 0.0
0.0 0.0 0.0 0.0 0.0 0.0 0.0 0.0
0.0 0.0 0.0 0.0 0.0 0.0 0.0 0.0
0.0 0.0 0.0 0.0 0.0 0.0 0.0 0.0
0.0 0.0 0.0 0.0 0.0 0.0 0.0 0.0
0.0 0.0 0.0 0.0 0.0 0.0 0.0 0.0
0.0 0.0 0.0 0.0 0.0 0.0 0.0 0.0
0.0 0.0 0.0 0.0 0.0 0.0 0.0 0.0
0.0 0.0 0.0 0.0 0.0 0.0 0.0 0.0
0.0 0.0 0.0 0.0 0.0 0.0 0.0 0.0
0.0 0.0 0.0 0.0 0.0 0.0 0.0 0.0
0.0 0.0 0.0 0.0 0.0 0.0 0.0 0.0
0.0 0.0 0.0 0.0 0.0 0.0 0.0 0.0
0.0 0.0 0.0 0.0 0.0 0.0 0.0 0.0

action_model._continuous_distribution.log_sigma f4 [1, 1000]
00000000: 0000 0000 0000 0000 0000 0000 0000 0000
00000010: 0000 0000 0000 0000 0000 0000 0000 0000
00000020: 0000 0000 0000 0000 0000 0000 0000 0000
00000030: 0000 0000 0000 0000 0000 0000 0000 0000
00000040: 0000 0000 0000 0000 0000 0000 0000 0000
00000050: 0000 0000 0000 0000 0000 0000 0000 0000
00000060: 0000 0000 0000 0000 0000 0000 0000 0000
00000070: 0000 0000 0000 0000 0000 0000 0000 0000
00000080: 0000 0000 0000 0000 0000 0000 0000 0000
00000090: 0000 0000 0000 0000 0000 0000 0000 0000
000000a0: 0000 0000 0000 0000 0000 0000 0000 0000
000000b0: 0000 0000 0000 0000 0000 0000 0000 0000
000000c0: 0000 0000 0000 0000 0000 0000 0000 0000
000000d0: 0000 0000 0000 0000 0000 0000 0000 0000
000000e0: 0000 0000 0000 0000 0000 0000 0000 0000
000000f0: 0000 0000 0000 0000 0000 0000 0000 0000
00000100: 0000 0000 0000 0000 0000 0000 0000 0000
00000110: 0000 0000 0000 0000 0000 0000 0000 0000
00000120: 0000 0000 0000 0000 0000 0000 0000 0000
00000130: 0000 0000 0000 0000 0000 0000 0000 0000
00000140: 0000 0000 0000 0000 0000 0000 0000 0000
00000150: 0000 0000 0000 0000 0000 0000 0000 0000
00000160: 0000 0000 0000 0000 0000 0000 0000 0000
00000170: 0000 0000 0000 0000 0000 0000 0000 0000
00000180: 0000 0000 0000 0000 0000 0000 0000 0000
00000190: 0000 0000 0000 0000 0000 0000 0000 0000
000001a0: 0000 0000 0000 0000 0000 0000 0000 0000
000001b0: 0000 0000 0000 0000 0000 0000 0000 0000
000001c0: 0000 0000 0000 0000 0000 0000 0000 0000
000001d0: 0000 0000 0000 0000 0000 0000 0000 0000
000001e0: 0000 0000 0000 0000 0000 0000 0000 0000
000001f0: 0000 0000 0000 0000 0000 0000 0000 0000
00000200: 0000 0000 0000 0000 0000 0000 0000 0000
00000210: 0000 0000 0000 0000 0000 0000 0000 0000
00000220: 0000 0000 0000 0000 0000 0000 0000 0000
00000230: 0000 0000 0000 0000 0000 0000 0000 0000
00000240: 0000 0000 0000 0000 0000 0000 0000 0000
00000250: 0000 0000 0000 0000 0000 0000 0000 0000
00000260: 0000 0000 0000 0000 0000 0000 0000 0000
00000270: 0000 0000 0000 0000 0000 0000 0000 0000
00000280: 0000 0000 0000 0000 0000 0000 0000 0000
00000290: 0000 0000 0000 0000 0000 0000 0000 0000
000002a0: 0000 0000 0000 0000 0000 0000 0000 0000
000002b0: 0000 0000 0000 0000 0000 0000 0000 0000
000002c0: 0000 0000 0000 0000 0000 0000 0000 0000
000002d0: 0000 0000 0000 0000 0000 0000 0000 0000
000002e0: 0000 0000 0000 0000 0000 0000 0000 0000
000002f0: 0000 0000 0000 0000 0000 0000 0000 0000
00000300: 0000 0000 0000 0000 0000 0000 0000 0000
00000310: 0000 0000 0000 0000 0000 0000 0000 0000
00000320: 0000 0000 0000 0000 0000 0000 0000 0000
00000330: 0000 0000 0000 0000 0000 0000 0000 0000
00000340: 0000 0000 0000 0000 0000 0000 0000 0000
00000350: 0000 0000 0000 0000 0000 0000 0000 0000
00000360: 0000 0000 0000 0000 0000 0000 0000 0000
00000370: 0000 0000 0000 0000 0000 0000 0000 0000
00000380: 0000 0000 0000 0000 0000 0000 0000 0000
00000390: 0000 0000 0000 0000 0000 0000 0000 0000
000003a0: 0000 0000 0000 0000 0000 0000 0000 0000
000003b0: 0000 0000 0000 0000 0000 0000 0000 0000
000003c0: 0000 0000 0000 0000 0000 0000 0000 0000
000003d0: 0000 0000 0000 0000 0000 0000 0000 0000
000003e0: 0000 0000 0000 0000 0000 0000 0000 0000
000003f0: 0000 0000 0000 0000 0000 0000 0000 0000
0.0 0.0 0.0 0.0 0.0 0.0 0.0 0.0
0.0 0.0 0.0 0.0 0.0 0.0 0.0 0.0
0.0 0.0 0.0 0.0 0.0 0.0 0.0 0.0
0.0 0.0 0.0 0.0 0.0 0.0 0.0 0.0
0.0 0.0 0.0 0.0 0.0 0.0 0.0 0.0
0.0 0.0 0.0 0.0 0.0 0.0 0.0 0.0
0.0 0.0 0.0 0.0 0.0 0.0 0.0 0.0
0.0 0.0 0.0 0.0 0.0 0.0 0.0 0.0
0.0 0.0 0.0 0.0 0.0 0.0 0.0 0.0
0.0 0.0 0.0 0.0 0.0 0.0 0.0 0.0
0.0 0.0 0.0 0.0 0.0 0.0 0.0 0.0
0.0 0.0 0.0 0.0 0.0 0.0 0.0 0.0
0.0 0.0 0.0 0.0 0.0 0.0 0.0 0.0
0.0 0.0 0.0 0.0 0.0 0.0 0.0 0.0
0.0 0.0 0.0 0.0 0.0 0.0 0.0 0.0
0.0 0.0 0.0 0.0 0.0 0.0 0.0 0.0
0.0 0.0 0.0 0.0 0.0 0.0 0.0 0.0
0.0 0.0 0.0 0.0 0.0 0.0 0.0 0.0
0.0 0.0 0.0 0.0 0.0 0.0 0.0 0.0
0.0 0.0 0.0 0.0 0.0 0.0 0.0 0.0
0.0 0.0 0.0 0.0 0.0 0.0 0.0 0.0
0.0 0.0 0.0 0.0 0.0 0.0 0.0 0.0
0.0 0.0 0.0 0.0 0.0 0.0 0.0 0.0
0.0 0.0 0.0 0.0 0.0 0.0 0.0 0.0
0.0 0.0 0.0 0.0 0.0 0.0 0.0 0.0
0.0 0.0 0.0 0.0 0.0 0.0 0.0 0.0
0.0 0.0 0.0 0.0 0.0 0.0 0.0 0.0
0.0 0.0 0.0 0.0 0.0 0.0 0.0 0.0
0.0 0.0 0.0 0.0 0.0 0.0 0.0 0.0
0.0 0.0 0.0 0.0 0.0 0.0 0.0 0.0
0.0 0.0 0.0 0.0 0.0 0.0 0.0 0.0
0.0 0.0 0.0 0.0 0.0 0.0 0.0 0.0

action_model._continuous_distribution.mu.weight f4 [1000, 128]
00000000: b512 debb ad71 673c b3a5 6cbc 0652 b1bc
00000010: cbcc 76ba e152 ba3b 27dd 7abc c253 ea3b
00000020: 101f b83b ef4f 8abc a7a0 77bb 9ea6 91bc
00000030: b535 213d 231e 0fbd 2a63 083d 00d0 4abb
00000040: d793 96bc 2346 b1bc 570a ef3c 7747 103d
00000050: 175c 7e3b 1396 29bc bd5c 25bc 2737 ca3b
00000060: d14b 003d aaa4 57bc ab86 fc3c 8101 a9bb
00000070: 0be1 263c 3362 75ba dbc6 653c ab71 30bc
00000080: f07c ecba 03ce bdbc 03d4 a3bb ccd1 28bc
00000090: 9f3e 7c3c c9f1 0a3d 13b1 81bc cd31 53bb
000000a0: 806c 0bba 5f01 66bc b654 0dbd 5e9b 0e3d
000000b0: ab72 56bc e025 d0bb 1b68 293c 546e 193b
000000c0: 1d72 a73c 01cb 09bd bcee 2e3c 4d7a c73b
000000d0: 2429 bb3b 1a80 f83b 9f06 983c a7d6 d9bc
000000e0: a46b ae3a e9f9 a6bb 36a0 aabc 94e7 943b
000000f0: 88df 5fbc b369 8a3c c006 e73b 62be ffbb
00000100: a89d 80bc c648 833c 87cd bc3b 5d3f 5d39
00000110: 4f52 203c 77c3 d43c 7a61 843b 9788 783c
00000120: 4b80 973c 5b78 84bc 2b48 bebc 6f05 bfba
00000130: 1bac d53a 7091 21bc d747 763b 2020 00bc
00000140: 3eb0 4bbc 5833 a5bc 2307 0f3c 04aa 953c
00000150: 98ef 24bb cf86 ef3c 38c5 213c 50c8 8bbc
00000160: 7824 3e3d a833 5dbc 0fda 523b eaf3 5f3c
00000170: 2dcf f43a 1c3f 823a 4d63 55bc 5284 6cbc
00000180: 73b8 cf3c 8ceb 893c 2785 04bc 9bba e9bc
00000190: 57df babc 5f95 cf3c ba4c 19bc fd9e 6bbc
000001a0: 3af4 feba 476b 32bb e1ec 973b 2a40 fabb
000001b0: ba8c bd3c 6f10 1cbc 1b5f dc3b e180 953c
000001c0: eaa6 cd3c d58a d7bc e462 acbb e4e7 1bbd
000001d0: 1074 55bc dbf8 1b3b 6c0c a53c 8f4c 5f3c
000001e0: 2dd7 483c 7641 9abc 076b 203c d8d8 dfbc
000001f0: 576a 01bc 5e96 ae3c 40f3 1ebd d0fc c13c
00000200: a315 9dbb 9f46 7a3b 28ac 89bc b485 acbc
00000210: e35f 88bc 6f5a 83bb b3be 9e3c 5d03 d33b
00000220: 7b2d 013d b1bf 4c3b 48e4 07bd 3c33 943a
00000230: 0e4d 993c a311 05bc b0ef f33b 6bab 553c
00000240: ab0c c03c 3992 aa3b f716 163d cf95 3dbc
00000250: 49f7 10bd 3a1e 3a3c 357b c83b 7b82 983c
00000260: 948c 493b 89f4 833c 02b8 e8bc 7d16 82bc
00000270: 1236 09bc fa34 0abc 3e95 14bc fad1 633c
00000280: e478 a3bb fc48 19bc ea84 6fbc 8508 6c3c
00000290: c42a 373d 77aa a8bc d74f 29ba b765 85bb
000002a0: aef7 343c 0320 96ba f73b bebc 5878 acbc
000002b0: 40fe 43bb b36f b93b f342 80bc 007c 9abc
000002c0: 3ab8 dfbc 69d4 423c 69ee 0fbc 0f64 883c
000002d0: f8c2 063c 3bd7 9cbb b751 16bc 0083 e53c
000002e0: 1bd6 ebbb 4bc5 e13c 7d11 66bb f4e1 9e3c
000002f0: 4d68 613c 25ff 083a a05a 493c 5d27 9bbb
00000300: 2a39 e8bc 3d62 42bd 44dc 943c 4a0e 73bc
00000310: 9839 073a 01da b83b 12c8 933c 515e 44bc
00000320: 6cb2 ccbc 1c48 8ebc db8f 823c a21f d5bc
00000330: 5da8 9fbc 8fd6 96bc 6a73 ca3b 2231 e2bb
00000340: 2f82 9cbb 3383 c9ba 530d f7bc 43a6 a93c
00000350: 7554 713b 58d1 4dba e2f8 d53c 2f2d e4bb
00000360: 33cc 12bc 2a85 d1bb 637f 1bb9 8583 9e3c
00000370: 9b7d ccbb 4d09 ffbc e6db 333c 6a2e d13c
00000380: 787c b9bc 8821 efbb 0a6f 4b3c 01d7 82bb
00000390: 656b dc3b ae38 453b 704a 51bc efae c7bb
000003a0: 3bbf b53c af70 a73c 1395 69bb b387 08bc
000003b0: 2865 e63b e0a9 043c 3fe6 fbbc 90df e3ba
000003c0: 5140 bf3c b3c7 b7bb 37c9 b4bb b18e c9bb
000003d0: 08ce a13c 4fe3 c23a 1b5f dab8 0518 493c
000003e0: a7a2 06bc 586b 3aba 4510 603c c3f4 2c3b
000003f0: cdef 183a b0fa 8f3c eb9b 313c 8b00 4cbc
-0.0067771324 0.0141262235 -0.014443803 -0.021645557 -0.0009414672 0.0056861495 -0.015311516 0.007151098
0.0056189373 -0.016883818 -0.0037784965 -0.017779645 0.03935786 -0.03494085 0.033297695 -0.0030946732
-0.018381042 -0.02163989 0.029179735 0.035224404 0.0038812214 -0.010350722 -0.010092911 0.0061711255
0.031322304 -0.013161818 0.030825933 -0.00515765 0.01018549 -0.0009360641 0.014024462 -0.010769288
-0.0018042605 -0.023169523 -0.004999639 -0.010303926 0.015395789 0.03392199 -0.015831506 -0.0032225729
-0.0005318597 -0.014038413 -0.034504615 0.03481614 -0.013088862 -0.0063521713 0.010339762 0.0023411708
0.020440156 -0.033640865 0.010677036 0.0060875774 0.0057116915 0.0075836303 0.018557845 -0.026591612
0.0013307226 -0.0050957096 -0.020828348 0.004544208 -0.013664134 0.016896104 0.007050365 -0.007804678
-0.015700176 0.016025912 0.0057618055 0.00021099807 0.009785249 0.025972111 0.0040399404 0.015169284
0.018493792 -0.016170671 -0.023227772 -0.0014573763 0.0016301902 -0.009861335 0.003757944 -0.007820159
-0.012432156 -0.020166084 0.008729729 0.018269546 -0.0025167223 0.029239086 0.009873681 -0.01706329
0.046421498 -0.013501085 0.003217343 0.0136689935 0.0018677466 0.0009937021 -0.013024163 -0.0144358445
0.025356507 0.01683595 -0.008088387 -0.028531363 -0.022811575 0.02533978 -0.009356672 -0.0143811675
-0.0019451447 -0.0027224587 0.0046363925 -0.0076370435 0.023138393 -0.009525402 0.0067252046 0.01824993
0.025104005 -0.026311317 -0.005260812 -0.038062945 -0.01302816 0.0023799452 0.020147525 0.013629093
0.012258333 -0.018830042 0.009791142 -0.027325079 -0.007898889 0.021311935 -0.0388062 0.02368012
-0.004793839 0.0038189066 -0.016805723 -0.021059848 -0.016647285 -0.0040085833 0.019378042 0.00643961
0.031537514 0.0031242187 -0.03317669 0.0011306773 0.0187135 -0.008121881 0.0074443445 0.0130413575
0.02344354 0.0052054194 0.036642995 -0.011571362 -0.03539208 0.011359746 0.006118203 0.018616905
0.0030753957 0.016107814 -0.028408054 -0.015879864 -0.008374708 -0.008435482 -0.009068785 0.013905043
-0.0049887765 -0.00935578 -0.0146190915 0.014406328 0.04471852 -0.020589096 -0.00064587354 -0.0040709632
0.01104538 -0.0011453632 -0.023221953 -0.021053478 -0.0029906183 0.0056590675 -0.015656924 -0.018857956
-0.027309526 0.011891463 -0.008784869 0.016649274 0.008225195 -0.0047863997 -0.009174756 0.028016567
-0.007197154 0.027559897 -0.0035105639 0.019394852 0.013757777 0.0005226008 0.012289673 -0.004734917
-0.02834757 -0.04745697 0.018171437 -0.01483495 0.00051584234 0.0056412225 0.018039737 -0.011985377
-0.024987422 -0.017368369 0.015937736 -0.02601606 -0.019489462 -0.018412856 0.006178309 -0.0069028297
-0.0047762613 -0.0015374183 -0.03015772 0.020709163 0.0036824022 -0.0007851324 0.026119653 -0.006963394
-0.008959818 -0.006394048 -0.00014829407 0.019349823 -0.0062405593 -0.031132365 0.010977721 0.025534827
-0.02264236 -0.0072976984 0.0124166105 -0.0039929156 0.0067266696 0.0030093598 -0.012774095 -0.0060938518
0.022185912 0.020439474 -0.0035641834 -0.008333134 0.0070311017 0.008097142 -0.030749438 -0.0017385352
0.023346098 -0.005608523 -0.0055171507 -0.0061510433 0.019751564 0.0014868769 -0.00010412765 0.012273793
-0.00821749 -0.00071113324 0.013675754 0.0026391007 0.0005834073 0.017575592 0.010840396 -0.012451301

action_model._continuous_distribution.mu.bias f4 [1000]
00000000: 0000 0000 0000 0000 0000 0000 0000 0000
00000010: 0000 0000 0000 0000 0000 0000 0000 0000
00000020: 0000 0000 0000 0000 0000 0000 0000 0000
00000030: 0000 0000 0000 0000 0000 0000 0000 0000
00000040: 0000 0000 0000 0000 0000 0000 0000 0000
00000050: 0000 0000 0000 0000 0000 0000 0000 0000
00000060: 0000 0000 0000 0000 0000 0000 0000 0000
00000070: 0000 0000 0000 0000 0000 0000 0000 0000
00000080: 0000 0000 0000 0000 0000 0000 0000 0000
00000090: 0000 0000 0000 0000 0000 0000 0000 0000
000000a0: 0000 0000 0000 0000 0000 0000 0000 0000
000000b0: 0000 0000 0000 0000 0000 0000 0000 0000
000000c0: 0000 0000 0000 0000 0000 0000 0000 0000
000000d0: 0000 0000 0000 0000 0000 0000 0000 0000
000000e0: 0000 0000 0000 0000 0000 0000 0000 0000
000000f0: 0000 0000 0000 0000 0000 0000 0000 0000
00000100: 0000 0000 0000 0000 0000 0000 0000 0000
00000110: 0000 0000 0000 0000 0000 0000 0000 0000
00000120: 0000 0000 0000 0000 0000 0000 0000 0000
00000130: 0000 0000 0000 0000 0000 0000 0000 0000
00000140: 0000 0000 0000 0000 0000 0000 0000 0000
00000150: 0000 0000 0000 0000 0000 0000 0000 0000
00000160: 0000 0000 0000 0000 0000 0000 0000 0000
00000170: 0000 0000 0000 0000 0000 0000 0000 0000
00000180: 0000 0000 0000 0000 0000 0000 0000 0000
00000190: 0000 0000 0000 0000 0000 0000 0000 0000
000001a0: 0000 0000 0000 0000 0000 0000 0000 0000
000001b0: 0000 0000 0000 0000 0000 0000 0000 0000
000001c0: 0000 0000 0000 0000 0000 0000 0000 0000
000001d0: 0000 0000 0000 0000 0000 0000 0000 0000
000001e0: 0000 0000 0000 0000 0000 0000 0000 0000
000001f0: 0000 0000 0000 0000 0000 0000 0000 0000
00000200: 0000 0000 0000 0000 0000 0000 0000 0000
00000210: 0000 0000 0000 0000 0000 0000 0000 0000
00000220: 0000 0000 0000 0000 0000 0000 0000 0000
00000230: 0000 0000 0000 0000 0000 0000 0000 0000
00000240: 0000 0000 0000 0000 0000 0000 0000 0000
00000250: 0000 0000 0000 0000 0000 0000 0000 0000
00000260: 0000 0000 0000 0000 0000 0000 0000 0000
00000270: 0000 0000 0000 0000 0000 0000 0000 0000
00000280: 0000 0000 0000 0000 0000 0000 0000 0000
00000290: 0000 0000 0000 0000 0000 0000 0000 0000
000002a0: 0000 0000 0000 0000 0000 0000 0000 0000
000002b0: 0000 0000 0000 0000 0000 0000 0000 0000
000002c0: 0000 0000 0000 0000 0000 0000 0000 0000
000002d0: 0000 0000 0000 0000 0000 0000 0000 0000
000002e0: 0000 0000 0000 0000 0000 0000 0000 0000
000002f0: 0000 0000 0000 0000 0000 0000 0000 0000
00000300: 0000 0000 0000 0000 0000 0000 0000 0000
00000310: 0000 0000 0000 0000 0000 0000 0000 0000
00000320: 0000 0000 0000 0000 0000 0000 0000 0000
00000330: 0000 0000 0000 0000 0000 0000 0000 0000
00000340: 0000 0000 0000 0000 0000 0000 0000 0000
00000350: 0000 0000 0000 0000 0000 0000 0000 0000
00000360: 0000 0000 0000 0000 0000 0000 0000 0000
00000370: 0000 0000 0000 0000 0000 0000 0000 0000
00000380: 0000 0000 0000 0000 0000 0000 0000 0000
00000390: 0000 0000 0000 0000 0000 0000 0000 0000
000003a0: 0000 0000 0000 0000 0000 0000 0000 0000
000003b0: 0000 0000 0000 0000 0000 0000 0000 0000
000003c0: 0000 0000 0000 0000 0000 0000 0000 0000
000003d0: 0000 0000 0000 0000 0000 0000 0000 0000
000003e0: 0000 0000 0000 0000 0000 0000 0000 0000
000003f0: 0000 0000 0000 0000 0000 0000 0000 0000
0.0 0.0 0.0 0.0 0.0 0.0 0.0 0.0
0.0 0.0 0.0 0.0 0.0 0.0 0.0 0.0
0.0 0.0 0.0 0.0 0.0 0.0 0.0 0.0
0.0 0.0 0.0 0.0 0.0 0.0 0.0 0.0
0.0 0.0 0.0 0.0 0.0 0.0 0.0 0.0
0.0 0.0 0.0 0.0 0.0 0.0 0.0 0.0
0.0 0.0 0.0 0.0 0.0 0.0 0.0 0.0
0.0 0.0 0.0 0.0 0.0 0.0 0.0 0.0
0.0 0.0 0.0 0.0 0.0 0.0 0.0 0.0
0.0 0.0 0.0 0.0 0.0 0.0 0.0 0.0
0.0 0.0 0.0 0.0 0.0 0.0 0.0 0.0
0.0 0.0 0.0 0.0 0.0 0.0 0.0 0.0
0.0 0.0 0.0 0.0 0.0 0.0 0.0 0.0
0.0 0.0 0.0 0.0 0.0 0.0 0.0 0.0
0.0 0.0 0.0 0.0 0.0 0.0 0.0 0.0
0.0 0.0 0.0 0.0 0.0 0.0 0.0 0.0
0.0 0.0 0.0 0.0 0.0 0.0 0.0 0.0
0.0 0.0 0.0 0.0 0.0 0.0 0.0 0.0
0.0 0.0 0.0 0.0 0.0 0.0 0.0 0.0
0.0 0.0 0.0 0.0 0.0 0.0 0.0 0.0
0.0 0.0 0.0 0.0 0.0 0.0 0.0 0.0
0.0 0.0 0.0 0.0 0.0 0.0 0.0 0.0
0.0 0.0 0.0 0.0 0.0 0.0 0.0 0.0
0.0 0.0 0.0 0.0 0.0 0.0 0.0 0.0
0.0 0.0 0.0 0.0 0.0 0.0 0.0 0.0
0.0 0.0 0.0 0.0 0.0 0.0 0.0 0.0
0.0 0.0 0.0 0.0 0.0 0.0 0.0 0.0
0.0 0.0 0.0 0.0 0.0 0.0 0.0 0.0
0.0 0.0 0.0 0.0 0.0 0.0 0.0 0.0
0.0 0.0 0.0 0.0 0.0 0.0 0.0 0.0
0.0 0.0 0.0 0.0 0.0 0.0 0.0 0.0
0.0 0.0 0.0 0.0 0.0 0.0 0.0 0.0

action_model._discrete_distribution.branches.0.weight f4 [2, 128]
00000000: 8be0 a43a 998c 213c 337e cbbb 2f8a c1bb
00000010: c010 afbb 0a67 4b3b 81db 1a3c 650d 543c
00000020: 43a5 f8ba 6bd9 1e3c b652 39bb 7332 83bc
00000030: 96ba bd3b 68a3 4a3b 9b32 bb3b b02e 8dbb
00000040: 9542 803c 8bb4 a63b 270e 5e3c 60be 30bc
00000050: 66f9 3dbc 83a8 013c 69ab c6bb 8a73 fb3b
00000060: e5da 66bb 4210 a13c 471d 9cba ea17 d1ba
00000070: 1752 2f3a daf3 4bbc 7faf 39bc 7008 23b9
00000080: 5be8 8bbc f705 15bc 7bbd 333c 3a02 6f3c
00000090: 0820 533b b3bd 533b 78af 9fba 594f 04bb
000000a0: d04c 653b 6fda ac3b 432d 523b 84d2 3e3c
000000b0: a323 64bc 57db 9b3b 2ae1 6dbc 3356 3b3b
000000c0: 00f4 803c 3739 7339 bfdf 52bc 701a 83bb
000000d0: 00f5 6cbc 079d 583c 4b4b 953c 8271 283c
000000e0: fd6b 563c c05d 663c 15e5 cd3a 17fa f93a
000000f0: cdfd e63b 3c12 2fbb 1921 00bc b062 1b3b
00000100: b585 4f3c 17c1 2dba d7b1 823b 0b34 6c3b
00000110: daa0 f5ba 5777 463c 371f 0dbb 3daa 653b
00000120: 8ffe 7fbc 6e7d 22bc a3e9 9f3c b722 c3ba
00000130: e29f d1ba 1afa f53a 437f 5bbc a6a6 293c
00000140: 0835 b83b bbf5 d63b 05fa acbc beb9 273b
00000150: c70f 30b8 7dbb e9bb 7988 0a3b a989 2abc
00000160: e3e7 09bc 6bdd c6bb 6016 f43b 8a1e 6aba
00000170: ccb1 173a 7231 633b ff8d 61bb 12fb a3bc
00000180: 8592 773b f3e5 683b de32 48bb aa19 fbba
00000190: a498 093b 024d 8bbb e39e 60ba a326 ea3a
000001a0: d5ec 7cbb 4d54 263b 3feb 17bc 63a7 b13b
000001b0: e3f9 163c 978e 31bc 5f38 ab3b 3812 f5ba
000001c0: fdfa d6bb 580a 63bc 4b44 80bc 9f53 bdbb
000001d0: f58a 70bc eebb 1c3c ddf2 413c 0526 b03b
000001e0: b07e 23bc a669 10bc f59c 3ebc 23e6 88bc
000001f0: 733b f9bb edca 2c3b 6bb5 223b 55c9 cdbb
00000200: d7ed 13bc 98c3 ebbb 00f1 14bc 7961 463c
00000210: ed07 763c 5f2e fe3b 1f73 243b b3a6 bcba
00000220: 726f d4bb 0f20 8e3b 3ddc c83b aa07 8cbb
00000230: a2bc 4cbc 554f c1ba d504 143c c882 07bb
00000240: f4b5 373c 9ec9 c8bb dbf3 bebb c053 0c3c
00000250: cbd0 09bb 4d71 6ebc 9860 cf3b a749 69bc
00000260: f810 523a a767 1fbc f9a8 bfbb 152c ddbb
00000270: 40b0 f9bb 66d6 a63c 2b1e 79b9 21c4 c6ba
00000280: 686f f1ba 5fe1 c6bb 7208 613c dfd6 a93b
00000290: f278 cfb8 69e5 23bc 83b6 803b 7742 053c
000002a0: e760 953c af68 02bc b2e3 c33b d2a1 7cbc
000002b0: d3d5 47bc 0021 1f3c 571e bfbb b404 933c
000002c0: 48e4 bfbb f79b b83b 93b9 2a3a 11ec a13b
000002d0: 7162 133c 63ac dbba 21f7 173c d2f8 da3b
000002e0: cbbe 993b 47c3 553b 47f6 c2b9 6fca 17bc
000002f0: dd52 db3a 7222 d03b 9064 9cbb 0780 363a
00000300: 638f 2239 d35b 90bb 0f9e 883c 41e8 b4bb
00000310: 886e a73b 894c 243c 4379 103b c6e4 adbb
00000320: a75c 023b 29bd 85bc 5c48 b4bb 1635 1abb
00000330: 3421 243c b7ec aabb 8b0a cdbb f09d 73bc
00000340: 6297 7bba 18eb f339 1805 5ebb 850b 50bb
00000350: 3713 2fbc 2075 923b 6a6f 21bb c5be bdbb
00000360: 7219 3f3a f9c5 9a3b 94ca 27bc a493 873a
00000370: 3c95 2abb bb53 d13b d1ab 82b8 6364 6cbc
00000380: 1ff5 ddba cb75 1a3c bb20 e33b 1489 90bb
00000390: e68a babb 8b80 e5bb 10e8 683c b225 e0bb
000003a0: 156a e33b 0f4d 7f3b 1b6d 2ebc c3fd 353a
000003b0: b0c7 cf3c e0f0 edbb a1b7 84bc ce28 2a3c
000003c0: 3fe2 413b 63fd 033c aa59 2cbb 89d3 0d3a
000003d0: 9b78 9bbb 180c 0d3c 1411 cc3b 3d51 fd3b
000003e0: 3325 1c3c b309 5dbb 182a 50ba ed08 1bbc
000003f0: 313c ccbc 66fc b4bb 5b3d 2abc 6c1f 9fbb
0.0012579126 0.009860181 -0.0062101125 -0.0059063653 -0.005342573 0.0031036758 0.009451748 0.012942647
-0.001897015 0.009695391 -0.002827806 -0.016015267 0.005790065 0.0030920152 0.0057128198 -0.004308544
0.015656749 0.0050874404 0.013553179 -0.010787576 -0.011595106 0.0079137115 -0.006062914 0.0076736854
-0.0035225686 0.019661073 -0.0011910581 -0.0015952562 0.00066879526 -0.012448275 -0.011333345 -0.00015548035
-0.01707857 -0.00909566 0.010970469 0.014587933 0.0032215137 0.0032309114 -0.0012183031 -0.0020188896
0.003498841 0.0052750628 0.0032070435 0.0116468705 -0.013924512 0.004756372 -0.014519015 0.0028585314
0.015741348 0.000231956 -0.012870728 -0.0040009543 -0.014462709 0.013221032 0.018224379 0.010280969
0.01308727 0.014060438 0.001570853 0.0019071725 0.0070492984 -0.002671375 -0.007820391 0.0023709945
0.012666156 -0.0006628199 0.0039884853 0.0036041762 -0.0018739954 0.012113414 -0.0021533498 0.0035044097
-0.015624656 -0.0099176 0.019520586 -0.0014887665 -0.0015993083 0.0018766553 -0.013397041 0.0103546735
0.005621556 0.006560055 -0.021115312 0.0025592889 -4.1976364e-05 -0.007132946 0.0021138473 -0.010408797
-0.0084171025 -0.0060688755 0.0074489564 -0.0008930942 0.00057866867 0.0034666923 -0.0034416912 -0.02001718
0.0037776541 0.003553745 -0.0030547897 -0.0019157429 0.0020995522 -0.0042511234 -0.0008568598 0.0017864298
-0.0038593311 0.0025379837 -0.009272396 0.0054215654 0.009214851 -0.010837219 0.005225226 -0.0018697446
-0.006560682 -0.013857447 -0.015657565 -0.0057777907 -0.014681567 0.00956629 0.011837688 0.005375626
-0.009978935 -0.008814251 -0.011634101 -0.0167113 -0.007605964 0.002636607 0.0024827372 -0.006280104
-0.009028873 -0.0071949475 -0.009090662 0.0121082 0.015016538 0.0077569927 0.0025093032 -0.0014392942
-0.006483012 0.004337318 0.00612977 -0.0042733746 -0.012496145 -0.0014748374 0.009034355 -0.0020677317
0.011212815 -0.0061275503 -0.0058274097 0.008564889 -0.0021028991 -0.01455338 0.0063286535 -0.0142387515
0.0008013393 -0.0097293025 -0.0058490005 -0.0067496398 -0.0076198876 0.020365905 -0.00023757729 -0.0015164652
-0.0018420042 -0.006069347 0.013734924 0.0051830853 -9.893057e-05 -0.010003426 0.003928007 0.008133522
0.018234683 -0.007959529 0.005978071 -0.01541944 -0.012196976 0.009712458 -0.005832474 0.017946579
-0.0058560707 0.005633827 0.0006512638 0.0049414714 0.008995638 -0.0016759749 0.009275229 0.0066824937
0.0046919337 0.0032617615 -0.00037186054 -0.0092645725 0.0016733069 0.0063517625 -0.00477273 0.00069618266
0.0001550294 -0.0044054775 0.01667693 -0.005520851 0.005109612 0.010028013 0.0022044934 -0.005306813
0.001989165 -0.01632555 -0.00550179 -0.0023530177 0.010017682 -0.005216207 -0.0062573603 -0.014869198
-0.0009597448 0.0004652373 -0.0033877548 -0.0031745147 -0.0106857335 0.004469529 -0.0024633058 -0.0057905638
0.00072898634 0.004723307 -0.0102411695 0.0010343683 -0.0026028892 0.0063881553 -6.230886e-05 -0.014428231
-0.0016934014 0.009427498 0.006931392 -0.0044108722 -0.0056928275 -0.007003849 0.014215484 -0.006840431
0.006940136 0.0038955843 -0.01064613 0.00069424155 0.025363773 -0.0072613806 -0.016200842 0.010385705
0.0029584316 0.008056018 -0.002629856 0.00054102443 -0.004744602 0.00860884 0.006227622 0.0077306316
0.009530353 -0.0033727705 -0.0007940843 -0.009462577 -0.024931045 -0.0055232523 -0.010390605 -0.0048560407

action_model._discrete_distribution.branches.0.bias f4 [2]
00000000: 0000 0000 0000 0000
0.0 0.0

action_model._discrete_distribution.branches.1.weight f4 [2, 128]
00000000: 527f 3abc 9a3b 5cbc 4b54 2c3c b38c b03a
00000010: 637e 8a3c 7be8 203c e0ae 4ebb 151a 653b
00000020: 3516 d8ba dfad 85bb 2281 bf3b a333 0abc
00000030: c6c9 b53c 6403 ae3b 65fc 90bb 6882 64bc
00000040: 4305 68bb 6b6d bebb 4d3f 6abc 0e4c 41bb
00000050: de8f 8eba 2741 7e3c c03b a0bb 5bc1 1abc
00000060: 7ac2 983c 2cf6 24bc fb0e 01bc 4bb3 35bc
00000070: e29c 49bc 0d8e 503c c302 bd3b 27e2 1c3c
00000080: f32a d7bb 410c acbb 4439 303c ff5f 43bc
00000090: fddc 0e3c 7dab 71bc c89a b0bb f313 1cbc
000000a0: 4f5f 70bc b8e1 72bb 20b7 da3b 61d2 153c
000000b0: 126c bebb d7df 9ebb ba51 0e3c 777b 383c
000000c0: 6582 55bc 5448 9fbb 3a1f 5cbb 4bb3 7abc
000000d0: de40 32ba ed26 27bc 830d 423b 0be6 fe3b
000000e0: 97d0 c6bb 4b0d 5b3b f0cf bc3b a78a 26bc
000000f0: 4a71 493c 6aaa e63b d732 c33b 51a2 b0bc
00000100: 6dcf e0ba 9fe0 8f3b 5654 37bc 95ca 09bc
00000110: 0001 e03a c0ab a73a 52b8 0dbc 241d bcba
00000120: 9b5f 4a3c 772e 8b39 817a bdba e3fa 8f3b
00000130: 9c68 8fbb d52c a4bc 48bd 49bc c501 273c
00000140: 3c64 113c 1c51 26bb e08f 08bc ef38 3b3b
00000150: 4f30 593c 1abf 35bc bfca 993c fb16 e03b
00000160: c2ad 93bb ef05 5bbb df7e f73b 0b01 d63b
00000170: e74c eabb c985 b6bc bfc2 a2bb 4083 b63b
00000180: d78b 2fbb 8b1c 94bb 3b88 41bb 18d4 1c38
00000190: ef8c 963b a770 32bb 9f08 99bc 949c a2ba
000001a0: 00b9 9bbb d2de 40bc 38e8 c03a 8e57 19bc
000001b0: 9d95 043c c591 8f3a 3726 dfba e016 6e3b
000001c0: 60e9 7e3c 7330 d8bb 9c58 ab39 37da debb
000001d0: e465 133c 1fb6 15bc 9ba5 02bb 3320 183b
000001e0: f33b 493c 0b1e 9ebc 53b7 afbb d5d4 64bc
000001f0: 8362 583b 774d 413b d6b7 2abc d3c7 803a
00000200: f763 0ebb 9bbd b2bb cf6f 673c 5075 813b
00000210: b560 3ebc 3826 f53b f28e 1bbc 1a45 06bc
00000220: 9d0a 713c b4db 06bc 4bd6 7e3c 9556 03bc
00000230: b4c2 be3b 39d8 46bb d6b2 a13b b9e9 0cbc
00000240: 8d0d 7bbc 720d 51bb d019 8c3b b33e b6ba
00000250: 886f 7dbb 04b0 3cbb 1340 013c c3e4 b4bb
00000260: 8428 c5bb 2a4b 5fbc a6f5 40bc b083 dd3b
00000270: fb2b 1b3c a2f7 25bc 3f9c 463b 25fc 4bbb
00000280: ebdf 10bb cc13 97bb b58e 62bc 1be8 2e3b
00000290: 8fd1 0fbc c578 ea3b 01ed 0dbc e21f ba3b
000002a0: dfe7 0fbc ca4b a53b d7da ef3b a333 d5bc
000002b0: 2d7e 1f3b cf10 cbbb 13fa 093c 0f5e b83b
000002c0: bacd 393c 275e bcbb 3f3e 6b3c 6d54 ffbb
000002d0: 452e 4cbb 7073 37bb 2d2e 6dbb 3fbe de3a
000002e0: 4fa1 75b9 5b31 a33c 987c 9e3b 0714 7ebc
000002f0: 5d80 52bc 625b a83a 0fb5 13bb 5091 40bc
00000300: 1d50 8a39 8ea5 133c 1f1e cabb f854 3e3c
00000310: 13db 96bb 8b1f cdbb 28c5 11bc e7d1 973c
00000320: 924e ab3a 7d12 51bc 975f 1b3c ca09 d63b
00000330: cbc4 4b3b 6f3e dabb 7833 04bc 9262 323b
00000340: 876e 11bc c82e 823c 1ae0 aabb f7d4 13bc
00000350: f91f a63c a222 22bc 47f7 0ebc 0274 84ba
00000360: 2ad0 d739 7836 f63b f1d5 983c 9b94 74bc
00000370: c812 d93b 1a54 11bc cf0e dd3a 63a2 093b
00000380: b565 733b 3b03 513c e506 21bb 3a0d 233b
00000390: 986f 65bb 7767 dcbb 725b 31bc 6ed5 82bc
000003a0: faf9 e7bb e1a5 24bc cd20 673c 31fe 263b
000003b0: a2a4 ec3b 5b49 8b3a d895 303b 0702 3abc
000003c0: 0f53 983a 898a 40bb ab6c 24bc 42fe 383c
000003d0: 205e 183c 02af b8bb d4c3 153c cb9c 04bc
000003e0: 1aa9 dcbb cb6d 26bc 205c ef3a bf5e 253c
000003f0: 5ffb eaba f9c3 8cb9 68e6 36bc 2c72 15bc
-0.011382895 -0.0134419445 0.010518144 0.0013469666 0.016905969 0.009821053 -0.003153734 0.0034958173
-0.001648611 -0.004079565 0.0058442513 -0.008435163 0.02219094 0.005310463 -0.004424619 -0.013947107
-0.0035403527 -0.0058113835 -0.014297319 -0.0029494795 -0.0010876616 0.015518463 -0.0048899353 -0.009445514
0.018647421 -0.010068458 -0.007877107 -0.01109011 -0.01230547 0.01272918 0.0057681515 0.009575403
-0.0065663992 -0.005250484 0.010755841 -0.011924743 0.00871968 -0.014750359 -0.005389545 -0.009526241
-0.014671161 -0.0037060808 0.006674662 0.0091443965 -0.005811223 -0.004848461 0.008686477 0.011259905
-0.013031577 -0.004860917 -0.0033587948 -0.015301536 -0.0006799827 -0.010202152 0.0029610104 0.007778888
-0.0060673463 0.0033424671 0.005762093 -0.010164893 0.012295077 0.007039358 0.0059569883 -0.021561773
-0.0017151661 0.0043907906 -0.011189541 -0.008410116 0.0017090142 0.0012792274 -0.008649902 -0.0014351946
0.012351896 0.00026546765 -0.0014456065 0.0043939217 -0.004376484 -0.020040909 -0.012313195 0.010193293
0.008873995 -0.0025377935 -0.008335084 0.002856787 0.013256147 -0.011092925 0.018773435 0.006838677
-0.0045067975 -0.0033420285 0.007552966 0.006530886 -0.0071502808 -0.02228059 -0.004967063 0.0055698454
-0.0026786232 -0.004520004 -0.0029530663 3.7390826e-05 0.0045944373 -0.002722779 -0.018680869 -0.0012406283
-0.0047522783 -0.0117718745 0.0014717644 -0.009359254 0.008092311 0.0010953477 -0.0017024939 0.0036329553
0.015558571 -0.0065975725 0.0003268168 -0.0068009156 0.008996461 -0.009137659 -0.0019935134 0.0023212552
0.012282359 -0.019301435 -0.00536243 -0.013966759 0.0033017702 0.0029495636 -0.010419806 0.0009825177
-0.0021727064 -0.0054547316 0.014125778 0.0039507523 -0.011619736 0.0074813627 -0.00949453 -0.008195186
0.014712003 -0.008231092 0.015554021 -0.008016248 0.0058215503 -0.003034128 0.004934649 -0.008600646
-0.015323055 -0.0031898883 0.004275538 -0.0013904184 -0.0038671214 -0.0028791437 0.007888812 -0.0055204346
-0.0060167927 -0.01362876 -0.011777317 0.006760083 0.009470935 -0.010129841 0.0030305532 -0.0031125632
-0.0022106122 -0.0046105143 -0.013827969 0.0026688639 -0.00877799 0.00715551 -0.008662463 0.0056800703
-0.00878331 0.005044435 0.007319789 -0.026025599 0.0024336681 -0.006197072 0.008421439 0.005626447
0.011340553 -0.0057485285 0.014358102 -0.0077920468 -0.0031155508 -0.002799239 -0.0036190853 0.0016993954
-0.00023425113 0.019920995 0.00483663 -0.015507705 -0.012847987 0.0012844617 -0.002253834 -0.011753395
0.000263811 0.009011639 -0.0061681415 0.011616938 -0.0046037524 -0.0062598637 -0.008897103 0.018532706
0.001306968 -0.012760756 0.00948324 0.0065319287 0.003109264 -0.0066602747 -0.008068912 0.0027219397
-0.008876449 0.015891448 -0.0052147033 -0.009022943 0.020278918 -0.009895952 -0.008725948 -0.0010105374
0.0004116309 0.0075138174 0.018656703 -0.014928008 0.0066245534 -0.008870149 0.0016865375 0.002100133
0.003713948 0.012757118 -0.002457076 0.002487971 -0.0035009142 -0.006726201 -0.010825025 -0.015970912
-0.00707936 -0.010049314 0.014106941 0.00254811 0.007221774 0.001062672 0.0026944783 -0.011353022
0.0011621433 -0.0029379448 -0.010035674 0.011291089 0.009299785 -0.005636097 0.009140927 -0.008094023
-0.0067340257 -0.010158013 0.0018261708 0.01009339 -0.0017927698 -0.00026848892 -0.011163332 -0.009121459

action_model._discrete_distribution.branches.1.bias f4 [2]
00000000: 0000 0000 0000 0000
0.0 0.0
