results/test6/MovetoGoal/MovetoGoal-0.onnx (onnx, 592803 bytes, 12 tensors)

action_model._continuous_distribution.log_sigma f4 [1, 1000]
000000 00 00 00 00 00 00 00 00 00 00 00 00 00 00 00 00
       0.0 0.0 0.0 0.0
000010 00 00 00 00 00 00 00 00 00 00 00 00 00 00 00 00
       0.0 0.0 0.0 0.0
000020 00 00 00 00 00 00 00 00 00 00 00 00 00 00 00 00
       0.0 0.0 0.0 0.0
000030 00 00 00 00 00 00 00 00 00 00 00 00 00 00 00 00
       0.0 0.0 0.0 0.0
000040 00 00 00 00 00 00 00 00 00 00 00 00 00 00 00 00
       0.0 0.0 0.0 0.0
000050 00 00 00 00 00 00 00 00 00 00 00 00 00 00 00 00
       0.0 0.0 0.0 0.0
000060 00 00 00 00 00 00 00 00 00 00 00 00 00 00 00 00
       0.0 0.0 0.0 0.0
000070 00 00 00 00 00 00 00 00 00 00 00 00 00 00 00 00
       0.0 0.0 0.0 0.0
000080 00 00 00 00 00 00 00 00 00 00 00 00 00 00 00 00
       0.0 0.0 0.0 0.0
000090 00 00 00 00 00 00 00 00 00 00 00 00 00 00 00 00
       0.0 0.0 0.0 0.0
0000a0 00 00 00 00 00 00 00 00 00 00 00 00 00 00 00 00
       0.0 0.0 0.0 0.0
0000b0 00 00 00 00 00 00 00 00 00 00 00 00 00 00 00 00
       0.0 0.0 0.0 0.0
0000c0 00 00 00 00 00 00 00 00 00 00 00 00 00 00 00 00
       0.0 0.0 0.0 0.0
0000d0 00 00 00 00 00 00 00 00 00 00 00 00 00 00 00 00
       0.0 0.0 0.0 0.0
0000e0 00 00 00 00 00 00 00 00 00 00 00 00 00 00 00 00
       0.0 0.0 0.0 0.0
0000f0 00 00 00 00 00 00 00 00 00 00 00 00 00 00 00 00
       0.0 0.0 0.0 0.0
000100 00 00 00 00 00 00 00 00 00 00 00 00 00 00 00 00
       0.0 0.0 0.0 0.0
000110 00 00 00 00 00 00 00 00 00 00 00 00 00 00 00 00
       0.0 0.0 0.0 0.0
000120 00 00 00 00 00 00 00 00 00 00 00 00 00 00 00 00
       0.0 0.0 0.0 0.0
000130 00 00 00 00 00 00 00 00 00 00 00 00 00 00 00 00
       0.0 0.0 0.0 0.0
000140 00 00 00 00 00 00 00 00 00 00 00 00 00 00 00 00
       0.0 0.0 0.0 0.0
000150 00 00 00 00 00 00 00 00 00 00 00 00 00 00 00 00
       0.0 0.0 0.0 0.0
000160 00 00 00 00 00 00 00 00 00 00 00 00 00 00 00 00
       0.0 0.0 0.0 0.0
000170 00 00 00 00 00 00 00 00 00 00 00 00 00 00 00 00
       0.0 0.0 0.0 0.0
000180 00 00 00 00 00 00 00 00 00 00 00 00 00 00 00 00
       0.0 0.0 0.0 0.0
000190 00 00 00 00 00 00 00 00 00 00 00 00 00 00 00 00
       0.0 0.0 0.0 0.0
0001a0 00 00 00 00 00 00 00 00 00 00 00 00 00 00 00 00
       0.0 0.0 0.0 0.0
0001b0 00 00 00 00 00 00 00 00 00 00 00 00 00 00 00 00
       0.0 0.0 0.0 0.0
0001c0 00 00 00 00 00 00 00 00 00 00 00 00 00 00 00 00
       0.0 0.0 0.0 0.0
0001d0 00 00 00 00 00 00 00 00 00 00 00 00 00 00 00 00
       0.0 0.0 0.0 0.0
0001e0 00 00 00 00 00 00 00 00 00 00 00 00 00 00 00 00
       0.0 0.0 0.0 0.0
0001f0 00 00 00 00 00 00 00 00 00 00 00 00 00 00 00 00
       0.0 0.0 0.0 0.0
000200 00 00 00 00 00 00 00 00 00 00 00 00 00 00 00 00
       0.0 0.0 0.0 0.0
000210 00 00 00 00 00 00 00 00 00 00 00 00 00 00 00 00
       0.0 0.0 0.0 0.0
000220 00 00 00 00 00 00 00 00 00 00 00 00 00 00 00 00
       0.0 0.0 0.0 0.0
000230 00 00 00 00 00 00 00 00 00 00 00 00 00 00 00 00
       0.0 0.0 0.0 0.0
000240 00 00 00 00 00 00 00 00 00 00 00 00 00 00 00 00
       0.0 0.0 0.0 0.0
000250 00 00 00 00 00 00 00 00 00 00 00 00 00 00 00 00
       0.0 0.0 0.0 0.0
000260 00 00 00 00 00 00 00 00 00 00 00 00 00 00 00 00
       0.0 0.0 0.0 0.0
000270 00 00 00 00 00 00 00 00 00 00 00 00 00 00 00 00
       0.0 0.0 0.0 0.0
000280 00 00 00 00 00 00 00 00 00 00 00 00 00 00 00 00
       0.0 0.0 0.0 0.0
000290 00 00 00 00 00 00 00 00 00 00 00 00 00 00 00 00
       0.0 0.0 0.0 0.0
0002a0 00 00 00 00 00 00 00 00 00 00 00 00 00 00 00 00
       0.0 0.0 0.0 0.0
0002b0 00 00 00 00 00 00 00 00 00 00 00 00 00 00 00 00
       0.0 0.0 0.0 0.0
0002c0 00 00 00 00 00 00 00 00 00 00 00 00 00 00 00 00
       0.0 0.0 0.0 0.0
0002d0 00 00 00 00 00 00 00 00 00 00 00 00 00 00 00 00
       0.0 0.0 0.0 0.0
0002e0 00 00 00 00 00 00 00 00 00 00 00 00 00 00 00 00
       0.0 0.0 0.0 0.0
0002f0 00 00 00 00 00 00 00 00 00 00 00 00 00 00 00 00
       0.0 0.0 0.0 0.0
000300 00 00 00 00 00 00 00 00 00 00 00 00 00 00 00 00
       0.0 0.0 0.0 0.0
000310 00 00 00 00 00 00 00 00 00 00 00 00 00 00 00 00
       0.0 0.0 0.0 0.0
000320 00 00 00 00 00 00 00 00 00 00 00 00 00 00 00 00
       0.0 0.0 0.0 0.0
000330 00 00 00 00 00 00 00 00 00 00 00 00 00 00 00 00
       0.0 0.0 0.0 0.0
000340 00 00 00 00 00 00 00 00 00 00 00 00 00 00 00 00
       0.0 0.0 0.0 0.0
000350 00 00 00 00 00 00 00 00 00 00 00 00 00 00 00 00
       0.0 0.0 0.0 0.0
000360 00 00 00 00 00 00 00 00 00 00 00 00 00 00 00 00
       0.0 0.0 0.0 0.0
000370 00 00 00 00 00 00 00 00 00 00 00 00 00 00 00 00
       0.0 0.0 0.0 0.0
000380 00 00 00 00 00 00 00 00 00 00 00 00 00 00 00 00
       0.0 0.0 0.0 0.0
000390 00 00 00 00 00 00 00 00 00 00 00 00 00 00 00 00
       0.0 0.0 0.0 0.0
0003a0 00 00 00 00 00 00 00 00 00 00 00 00 00 00 00 00
       0.0 0.0 0.0 0.0
0003b0 00 00 00 00 00 00 00 00 00 00 00 00 00 00 00 00
       0.0 0.0 0.0 0.0
0003c0 00 00 00 00 00 00 00 00 00 00 00 00 00 00 00 00
       0.0 0.0 0.0 0.0
0003d0 00 00 00 00 00 00 00 00 00 00 00 00 00 00 00 00
       0.0 0.0 0.0 0.0
0003e0 00 00 00 00 00 00 00 00 00 00 00 00 00 00 00 00
       0.0 0.0 0.0 0.0
0003f0 00 00 00 00 00 00 00 00 00 00 00 00 00 00 00 00
       0.0 0.0 0.0 0.0

action_model._continuous_distribution.mu.bias f4 [1000]
000000 00 00 00 00 00 00 00 00 00 00 00 00 00 00 00 00
       0.0 0.0 0.0 0.0
000010 00 00 00 00 00 00 00 00 00 00 00 00 00 00 00 00
       0.0 0.0 0.0 0.0
000020 00 00 00 00 00 00 00 00 00 00 00 00 00 00 00 00
       0.0 0.0 0.0 0.0
000030 00 00 00 00 00 00 00 00 00 00 00 00 00 00 00 00
       0.0 0.0 0.0 0.0
000040 00 00 00 00 00 00 00 00 00 00 00 00 00 00 00 00
       0.0 0.0 0.0 0.0
000050 00 00 00 00 00 00 00 00 00 00 00 00 00 00 00 00
       0.0 0.0 0.0 0.0
000060 00 00 00 00 00 00 00 00 00 00 00 00 00 00 00 00
       0.0 0.0 0.0 0.0
000070 00 00 00 00 00 00 00 00 00 00 00 00 00 00 00 00
       0.0 0.0 0.0 0.0
000080 00 00 00 00 00 00 00 00 00 00 00 00 00 00 00 00
       0.0 0.0 0.0 0.0
000090 00 00 00 00 00 00 00 00 00 00 00 00 00 00 00 00
       0.0 0.0 0.0 0.0
0000a0 00 00 00 00 00 00 00 00 00 00 00 00 00 00 00 00
       0.0 0.0 0.0 0.0
0000b0 00 00 00 00 00 00 00 00 00 00 00 00 00 00 00 00
       0.0 0.0 0.0 0.0
0000c0 00 00 00 00 00 00 00 00 00 00 00 00 00 00 00 00
       0.0 0.0 0.0 0.0
0000d0 00 00 00 00 00 00 00 00 00 00 00 00 00 00 00 00
       0.0 0.0 0.0 0.0
0000e0 00 00 00 00 00 00 00 00 00 00 00 00 00 00 00 00
       0.0 0.0 0.0 0.0
0000f0 00 00 00 00 00 00 00 00 00 00 00 00 00 00 00 00
       0.0 0.0 0.0 0.0
000100 00 00 00 00 00 00 00 00 00 00 00 00 00 00 00 00
       0.0 0.0 0.0 0.0
000110 00 00 00 00 00 00 00 00 00 00 00 00 00 00 00 00
       0.0 0.0 0.0 0.0
000120 00 00 00 00 00 00 00 00 00 00 00 00 00 00 00 00
       0.0 0.0 0.0 0.0
000130 00 00 00 00 00 00 00 00 00 00 00 00 00 00 00 00
       0.0 0.0 0.0 0.0
000140 00 00 00 00 00 00 00 00 00 00 00 00 00 00 00 00
       0.0 0.0 0.0 0.0
000150 00 00 00 00 00 00 00 00 00 00 00 00 00 00 00 00
       0.0 0.0 0.0 0.0
000160 00 00 00 00 00 00 00 00 00 00 00 00 00 00 00 00
       0.0 0.0 0.0 0.0
000170 00 00 00 00 00 00 00 00 00 00 00 00 00 00 00 00
       0.0 0.0 0.0 0.0
000180 00 00 00 00 00 00 00 00 00 00 00 00 00 00 00 00
       0.0 0.0 0.0 0.0
000190 00 00 00 00 00 00 00 00 00 00 00 00 00 00 00 00
       0.0 0.0 0.0 0.0
0001a0 00 00 00 00 00 00 00 00 00 00 00 00 00 00 00 00
       0.0 0.0 0.0 0.0
0001b0 00 00 00 00 00 00 00 00 00 00 00 00 00 00 00 00
       0.0 0.0 0.0 0.0
0001c0 00 00 00 00 00 00 00 00 00 00 00 00 00 00 00 00
       0.0 0.0 0.0 0.0
0001d0 00 00 00 00 00 00 00 00 00 00 00 00 00 00 00 00
       0.0 0.0 0.0 0.0
0001e0 00 00 00 00 00 00 00 00 00 00 00 00 00 00 00 00
       0.0 0.0 0.0 0.0
0001f0 00 00 00 00 00 00 00 00 00 00 00 00 00 00 00 00
       0.0 0.0 0.0 0.0
000200 00 00 00 00 00 00 00 00 00 00 00 00 00 00 00 00
       0.0 0.0 0.0 0.0
000210 00 00 00 00 00 00 00 00 00 00 00 00 00 00 00 00
       0.0 0.0 0.0 0.0
000220 00 00 00 00 00 00 00 00 00 00 00 00 00 00 00 00
       0.0 0.0 0.0 0.0
000230 00 00 00 00 00 00 00 00 00 00 00 00 00 00 00 00
       0.0 0.0 0.0 0.0
000240 00 00 00 00 00 00 00 00 00 00 00 00 00 00 00 00
       0.0 0.0 0.0 0.0
000250 00 00 00 00 00 00 00 00 00 00 00 00 00 00 00 00
       0.0 0.0 0.0 0.0
000260 00 00 00 00 00 00 00 00 00 00 00 00 00 00 00 00
       0.0 0.0 0.0 0.0
000270 00 00 00 00 00 00 00 00 00 00 00 00 00 00 00 00
       0.0 0.0 0.0 0.0
000280 00 00 00 00 00 00 00 00 00 00 00 00 00 00 00 00
       0.0 0.0 0.0 0.0
000290 00 00 00 00 00 00 00 00 00 00 00 00 00 00 00 00
       0.0 0.0 0.0 0.0
0002a0 00 00 00 00 00 00 00 00 00 00 00 00 00 00 00 00
       0.0 0.0 0.0 0.0
0002b0 00 00 00 00 00 00 00 00 00 00 00 00 00 00 00 00
       0.0 0.0 0.0 0.0
0002c0 00 00 00 00 00 00 00 00 00 00 00 00 00 00 00 00
       0.0 0.0 0.0 0.0
0002d0 00 00 00 00 00 00 00 00 00 00 00 00 00 00 00 00
       0.0 0.0 0.0 0.0
0002e0 00 00 00 00 00 00 00 00 00 00 00 00 00 00 00 00
       0.0 0.0 0.0 0.0
0002f0 00 00 00 00 00 00 00 00 00 00 00 00 00 00 00 00
       0.0 0.0 0.0 0.0
000300 00 00 00 00 00 00 00 00 00 00 00 00 00 00 00 00
       0.0 0.0 0.0 0.0
000310 00 00 00 00 00 00 00 00 00 00 00 00 00 00 00 00
       0.0 0.0 0.0 0.0
000320 00 00 00 00 00 00 00 00 00 00 00 00 00 00 00 00
       0.0 0.0 0.0 0.0
000330 00 00 00 00 00 00 00 00 00 00 00 00 00 00 00 00
       0.0 0.0 0.0 0.0
000340 00 00 00 00 00 00 00 00 00 00 00 00 00 00 00 00
       0.0 0.0 0.0 0.0
000350 00 00 00 00 00 00 00 00 00 00 00 00 00 00 00 00
       0.0 0.0 0.0 0.0
000360 00 00 00 00 00 00 00 00 00 00 00 00 00 00 00 00
       0.0 0.0 0.0 0.0
000370 00 00 00 00 00 00 00 00 00 00 00 00 00 00 00 00
       0.0 0.0 0.0 0.0
000380 00 00 00 00 00 00 00 00 00 00 00 00 00 00 00 00
       0.0 0.0 0.0 0.0
000390 00 00 00 00 00 00 00 00 00 00 00 00 00 00 00 00
       0.0 0.0 0.0 0.0
0003a0 00 00 00 00 00 00 00 00 00 00 00 00 00 00 00 00
       0.0 0.0 0.0 0.0
0003b0 00 00 00 00 00 00 00 00 00 00 00 00 00 00 00 00
       0.0 0.0 0.0 0.0
0003c0 00 00 00 00 00 00 00 00 00 00 00 00 00 00 00 00
       0.0 0.0 0.0 0.0
0003d0 00 00 00 00 00 00 00 00 00 00 00 00 00 00 00 00
       0.0 0.0 0.0 0.0
0003e0 00 00 00 00 00 00 00 00 00 00 00 00 00 00 00 00
       0.0 0.0 0.0 0.0
0003f0 00 00 00 00 00 00 00 00 00 00 00 00 00 00 00 00
       0.0 0.0 0.0 0.0

action_model._continuous_distribution.mu.weight f4 [1000, 128]
000000 b2 d2 bc 3b 6a 9d e0 bb 8f 1d b7 ba af 95 3a bc
       0.0057624215 -0.0068547027 -0.0013970601 -0.011388226
000010 c8 32 7d bb 39 73 ad 3c 43 4e bb bb 1c e3 0b bc
       -0.0038635004 0.021173107 -0.0057161166 -0.008538034
000020 6b b9 c9 bc 64 60 92 3c a5 6c 3a 3b e9 bc 8c bc
       -0.024624547 0.017868228 0.0028446105 -0.017179923
000030 43 e7 f8 bc 8e c5 15 3b 7f bb 56 3b e3 7a 17 bc
       -0.030383712 0.0022853347 0.0032765565 -0.009245607
000040 79 fe 0d 3c af 51 09 bd 02 aa c8 3b 04 6c be ba
       0.008666628 -0.033525165 0.006123782 -0.0014528041
000050 70 9c 27 bc 0a 5e e9 3b 5e 67 11 3d 1f ba 85 bc
       -0.010230169 0.007121806 0.03549897 -0.016324101
000060 41 73 16 bd ff 53 cf 3b 87 36 e9 bc 7f 30 84 3c
       -0.03673101 0.006327152 -0.028468383 0.016136406
000070 33 db 0a 3d 32 b1 63 3b c0 e6 4a 3c 1b 11 43 38
       0.03390045 0.0034743068 0.012384117 4.6507554e-05
000080 6b df 29 bd 9f 98 7f bc 45 72 68 bc ab fa 28 3c
       -0.041472834 -0.015600353 -0.0141874 0.01031367
000090 5e e0 af 3a 07 e8 f4 3c 69 78 c1 3a d5 4f 12 bc
       0.0013418307 0.029895796 0.0014760616 -0.008930166
0000a0 2d ce 6c bc 3b e5 6b 3a 94 87 99 3c 7f ab d8 3a
       -0.014453453 0.00089986966 0.018741407 0.0016530602
0000b0 1a 3f 86 3c 52 a1 f0 bc b7 1f d4 3b 46 f1 96 3b
       0.016387511 -0.029373799 0.0064735073 0.0046063988
0000c0 b7 9a a4 bc 32 3d d3 ba 2a f9 5e bc 4a 0d d3 bc
       -0.020093305 -0.001611626 -0.01360921 -0.025763173
0000d0 33 1f 33 3c d5 02 1c 3b b8 fa d6 3b 69 00 97 3c
       0.010932731 0.00238054 0.0065606497 0.018432813
0000e0 ea 37 12 3c bf 8c 1c bb d1 98 38 bb c2 37 04 3c
       0.008924464 -0.0023887602 -0.0028167258 0.008069934
0000f0 9f 22 64 bc 5f c6 3d 3a af ae ac 3a bf 56 93 3c
       -0.01392427 0.00072393374 0.0013174618 0.0179857
000100 12 66 2d 3c ed 58 ce 3b f0 47 18 3c c8 36 74 bc
       0.0105834175 0.006297222 0.009294495 -0.014905639
000110 5d a8 b5 bc 73 1a 9a bc 0c b2 97 bc 78 94 a8 bc
       -0.022175008 -0.01881144 -0.018517517 -0.020578608
000120 e5 7f 26 bc 68 61 85 bc e3 c3 70 bc 9f a6 bf b9
       -0.010162328 -0.016281798 -0.0146951405 -0.000365545
000130 ef bb d0 bb 37 ee 6a bb f7 b5 1f 3c 92 f6 39 bc
       -0.0063700597 -0.0035847554 0.009747974 -0.011350291
000140 1d 8d 70 bc 03 6f fa bb c3 ac ed bc fa 23 ec 3b
       -0.0146820815 -0.007642628 -0.029013043 0.007206437
000150 42 03 54 3c b6 4b 94 bb 96 88 b0 bb 8f 62 46 3c
       0.01294023 -0.004525627 -0.005387376 0.012108459
000160 a2 c2 fd 3b 91 dc 14 bb 90 26 52 3c 46 92 83 3b
       0.0077441493 -0.0022714476 0.012826577 0.00401524
000170 50 aa db 3c 43 e7 37 bc 87 61 1c bc 1c 25 cc 3a
       0.02681461 -0.011224571 -0.009544737 0.0015575024
000180 2c 30 b4 3c 87 99 9e bb 57 41 45 3c 2a 81 fc bb
       0.021995626 -0.004840079 0.012039504 -0.0077058272
000190 8c 88 2e bb bc 57 0a 3b 00 81 13 bc 7d 9a 0e 3b
       -0.0026631681 0.0021109423 -0.009002924 0.0021759563
0001a0 4b a6 87 bc f3 08 e7 bb 8b 4a 27 bd 86 29 89 bb
       -0.016558787 -0.0070506274 -0.040842574 -0.004185858
0001b0 ca 65 cc 3c b9 07 bd 3c af 33 3d 3c 77 a6 93 3c
       0.02495088 0.023074972 0.011547967 0.018023713
0001c0 2a cc a0 3c 84 8f 09 3d 3d fb cb 3b 2b 2c b3 3b
       0.019628603 0.033584133 0.0062250183 0.0054679117
0001d0 c7 3a cb ba e2 d4 1c bb a7 8d b2 3b 92 b1 19 3a
       -0.0015505188 -0.00239306 0.005449015 0.0005862947
0001e0 ba 58 eb 3c f0 68 b2 3b e7 cc 6a bc 02 1f a0 bc
       0.028728832 0.0054446384 -0.014331079 -0.019546036
0001f0 cb 9b ab 3b da 9a 58 3c bb fb 98 bc a9 e3 91 3c
       0.005237078 0.013220513 -0.018674722 0.017808752
000200 ed 1c 0b 3d 74 ff 0a bc 4b 62 d8 bb a3 e7 c5 bb
       0.033963133 -0.008483756 -0.0066035143 -0.006039576
000210 cb 81 77 3b 2d 0b 40 3c 38 14 ab bc ef 7a 4b bb
       0.0037766572 0.0117214145 -0.020883664 -0.0031048616
000220 df 0d e7 bc d2 fe cc 3c eb cf bb ba a5 16 00 3a
       -0.028204856 0.025023852 -0.0014328932 0.0004886187
000230 84 fd 03 bc 53 b9 9e 3a 6b b1 2d bd 9d 65 07 bc
       -0.008056048 0.0012109674 -0.042405527 -0.008263973
000240 35 c3 06 3d 5f 31 6a 3c 32 cc 62 3b be 9b a3 bb
       0.032901008 0.014293998 0.0034606573 -0.004992931
000250 c2 c1 ff bb 7f 9d ad bb 6b 90 18 3d e6 1b 41 3c
       -0.00780508 -0.005298316 0.037247103 0.011786437
000260 cf 43 a9 3c e1 60 c8 bc 61 31 16 3c 0f 57 98 3a
       0.020662216 -0.024460258 0.009167046 0.0011622625
000270 65 92 5e 3c d2 95 80 3c b8 ea c4 3b 10 0d 07 bc
       0.013584708 0.01569644 0.006009426 -0.00824286
000280 41 50 b4 3c 23 2d 8f 3a 58 6f 5e 3b 67 fb 74 3c
       0.022010924 0.0010923486 0.0033940878 0.014952517
000290 7b fb a0 bc 0c 02 81 bc 70 49 b0 b9 f1 48 b8 3c
       -0.019651165 -0.015748046 -0.0003362405 0.022495719
0002a0 b3 b1 9b bc 22 74 fd 3a ef 74 df 3b ff 65 d5 3c
       -0.019005632 0.0019336978 0.0068193595 0.026049612
0002b0 af cf b4 3b 26 2c 8c 3b 22 89 3c bb f0 6b f1 bb
       0.005517922 0.004277724 -0.002876826 -0.0073676035
0002c0 de 57 32 3c 65 42 cf 3c ea 7f 59 3b a3 81 0c bc
       0.010885207 0.025300214 0.0033187815 -0.00857583
0002d0 1b a3 8b 3c 6f be 4c 3c 0b 52 cb bc 05 b0 69 3c
       0.017045548 0.012496575 -0.024819395 0.014263158
0002e0 e2 0b 42 3c 94 cb 05 bd 9b 57 22 3c cd 68 a6 bc
       0.011843653 -0.03266485 0.009908582 -0.020313645
0002f0 8e 33 30 bb 9b ea cb 3c e1 46 9e 3c 2c 16 b1 bc
       -0.0026886198 0.024892142 0.019320907 -0.021617018
000300 2e 23 ab bc 8f 62 05 bd 1f 9d b8 3c fa db bc 3c
       -0.020890798 -0.032564696 0.022535859 0.023054112
000310 42 bd ab bc 15 0f 61 bc 86 d3 21 3c 47 43 f8 3c
       -0.020964269 -0.013736506 0.009877091 0.030305518
000320 9f 96 47 3b 5b 33 cf 3b 2f bf 08 3c d8 61 e7 3b
       0.0030454767 0.0063232607 0.008346363 0.0070612244
000330 df a0 02 3c 04 57 38 3a 37 60 06 bc 3b 1f e7 3c
       0.007972925 0.00070320093 -0.00820165 0.028213134
000340 1f f0 97 3c 9b 57 29 bc 49 89 1c 3b 4f 79 38 bc
       0.018547116 -0.010335828 0.002388554 -0.011259391
000350 a8 6a 59 bc 07 ff c2 bc fe f7 c4 bc 2f c9 c5 3c
       -0.013270058 -0.023803247 -0.024044033 0.024143783
000360 aa 81 b9 3c 23 d9 8c 3c 45 6b dd 3c 4f e6 12 bd
       0.022644836 0.017193383 0.02702869 -0.03586417
000370 c7 41 05 3b 20 4f fb 3c da 1f c0 bc 27 79 b4 3c
       0.0020333396 0.030677378 -0.023452688 0.022030426
000380 8a 37 91 bb ad bd 1d bc df dd 6b ba 8d 7a d9 3c
       -0.0044316696 -0.009627742 -0.00089976 0.026547695
000390 f4 19 c3 ba f5 ed b4 bc da 83 be ba 63 df 37 3c
       -0.0014885054 -0.022086123 -0.0014535144 0.011222693
0003a0 03 28 7e 3c be 9c 11 bc 6f 75 3f 3c 4b dc 30 3c
       0.015512469 -0.008887468 0.011685713 0.010794709
0003b0 25 1c cd 3c 0e 20 1b 39 33 0b 2c bc e3 6a 25 3c
       0.025037834 0.00014793893 -0.010500717 0.010096285
0003c0 f8 da 56 ba fa 9c 0e 3d a4 59 4c bc a3 2e 06 3c
       -0.0008196081 0.034817673 -0.012472544 0.00818983
0003d0 69 a0 1c bd 94 3e 15 3c 82 dd 6e bc 87 73 22 bc
       -0.038238917 0.009109158 -0.014579179 -0.009915239
0003e0 f3 dc 6a 3c 9d d5 b9 3c d2 c3 54 3a 7b 9c 7b ba
       0.014334905 0.022684867 0.00081163377 -0.00095982075
0003f0 50 2f 40 3c 85 2a cb 3b 88 1b 71 bc 17 9a e7 3c
       0.01173003 0.006200137 -0.014716037 0.028271718

action_model._discrete_distribution.branches.0.bias f4 [2]
000000 00 00 00 00 00 00 00 00
       0.0 0.0

action_model._discrete_distribution.branches.0.weight f4 [2, 128]
000000 ad ec 17 bc b7 60 4f 3c a7 4b dc bb 99 a5 22 bc
       -0.0092727365 0.012657336 -0.0067228856 -0.009927177
000010 5b ae e6 3b 5f ee b5 bc 9a 58 2c 3c 15 0a 56 3c
       0.0070398278 -0.02220839 0.010519171 0.013063927
000020 6a c6 69 3b b2 42 00 3a d2 fe a9 bb 77 e7 19 3c
       0.0035671243 0.0004892751 -0.0051878477 0.009393564
000030 8f 16 58 3a a4 08 22 3b 43 2d a0 3b 84 3b 07 bc
       0.00082431076 0.0024724388 0.004888208 -0.008253936
000040 cc ab 1e bb fb 29 97 bc cb 89 d5 bb 27 75 53 bb
       -0.0024211286 -0.018452635 -0.0065166703 -0.0032265873
000050 dd 75 34 3c 34 fb 37 bc f5 b7 b2 bb 94 cc b7 3b
       0.011014429 -0.011229325 -0.0054540583 0.0056091044
000060 37 c0 4b bc 8e 73 8d bb e5 83 65 3c 9b 8d d7 ba
       -0.012435964 -0.0043167537 0.014008497 -0.00164454
000070 46 1f a4 bb 63 0b 84 bc dd 75 dd ba 1f 7d a7 bb
       -0.005008611 -0.01611871 -0.0016896088 -0.005111351
000080 6f 2b 9d bb 9f b7 04 bc 15 4a 63 3c 84 5f ab bb
       -0.0047964375 -0.008100419 0.013872643 -0.005229892
000090 e3 35 4d 3c df 2c d0 3b ef 0a 6c bb 13 1d 4b 3b
       0.012525055 0.0063530053 -0.003601726 0.0030992671
0000a0 52 01 72 3b b2 e0 b9 3b 93 a8 04 3b f0 e8 c6 b9
       0.0036927056 0.0056725377 0.002024208 -0.00037939055
0000b0 ee bc 1b 3b 87 e7 c7 bb 8f 5b 65 bc 0a fb 58 3b
       0.0023763734 -0.0061005983 -0.01399888 0.0033108615
0000c0 6b 65 0a 3c 7f a6 1b bc bb 4f 93 3b 02 d9 fc bb
       0.0084470315 -0.009500145 0.0044955886 -0.007716299
0000d0 5a 60 91 3b 83 d9 37 bb f0 45 33 3c cf dc ad 3a
       0.004436535 -0.002805323 0.010941967 0.0013264659
0000e0 df 35 b8 3b 9b 62 88 bb a2 46 48 ba 2f 37 b9 bc
       0.0056216563 -0.0041621453 -0.00076399196 -0.022609321
0000f0 4b a8 c5 3a 77 84 2c 3a 1d 30 64 3b ed 4d 41 bc
       0.0015080062 0.0006581018 0.0034818717 -0.011798364
000100 4d 6a 62 3c a1 a9 40 3b 88 4f f8 ba 69 f3 9a 3b
       0.013819289 0.0029397982 -0.0018944601 0.004728724
000110 4a 15 73 3c d6 26 1e bc 82 48 ec 3b a4 57 9c 3b
       0.014836619 -0.009652814 0.007210792 0.0047711898
000120 bf 1b 5d 3c 4d e6 1c bc b2 28 cf 3b 1b 26 94 3b
       0.013495385 -0.009576392 0.00632199 0.004521144
000130 51 d5 47 3c 0f af 18 3b af 77 ef ba fb 98 90 3b
       0.012196855 0.0023297702 -0.0018269921 0.004412768
000140 ef 69 19 bc 10 1b 53 3c 45 3a f0 bb 6c c3 0f bc
       -0.009363635 0.01288487 -0.007331165 -0.00877462
000150 2d 95 68 bc d7 d0 71 bc 05 fc e6 bb b7 0a c2 3b
       -0.0141957225 -0.014759264 -0.007049086 0.0059216875
000160 da 33 41 3c f5 b3 6f bc dd 5c 11 3b 02 f8 fe bb
       0.0117921475 -0.014630307 0.0022180595 -0.0077810297
000170 74 dc 87 bb 57 85 a5 bb 2a a4 a2 bb d0 5c de 3b
       -0.004146153 -0.0050512957 -0.0049634175 0.0067859665
000180 53 42 6c 3c fb a2 18 bc 7a d2 cb bb 53 62 3d bc
       0.01442011 -0.009316201 -0.006220159 -0.011559087
000190 25 6b 90 3c 33 e8 c8 ba 02 79 48 3c f3 59 f2 ba
       0.017629215 -0.001532799 0.012235882 -0.0018489942
0001a0 b1 43 1b 3b ca e9 2a 3c 33 d3 e9 3b 32 14 e2 bb
       0.002369147 0.010431716 0.0071357726 -0.00689938
0001b0 03 4b b5 bc 41 39 87 b9 8d 12 9d 3a e4 b0 b2 bc
       -0.022130495 -0.00025791864 0.0011983678 -0.021812864
0001c0 fb a8 42 bb a7 de 3a bb a7 43 54 3c 4f f3 86 bb
       -0.002970277 -0.0028514059 0.012955583 -0.00411836
0001d0 83 19 11 3b 33 07 7d 39 81 d0 04 bb 32 cf 66 3c
       0.002214045 0.00024130642 -0.002026588 0.014087485
0001e0 3b 61 e4 3b 07 c4 99 3b e7 43 00 bb 78 c9 ec b9
       0.0069695986 0.0046925577 -0.0019571723 -0.00045163534
0001f0 cf 65 a2 3b 97 63 bb 3b 6f 43 bb 3a af a8 a1 bb
       0.004955984 0.005718659 0.0014287065 -0.0049334387
000200 42 bb 54 bc 9e 9b 17 bc 6d ba b0 bb 30 5a 42 3b
       -0.012984099 -0.009253411 -0.0053933174 0.0029655807
000210 35 e1 02 3c 24 5d 97 3b df b0 c5 bb d5 23 6e bb
       0.007988264 0.0046192575 -0.0060330476 -0.0036337276
000220 ec 52 98 bc ae f3 af 3b 4e 8a 3e bb 70 c3 d9 bb
       -0.018594228 0.005369625 -0.0029074135 -0.0066456124
000230 55 8c 07 bc 81 61 27 3c 0d c1 c4 b9 08 a4 7c bb
       -0.008273204 0.010216118 -0.00037527867 -0.0038549919
000240 df f9 73 bb 1a 8d 7a 3b 16 e1 8b 39 db 75 3b bb
       -0.0037227792 0.0038231076 0.00026679848 -0.0028604183
000250 fa 86 97 bb 27 e3 01 ba 0b 27 68 3b 7b 25 bc 3b
       -0.0046242448 -0.0004954808 0.0035423662 0.0057417727
000260 3e f9 96 b8 2b 19 5b bb 31 f2 0c bc aa ee eb b8
       -7.198982e-05 -0.003343175 -0.008602665 -0.00011250128
000270 17 39 29 3c 3a 3d 3b 3a 5f df a2 3b 9a 72 89 bc
       0.010328553 0.00071426074 0.0049704756 -0.01677828
000280 f2 a8 22 bc 5c fb 0c 3c 82 2c 6e 3c bf 27 3d 3c
       -0.009927975 0.008604851 0.014536979 0.011545121
000290 1f 59 65 3c db be 24 bb 43 72 bd 3b 2b 63 54 bc
       0.013998299 -0.0025138173 0.0057814433 -0.012963097
0002a0 4d ce 06 bc 4b f6 46 bc 4a a4 25 3b 77 ad fb 3b
       -0.008227897 -0.012143682 0.0025274926 0.0076805907
0002b0 bd 73 de bb c3 6c b4 bc 22 d9 b8 ba 85 ec f1 3b
       -0.0067886994 -0.022024518 -0.0014102797 0.0073829317
0002c0 6f ae 61 3c db 76 69 3c 16 20 3f 39 9a 0e 8a bb
       0.013774498 0.014249529 0.00018227132 -0.0042131664
0002d0 26 58 2f bc 50 82 e2 bb 57 f2 8e ba 1b 65 8c 3b
       -0.010702169 -0.006912507 -0.0010905963 0.0042845136
0002e0 af 1f ad 3a 9f a1 05 3c 58 14 77 bc 0c 2c 08 bc
       0.0013208295 0.008156209 -0.015080534 -0.008311283
0002f0 33 8a 1e bc a8 91 7f bc b4 be 34 bb 67 2c fd b9
       -0.009676504 -0.015598692 -0.0027579488 -0.00048289003
000300 db 64 50 3c 3f 10 8e 3b 9c d0 0e bc e3 c4 86 3c
       0.012719358 0.004335433 -0.008716729 0.016451305
000310 8b 71 7d 3c 4f 04 78 3c 60 a5 50 bc 5e 07 a6 ba
       0.015468965 0.015137746 -0.012734741 -0.001266699
000320 5e e5 a1 3b 44 50 af 3b 50 c3 0d b9 9b a2 c0 3a
       0.004940673 0.0053501446 -0.00013519567 0.0014696898
000330 3c a6 8e bb 35 77 e6 3a bb db 9d ba 5a ea a8 3a
       -0.004353313 0.0017583134 -0.0012043634 0.0012887225
000340 e8 fe f2 ba 83 a1 ca 3a d0 6d 05 3c 45 29 95 ba
       -0.0018539103 0.0015459511 0.008143857 -0.0011380097
000350 5b ac 96 3b 52 c5 5c 3b bb 53 90 bb 00 5e 78 bc
       0.004598183 0.0033686948 -0.0044045127 -0.01515913
000360 3d d7 26 bc 65 ab d1 3b 36 e1 99 bb 9f 34 1e 3c
       -0.010183153 0.0063986056 -0.0046960367 0.0096561005
000370 bf 09 62 ba 0a 1a 2a bb fd cc cf ba 2f d8 01 bc
       -0.0008622668 -0.0025955462 -0.0015853938 -0.007925077
000380 35 bf e6 39 75 95 66 3c 05 7c 14 bc de 02 89 ba
       0.0004401148 0.014073719 -0.009062772 -0.0010453125
000390 af f9 c0 3b cf 1d 04 3c ea 5b 36 bb b2 64 06 3c
       0.0058891396 0.008063748 -0.002782578 0.008202719
0003a0 2f 79 b5 3c aa 8a 24 3c 92 a4 1d bc 2c 10 b9 ba
       0.022152511 0.010042826 -0.009621756 -0.00141192
0003b0 b4 37 93 3a 4f 78 ed 3b 8f 27 bd ba 2b 4b 32 3a
       0.0011231811 0.007247008 -0.0014431345 0.0006801362
0003c0 99 26 10 bc 43 f6 61 3c bb 8b 46 bc e0 01 8f bb
       -0.008798265 0.0137916235 -0.012118275 -0.004364237
0003d0 43 4f 34 bc af bd 27 3c b1 a0 a4 ba ef f2 10 3c
       -0.011005226 0.010238095 -0.0012560097 0.008846982
0003e0 f0 6a 27 3b 6a a4 b4 ba a9 47 c7 3b e5 2f 13 3c
       0.0025545917 -0.0013781909 0.0060815406 0.008983587
0003f0 2f c0 92 3a af 3a 34 bb 52 ca 9b bc 0d a0 b8 ba
       0.0011196191 -0.0027500798 -0.019017372 -0.0014085785

action_model._discrete_distribution.branches.1.bias f4 [2]
000000 00 00 00 00 00 00 00 00
       0.0 0.0

action_model._discrete_distribution.branches.1.weight f4 [2, 128]
000000 5b 0a 9c 3b b5 01 9a ba 3c 03 a5 bc e0 8b 8e bc
       0.0047619767 -0.0011749776 -0.020143144 -0.017400682
000010 79 3a 1f 3b 48 85 a5 3b 10 54 0a 3c 38 70 f3 3b
       0.0024296327 0.0050512888 0.008442894 0.007429149
000020 ea 76 91 3b 0f f4 18 bc ab 7b c4 bb d1 20 8f ba
       0.0044392245 -0.009335532 -0.0059961877 -0.0010919814
000030 be d9 10 3c 70 93 97 bc de 4d 8e bc e1 40 1c b9
       0.008840976 -0.01850292 -0.017371114 -0.00014901489
000040 15 3a eb ba 4e 32 02 3c 0b f5 8a bc 6e da 16 bc
       -0.0017946387 0.007946564 -0.016962549 -0.009207351
000050 d8 d3 cc 3b f3 4a 84 bb 4d 19 3f 3b 2a f9 15 bb
       0.0062508397 -0.004037255 0.0029159368 -0.002288411
000060 9d 9d b6 bb 9a be 8c bc f5 dd cf bb b7 16 eb ba
       -0.005572988 -0.01718073 -0.006343598 -0.0017935847
000070 db 52 c9 ba 1f e3 2b bc 2f 74 e8 39 b5 cd d0 bb
       -0.0015359776 -0.010491162 0.00044337052 -0.0063721784
000080 27 e5 a1 b9 8f 67 84 bb 81 e7 93 3b 13 dd 37 bc
       -0.00030879045 -0.0040406655 0.0045136814 -0.011222142
000090 65 ef 70 3b b9 62 c3 39 35 aa e6 b9 13 9b 0c 3b
       0.0036763784 0.00037266852 -0.00043995833 0.0021454736
0000a0 8e 9b c1 bb e3 80 9f 3b 88 fa 59 3c 70 74 f2 b9
       -0.005908436 0.0048676594 0.01330436 -0.0004624459
0000b0 95 3f 52 bc 20 7e 01 ba 44 ac 3a 3a 9d 49 ea 3b
       -0.012832542 -0.00049397536 0.00071210065 0.0071498887
0000c0 a3 29 41 bc 4b d7 f6 bb 4b c2 c4 b9 63 bb 4c bb
       -0.011789712 -0.007532989 -0.00037528793 -0.003123962
0000d0 74 d0 25 3c 0a 84 63 bc c0 5c a6 3b 58 71 53 3b
       0.0101205 -0.013886461 0.0050769746 0.0032263603
0000e0 25 f0 22 bc 75 98 55 bb 0c 24 b9 ba 7d 27 67 bb
       -0.00994495 -0.0032592092 -0.0014125123 -0.003527134
0000f0 b0 07 e5 3b 5f 02 6d 3b 62 27 fd bb 7a 3b f0 3b
       0.006989442 0.0036164743 -0.007725642 0.007331309
000100 0b 85 e5 bb eb 47 e1 3b be 6a 97 bb 60 ff 9a bb
       -0.0070043853 0.0068750284 -0.004620879 -0.00473015
000110 7e 4c 30 3b eb 1c d7 ba f4 ff 48 3b ad 52 81 bb
       0.0026901062 -0.0016411816 0.0030670138 -0.0039466233
000120 ca 5e c9 bb 1a ba 42 3c ca 1f 4a 3c 0f d9 c4 ba
       -0.006145333 0.01188519 0.012336681 -0.0015018302
000130 c4 be 31 bb 32 6d 16 bb b1 8e 22 bc 1d 04 c6 3b
       -0.0027121762 -0.002295327 -0.009921716 0.006042971
000140 e7 68 99 3b 5b e4 15 b9 ae ec bf ba fd 6e 33 bc
       0.004681695 -0.00014294816 -0.001464268 -0.010951755
000150 75 bf fe 3b 82 34 0c 3b 29 3d 4b 3c 72 f0 a5 ba
       0.0077742883 0.0021393602 0.012404718 -0.0012660159
000160 f3 d8 d1 3b 7d c6 41 bb d8 fa 1b bc 4e 9c 93 bc
       0.006404036 -0.002956777 -0.009520255 -0.018018868
000170 7c ce 03 bb 77 c6 16 bb f1 00 37 bc da 2a 10 3a
       -0.0020112088 -0.0023006478 -0.011169658 0.00054995494
000180 de 1b 1d bc f4 78 3c bb 47 94 23 3b 42 28 39 bc
       -0.009589164 -0.0028758617 0.0024960206 -0.011301102
000190 a3 ff 32 bc 8f fb 0b 3c a0 86 a2 bb 7b 97 88 bb
       -0.010925206 0.008543863 -0.004959896 -0.0041684485
0001a0 b0 84 b6 3b 8f 71 a3 bb 77 04 fe bb 0a 52 08 bc
       0.005570017 -0.0049879025 -0.007751997 -0.008320341
0001b0 92 0e 92 39 e5 99 3d 3c 02 b8 cd bb 8c 35 82 3c
       0.00027858146 0.011572336 -0.006278039 0.015894674
0001c0 26 f5 41 ba 8b 93 9c 3b c8 8e 0a bc c7 11 e8 3b
       -0.00073988957 0.0047783307 -0.008456893 0.0070821973
0001d0 9b ae 12 3c ab 00 7a bb cc 61 bf 3b f0 e2 64 bc
       0.008952762 -0.003814737 0.0058405157 -0.013970122
0001e0 0b 61 4e 3c c5 c2 eb 3b 1c 23 29 bc 2d d2 27 ba
       0.012596379 0.007194849 -0.010323312 -0.0006401863
0001f0 67 7a 80 3b d9 9e c5 ba 93 46 b8 3a 7e fd 28 bc
       0.0039208415 -0.0015077248 0.0014059119 -0.0103143435
000200 68 bf 50 3c 3f 91 ae 38 5b e7 22 3c 96 e0 bc 39
       0.012740947 8.324021e-05 0.009942855 0.00036025484
000210 bd d4 91 b8 07 1f e4 bc 55 d0 06 bc 29 bd c9 bb
       -6.9537644e-05 -0.027846826 -0.008228381 -0.006156583
000220 9d c4 85 bc 21 93 4c 3b 2f 87 93 bc 02 e8 30 bc
       -0.016329104 0.0031215625 -0.018008796 -0.0107975025
000230 8d 55 f6 3b bb 7a b3 bb 37 80 d6 bb b0 ee d7 3b
       0.0075175227 -0.005477277 -0.006546046 0.006589733
000240 ba fd e1 bb 3f c0 b8 b9 f3 20 f3 bb 88 bc 63 bc
       -0.0068967016 -0.0003523845 -0.0074196993 -0.01389993
000250 6e 4d 9e 3c 7c 3a 07 bb f3 9e 06 3c 4e 72 96 3a
       0.01932403 -0.0020634225 0.008216607 0.0011478157
000260 cd 7a 81 bb 6d 78 d2 3b 93 fd 16 3c 27 59 81 bb
       -0.0039514066 0.0064230473 0.00921573 -0.0039473954
000270 25 72 7a 3b 8c 98 ac bb 46 88 0e bc c0 58 a0 bb
       0.0038215008 -0.0052672084 -0.008699482 -0.0048933923
000280 24 dc 8d 3b d6 b3 cb ba 8d cf 02 bb 2a db 72 bc
       0.0043292213 -0.0015541266 -0.0019960136 -0.014822761
000290 f5 a9 5b 3c 18 f7 2b ba 18 e9 51 3b 8a a2 dd 3b
       0.01340722 -0.0006559952 0.0032029804 0.006763761
0002a0 bb 57 bf 3b 48 ab 5c 3b 6b 90 ae 3c e7 cf 6f bc
       0.0058393157 0.0033671428 0.021309098 -0.01463697
0002b0 bf e6 55 3c c5 b2 08 bc f8 7d fb 3a ff 5e 4b 3b
       0.013055502 -0.008343403 0.0019187322 0.0031031964
0002c0 5f 43 0b bb aa c2 3f 3c 00 0a 57 3b 1a 9f d0 bb
       -0.0021249873 0.011704126 0.0032812357 -0.0063666226
0002d0 a7 aa a3 3a 06 9e a4 bb 5e 2b 0a bc 45 18 04 bc
       0.0012486771 -0.0050237207 -0.008433191 -0.008062427
0002e0 cd 13 ea 3b 5d c6 ce b9 e7 4c 9b 3c 6f 10 26 3c
       0.0071434737 -0.00039439174 0.018957568 0.010135754
0002f0 95 b1 80 3c 78 1c 75 3a fd 08 bb ba d7 3f 24 3c
       0.015709678 0.00093502505 -0.0014269646 0.010024986
000300 d0 6c 8b ba 40 60 a9 3b 15 cf be 3b aa 8f cd bb
       -0.0010637287 0.0051689446 0.005823026 -0.0062732296
000310 00 7b 83 3c 50 93 3f bc 5f 23 3c 3c 95 f3 62 bb
       0.016049862 -0.011692837 0.0114830425 -0.003463005
000320 94 01 ad 3c e2 42 e5 b9 b4 72 a2 bb 88 a7 dd bb
       0.021118917 -0.00043728115 -0.0049575213 -0.006764356
000330 d4 6b 3f 3c be ec b9 bb e9 c8 16 3c f6 9d 88 bb
       0.011683423 -0.005673974 0.009203174 -0.004169221
000340 c3 e5 99 3b 90 71 bc bb 90 e0 ce 3b c8 7d 61 38
       0.004696579 -0.0057508424 0.006313391 5.3761323e-05
000350 6f cb 0f bb 1a 2a ec bb 08 7b af 3b ea ac 2b 3b
       -0.0021941324 -0.0072071673 0.0053552426 0.0026195594
000360 a3 de a2 3b c7 82 ae 3b 73 f8 90 3b 23 fc 03 bc
       0.004970388 0.0053256485 0.0044241487 -0.00805572
000370 cc 98 0b 3c 37 2c 40 bc 50 bd 55 ba a2 ab 15 bc
       0.008520316 -0.011729292 -0.0008153515 -0.009135159
000380 39 ae c4 bb 2f 42 f1 ba 9f 25 08 bb 4e 35 10 bc
       -0.0060022143 -0.0018406565 -0.0020774377 -0.008801771
000390 38 34 81 3a 27 e3 9d 3b f1 95 1f 3c 00 6c 58 3a
       0.0009857481 0.0048183384 0.009740339 0.00082558393
0003a0 0e 12 49 3c d0 24 81 bb a7 03 47 3a b7 1c 57 bc
       0.012272371 -0.003941156 0.0007591792 -0.013129405
0003b0 cb 99 3f 3c 6f 0d c4 bb f8 81 a6 3b 03 50 3b 3b
       0.011694382 -0.0059830467 0.0050814115 0.0028581626
0003c0 a5 93 e6 bb f5 e2 92 3c 17 13 96 bc 8a d0 fb bb
       -0.0070366436 0.017930487 -0.01831965 -0.007684772
0003d0 92 9b 7b 3b 26 09 35 3c 5c fb 4a bc 83 41 ed 3a
       0.0038392288 0.011049544 -0.01238903 0.0018101189
0003e0 f5 5e 51 3c e8 1f a1 3b ff 82 3d 3c b5 91 03 bc
       0.012778987 0.0049171336 0.011566876 -0.008030345
0003f0 c5 11 b0 3a ec e4 1a bb 25 0c f7 39 e6 b1 88 3b
       0.001343303 -0.0023634983 0.0004712056 0.004171598

discrete_action_output_shape f4 [1, 2]
000000 00 00 00 40 00 00 00 40
       2.0 2.0

network_body._body_endoder.seq_layers.0.bias f4 [128]
000000 00 00 00 00 00 00 00 00 00 00 00 00 00 00 00 00
       0.0 0.0 0.0 0.0
000010 00 00 00 00 00 00 00 00 00 00 00 00 00 00 00 00
       0.0 0.0 0.0 0.0
000020 00 00 00 00 00 00 00 00 00 00 00 00 00 00 00 00
       0.0 0.0 0.0 0.0
000030 00 00 00 00 00 00 00 00 00 00 00 00 00 00 00 00
       0.0 0.0 0.0 0.0
000040 00 00 00 00 00 00 00 00 00 00 00 00 00 00 00 00
       0.0 0.0 0.0 0.0
000050 00 00 00 00 00 00 00 00 00 00 00 00 00 00 00 00
       0.0 0.0 0.0 0.0
000060 00 00 00 00 00 00 00 00 00 00 00 00 00 00 00 00
       0.0 0.0 0.0 0.0
000070 00 00 00 00 00 00 00 00 00 00 00 00 00 00 00 00
       0.0 0.0 0.0 0.0
000080 00 00 00 00 00 00 00 00 00 00 00 00 00 00 00 00
       0.0 0.0 0.0 0.0
000090 00 00 00 00 00 00 00 00 00 00 00 00 00 00 00 00
       0.0 0.0 0.0 0.0
0000a0 00 00 00 00 00 00 00 00 00 00 00 00 00 00 00 00
       0.0 0.0 0.0 0.0
0000b0 00 00 00 00 00 00 00 00 00 00 00 00 00 00 00 00
       0.0 0.0 0.0 0.0
0000c0 00 00 00 00 00 00 00 00 00 00 00 00 00 00 00 00
       0.0 0.0 0.0 0.0
0000d0 00 00 00 00 00 00 00 00 00 00 00 00 00 00 00 00
       0.0 0.0 0.0 0.0
0000e0 00 00 00 00 00 00 00 00 00 00 00 00 00 00 00 00
       0.0 0.0 0.0 0.0
0000f0 00 00 00 00 00 00 00 00 00 00 00 00 00 00 00 00
       0.0 0.0 0.0 0.0
000100 00 00 00 00 00 00 00 00 00 00 00 00 00 00 00 00
       0.0 0.0 0.0 0.0
000110 00 00 00 00 00 00 00 00 00 00 00 00 00 00 00 00
       0.0 0.0 0.0 0.0
000120 00 00 00 00 00 00 00 00 00 00 00 00 00 00 00 00
       0.0 0.0 0.0 0.0
000130 00 00 00 00 00 00 00 00 00 00 00 00 00 00 00 00
       0.0 0.0 0.0 0.0
000140 00 00 00 00 00 00 00 00 00 00 00 00 00 00 00 00
       0.0 0.0 0.0 0.0
000150 00 00 00 00 00 00 00 00 00 00 00 00 00 00 00 00
       0.0 0.0 0.0 0.0
000160 00 00 00 00 00 00 00 00 00 00 00 00 00 00 00 00
       0.0 0.0 0.0 0.0
000170 00 00 00 00 00 00 00 00 00 00 00 00 00 00 00 00
       0.0 0.0 0.0 0.0
000180 00 00 00 00 00 00 00 00 00 00 00 00 00 00 00 00
       0.0 0.0 0.0 0.0
000190 00 00 00 00 00 00 00 00 00 00 00 00 00 00 00 00
       0.0 0.0 0.0 0.0
0001a0 00 00 00 00 00 00 00 00 00 00 00 00 00 00 00 00
       0.0 0.0 0.0 0.0
0001b0 00 00 00 00 00 00 00 00 00 00 00 00 00 00 00 00
       0.0 0.0 0.0 0.0
0001c0 00 00 00 00 00 00 00 00 00 00 00 00 00 00 00 00
       0.0 0.0 0.0 0.0
0001d0 00 00 00 00 00 00 00 00 00 00 00 00 00 00 00 00
       0.0 0.0 0.0 0.0
0001e0 00 00 00 00 00 00 00 00 00 00 00 00 00 00 00 00
       0.0 0.0 0.0 0.0
0001f0 00 00 00 00 00 00 00 00 00 00 00 00 00 00 00 00
       0.0 0.0 0.0 0.0

network_body._body_endoder.seq_layers.0.weight f4 [128, 1]
000000 33 e4 0c 3e d1 b2 8e bf c4 db 97 bf 04 3b 9b 3e
       0.13758926 -1.114832 -1.1863942 0.30318463
000010 01 19 98 3e 68 11 8f be c6 1d 69 bd b9 61 17 bf
       0.29706576 -0.27942967 -0.05691316 -0.5913349
000020 86 69 6a be f8 20 61 be bf f1 a4 3f 13 fa a2 bf
       -0.22891816 -0.21985233 1.2886275 -1.2732567
000030 c8 98 37 3f d2 2c 55 bf 04 f3 86 bf 43 83 a6 3e
       0.717175 -0.83271515 -1.0542912 0.3252202
000040 81 64 10 be d2 67 a0 bf 14 7d dc be c5 46 09 40
       -0.14100839 -1.2531683 -0.43064177 2.1449444
000050 88 6f 15 3f b6 19 a5 3f eb c3 d4 3d e3 c8 3c 40
       0.5837331 1.2898471 0.10388931 2.9497612
000060 1e 72 cc be 74 23 b6 bf 26 ea 17 40 0b d0 94 3f
       -0.39930815 -1.422957 2.3736663 1.162599
000070 fb cc 20 3f fb eb 9f 3f 14 38 bc 3f 35 9c f7 bc
       0.62812775 1.249389 1.4704614 -0.030225853
000080 3d 8a 4f 3f 32 db c9 bf fd a7 6b 3f ec 73 26 3f
       0.8107031 -1.5770018 0.92053205 0.6502063
000090 d9 b9 c6 3e 3c fd e3 3e 6a e6 bb be af 34 67 3f
       0.38813666 0.4452914 -0.3669923 0.90314764
0000a0 d6 bb 35 bf 93 09 b6 bf 77 6d 1a be 40 16 29 bf
       -0.7098974 -1.4221672 -0.1508082 -0.66049576
0000b0 35 9b c8 3d 81 0b f7 3e 5e 23 39 3f 1c b4 77 3f
       0.097952284 0.48250964 0.7231959 0.967592
0000c0 b2 9b 98 bd 9e bc 71 bd c3 42 87 be 01 73 61 3f
       -0.074515715 -0.05901777 -0.26418123 0.8806611
0000d0 cb 52 32 3e 51 02 0b be a9 1e 18 c0 45 0e 4c bd
       0.17414396 -0.13575102 -2.3768713 -0.049818296
0000e0 33 20 5b 3f c2 00 16 3f 27 e1 a4 be cc f5 12 3f
       0.8559601 0.58594906 -0.32203028 0.57406306
0000f0 50 e2 e6 bd da 9f a0 bf dd c6 89 bf b2 35 68 be
       -0.112736344 -1.2548783 -1.0763813 -0.22676733
000100 4b cc ab 3f 69 1e e0 3f 86 92 8c be ec 3d c6 bf
       1.342172 1.750928 -0.2745554 -1.5487647
000110 84 7d 18 3f 0d 46 0c 3f 61 7f 0a 3f ed 15 b4 bf
       0.5956652 0.5479439 0.54100615 -1.4069191
000120 04 d8 82 3f 03 a5 eb 3f ce fd 0b 40 7c b0 70 3f
       1.0222173 1.8409733 2.187366 0.94019294
000130 08 80 3a c0 b5 72 95 bf 7e e2 89 bf 87 a5 03 c0
       -2.9140644 -1.1675631 -1.0772245 -2.056978
000140 00 01 6a bf ab 59 b0 3f dc 0b 4d c0 b7 76 cb bf
       -0.91407776 1.3777364 -3.2038488 -1.5895604
000150 ea 44 bb bf 72 68 93 3f 81 3a 05 3f cc 4c 0e 3e
       -1.4630406 1.1516249 0.52042395 0.13896483
000160 fd 4c a2 3f 85 2b a7 3f c7 01 8e be 17 38 97 3f
       1.2679745 1.3060156 -0.2773573 1.1813992
000170 03 d6 14 3f 20 a9 d0 3e 71 95 52 3d 5b 81 ec be
       0.58139056 0.40754032 0.05141205 -0.4619244
000180 94 06 b1 3f 00 bf d7 bf d5 72 75 bf 66 bf 47 3f
       1.3830132 -1.6855164 -0.95878345 0.78026426
000190 8b af 6f 3f b7 78 27 bf c8 ba 1c 3f 37 28 f1 3f
       0.9362723 -0.6541857 0.61222506 1.8840398
0001a0 c9 22 84 bf c6 4b e4 be c8 b6 8d bf 63 84 8f bf
       -1.0323116 -0.4458906 -1.1071405 -1.1212276
0001b0 41 71 78 bc 34 5b 97 bf 6e bd 38 bf 73 33 23 3f
       -0.015163721 -1.1824708 -0.72164047 0.6375038
0001c0 49 56 86 bf f7 27 4a 3f 9d 31 16 c0 42 25 a1 bf
       -1.0495082 0.7896723 -2.3467782 -1.2589495
0001d0 5e 79 68 bd 89 f7 bd bf b6 88 f8 be ed b4 a2 3f
       -0.05675637 -1.4841167 -0.48541802 1.2711464
0001e0 a5 ad ce 3f d7 0c 85 3f e3 11 7f bf af bc 71 3f
       1.6146742 1.0394543 -0.9963667 0.94428533
0001f0 ce db e9 3e 8b be c3 3f 3f e1 96 3d 3f c7 8d be
       0.4567551 1.5292524 0.07367181 -0.27691075

network_body._body_endoder.seq_layers.2.bias f4 [128]
000000 00 00 00 00 00 00 00 00 00 00 00 00 00 00 00 00
       0.0 0.0 0.0 0.0
000010 00 00 00 00 00 00 00 00 00 00 00 00 00 00 00 00
       0.0 0.0 0.0 0.0
000020 00 00 00 00 00 00 00 00 00 00 00 00 00 00 00 00
       0.0 0.0 0.0 0.0
000030 00 00 00 00 00 00 00 00 00 00 00 00 00 00 00 00
       0.0 0.0 0.0 0.0
000040 00 00 00 00 00 00 00 00 00 00 00 00 00 00 00 00
       0.0 0.0 0.0 0.0
000050 00 00 00 00 00 00 00 00 00 00 00 00 00 00 00 00
       0.0 0.0 0.0 0.0
000060 00 00 00 00 00 00 00 00 00 00 00 00 00 00 00 00
       0.0 0.0 0.0 0.0
000070 00 00 00 00 00 00 00 00 00 00 00 00 00 00 00 00
       0.0 0.0 0.0 0.0
000080 00 00 00 00 00 00 00 00 00 00 00 00 00 00 00 00
       0.0 0.0 0.0 0.0
000090 00 00 00 00 00 00 00 00 00 00 00 00 00 00 00 00
       0.0 0.0 0.0 0.0
0000a0 00 00 00 00 00 00 00 00 00 00 00 00 00 00 00 00
       0.0 0.0 0.0 0.0
0000b0 00 00 00 00 00 00 00 00 00 00 00 00 00 00 00 00
       0.0 0.0 0.0 0.0
0000c0 00 00 00 00 00 00 00 00 00 00 00 00 00 00 00 00
       0.0 0.0 0.0 0.0
0000d0 00 00 00 00 00 00 00 00 00 00 00 00 00 00 00 00
       0.0 0.0 0.0 0.0
0000e0 00 00 00 00 00 00 00 00 00 00 00 00 00 00 00 00
       0.0 0.0 0.0 0.0
0000f0 00 00 00 00 00 00 00 00 00 00 00 00 00 00 00 00
       0.0 0.0 0.0 0.0
000100 00 00 00 00 00 00 00 00 00 00 00 00 00 00 00 00
       0.0 0.0 0.0 0.0
000110 00 00 00 00 00 00 00 00 00 00 00 00 00 00 00 00
       0.0 0.0 0.0 0.0
000120 00 00 00 00 00 00 00 00 00 00 00 00 00 00 00 00
       0.0 0.0 0.0 0.0
000130 00 00 00 00 00 00 00 00 00 00 00 00 00 00 00 00
       0.0 0.0 0.0 0.0
000140 00 00 00 00 00 00 00 00 00 00 00 00 00 00 00 00
       0.0 0.0 0.0 0.0
000150 00 00 00 00 00 00 00 00 00 00 00 00 00 00 00 00
       0.0 0.0 0.0 0.0
000160 00 00 00 00 00 00 00 00 00 00 00 00 00 00 00 00
       0.0 0.0 0.0 0.0
000170 00 00 00 00 00 00 00 00 00 00 00 00 00 00 00 00
       0.0 0.0 0.0 0.0
000180 00 00 00 00 00 00 00 00 00 00 00 00 00 00 00 00
       0.0 0.0 0.0 0.0
000190 00 00 00 00 00 00 00 00 00 00 00 00 00 00 00 00
       0.0 0.0 0.0 0.0
0001a0 00 00 00 00 00 00 00 00 00 00 00 00 00 00 00 00
       0.0 0.0 0.0 0.0
0001b0 00 00 00 00 00 00 00 00 00 00 00 00 00 00 00 00
       0.0 0.0 0.0 0.0
0001c0 00 00 00 00 00 00 00 00 00 00 00 00 00 00 00 00
       0.0 0.0 0.0 0.0
0001d0 00 00 00 00 00 00 00 00 00 00 00 00 00 00 00 00
       0.0 0.0 0.0 0.0
0001e0 00 00 00 00 00 00 00 00 00 00 00 00 00 00 00 00
       0.0 0.0 0.0 0.0
0001f0 00 00 00 00 00 00 00 00 00 00 00 00 00 00 00 00
       0.0 0.0 0.0 0.0

network_body._body_endoder.seq_layers.2.weight f4 [128, 128]
000000 dc af ee 3c 93 c0 82 3c 67 f7 d5 3d 34 d8 11 3d
       0.02913659 0.015960967 0.10447579 0.035606578
000010 ff d8 0b 3e d9 cd aa 3d 63 f1 02 3e 1d 78 c3 3d
       0.13656996 0.083400436 0.12787394 0.09544394
000020 e4 3a f5 bc cb d3 02 3e 8c ef c4 3d 6e fe 09 3d
       -0.029935308 0.12776105 0.096160024 0.03368991
000030 95 d1 92 3c da ab 9d bd ac 34 24 3d a4 ae d7 bd
       0.017922202 -0.07698794 0.040089294 -0.10531357
000040 83 14 ba 3d f5 3d 54 3d dd d2 0e bd 56 de 71 bd
       0.090859435 0.0518169 -0.034869064 -0.059049927
000050 6c 63 be bd 4b 9a 89 3d c9 d5 ae bd f5 b0 0a be
       -0.09296307 0.06718882 -0.0853687 -0.13544066
000060 6e a5 07 3e ac 32 80 be 73 b1 8c bd 30 cb 47 3d
       0.132467 -0.2503866 -0.06869783 0.04877776
000070 bb be 38 bd fc 1e 25 bc 23 4c 79 bd 4a 80 28 3d
       -0.04510377 -0.010078188 -0.060863625 0.04113797
000080 f1 6c 8c bd 91 34 79 3d 1a 7b 27 bd d7 05 e5 3d
       -0.068567164 0.060841147 -0.040888883 0.111827545
000090 4a d5 a5 ba 53 a3 9a bd 12 37 26 bd 94 a0 41 bc
       -0.0012652066 -0.07550683 -0.040579863 -0.01181807
0000a0 ab 5c 19 3d d8 fa 00 3e 75 82 3b 3d 21 c3 1c 3e
       0.03744189 0.1259569 0.04577871 0.15308811
0000b0 db ea da 3d 02 8c 27 3c 12 4d bf bd bc 7d 96 bb
       0.106893264 0.010226252 -0.09340872 -0.0045926254
0000c0 f8 54 88 3d 0d 4d e7 3c 4c 2d a5 bb 36 6c 4e 3a
       0.066568315 0.028234983 -0.0050408 0.0007874401
0000d0 e9 7c 83 3d 2e ea 7c 3b be 32 87 bc 25 fa b6 bd
       0.06420309 0.003859173 -0.016503688 -0.0893443
0000e0 b6 cf df 3d 42 65 14 be 2e b0 83 bc 92 cb 1d 3d
       0.109282896 -0.14491752 -0.01607522 0.038524218
0000f0 5f 7c 08 be 17 dc b3 bd 04 74 3d 3d 93 9a 85 3b
       -0.13328694 -0.08782213 0.04625322 0.0040772646
000100 8e 2c 08 be c1 42 ee 3d f4 fb 97 bd 61 5e b3 3d
       -0.13298246 0.11633826 -0.07421103 0.08758236
000110 3e b2 10 be 09 c6 ff bd b5 9f 07 be 42 7e 60 bd
       -0.14130494 -0.12488944 -0.13244517 -0.05480791
000120 21 7e af bd db 13 e7 bc 85 38 0c be 3d 9f 20 bd
       -0.08568979 -0.02820771 -0.13693435 -0.03921436
000130 12 cc 08 bd 61 60 2f be 62 da 57 bd 05 f5 e0 bc
       -0.03339774 -0.1712661 -0.0526985 -0.027460584
000140 80 50 11 bd e3 d0 89 3d 2f 68 32 3d 35 1f cb 3d
       -0.03547716 0.06729295 0.04355639 0.09918062
000150 d9 f0 66 bd 89 19 aa bd 84 50 b5 bd 94 df c7 bd
       -0.056382034 -0.08305652 -0.08853248 -0.09759441
000160 e6 2d 32 3d 5f f9 87 be 2a 56 56 be b5 2a 05 3e
       0.043500803 -0.26557443 -0.20931306 0.13004573
000170 94 4b a1 bd 92 84 5c bd a4 f7 5c be 1f 28 f2 bc
       -0.078757435 -0.053837366 -0.21578842 -0.029560147
000180 88 04 0c be 82 b3 16 3c 02 50 5d bd e6 fa 34 3d
       -0.13673604 0.009198071 -0.05403138 0.044184588
000190 6b 81 70 3d 9c 49 8d bc 39 63 b5 bd 02 89 02 bb
       0.058717173 -0.017247014 -0.08856816 -0.0019918089
0001a0 97 5e 40 bd 07 e9 e9 bd 4f 79 ff bc 06 91 86 3c
       -0.046965208 -0.114213996 -0.031185774 0.016426574
0001b0 bd 1f f9 bd c4 c5 b9 bd bd 73 dd bd 63 ab 38 3c
       -0.12164257 -0.09070924 -0.10813091 0.0112713305
0001c0 74 03 d4 bc 47 11 cf bd c2 1c c9 3c c0 9b 58 3c
       -0.025880553 -0.10110717 0.024549846 0.013220727
0001d0 9a 3b 22 3d 4a 8a 70 bd b9 da a1 3d bf 0c 2f bd
       0.03960762 -0.058725633 0.07903046 -0.042736765
0001e0 28 0a 66 3d a9 43 25 3e df 3d 87 bd 99 b4 b2 3d
       0.05616203 0.16139092 -0.06603598 0.087258525
0001f0 4e a4 51 bd e5 6d 81 bc f8 ea b9 3d 85 4a 14 3b
       -0.051182084 -0.015799472 0.0907802 0.0022627425
000200 03 ee ea 3c 5d 73 7a bd 86 6a ca bd 34 55 e9 3d
       0.028677946 -0.061145175 -0.09883599 0.11393204
000210 1a 1c 75 3d 08 71 5c 3d 43 a9 04 3e ac 4f 2c bd
       0.059841253 0.053818733 0.12955193 -0.04206817
000220 23 2f 11 bd 10 f0 d8 bd ae f6 89 3d 5a dd 8f bc
       -0.035445344 -0.10592663 0.067365035 -0.017561603
000230 4a 0a 52 3d 73 c0 52 3e 58 b2 8b bd 21 5b ce 3d
       0.051279344 0.20581226 -0.06821126 0.10075975
000240 c3 ee 79 bd 6b de 07 3d a6 27 c7 3d 4e ac 07 be
       -0.061018717 0.0331711 0.09724359 -0.13249323
000250 8d 57 6d bc a8 8d 81 bd 18 e7 0f be e7 83 e1 3d
       -0.014486206 -0.06325847 -0.14052999 0.110114865
000260 62 6c f6 bd 2e b9 84 bb 93 18 d7 bd 0d d4 b9 bc
       -0.12032391 -0.0040503955 -0.10502734 -0.022684122
000270 5f 66 05 be 9f 96 12 3d d1 a5 21 3e 02 44 97 3d
       -0.13027333 0.035788175 0.1578591 0.07386018
000280 2c c5 4f bd a1 d0 5e be 0b 38 9a bb a2 bf 6a 3d
       -0.050725147 -0.21759273 -0.004706388 0.05731166
000290 fc 47 96 3d 2e 02 03 3e 59 7a 85 3d d3 f8 22 3d
       0.07337949 0.127938 0.065174766 0.03978808
0002a0 53 bf da bd 6b dd 0d 3d bc b3 d1 3d 56 f6 96 3d
       -0.106810234 0.03463499 0.1023936 0.073712036
0002b0 78 3a 75 bd 42 84 e3 3b aa 56 da 3d 2c 06 6a bd
       -0.059870213 0.0069432566 0.10661061 -0.057134792
0002c0 a5 69 ea 3c 1c 94 10 be 99 af 6f bc 19 98 da 3d
       0.028614828 -0.14118999 -0.014629268 0.106735416
0002d0 11 d6 68 3c c7 8d 90 bd fb 4f cf 3d 07 26 5a bc
       0.014211194 -0.07058292 0.10122677 -0.0133147305
0002e0 02 90 a4 bd e0 fe 43 bd 4d aa 4d be 93 b9 91 bd
       -0.0803528 -0.04785049 -0.20084496 -0.071154736
0002f0 94 86 3b bd b2 88 15 3d 31 eb e0 bb d9 4a 49 3d
       -0.04578264 0.036507316 -0.0068639745 0.049143646
000300 4a fe 1b bd f8 76 7a 3e 6a 83 ef bd 04 82 ff 3d
       -0.038084306 0.24459445 -0.11694987 0.124759704
000310 eb 2f e6 bb af 7c 33 3e a6 9e 27 bd 8b 7a 89 bd
       -0.0070247552 0.17528032 -0.040922783 -0.06712826
000320 b8 f3 b4 3d e1 c2 9b 3d 2a fb 69 3d 82 b3 93 3c
       0.08835548 0.076055296 0.057124294 0.018029932
000330 ed ad 91 3d 2d 1e 3e bd dd 52 47 bc d9 3a 32 3e
       0.07113252 -0.046415497 -0.012165752 0.17405261
000340 8b ee 1a 3d ae 1b a2 3d e1 b6 9c 3d c3 94 61 3d
       0.03782515 0.07915436 0.07652069 0.05507351
000350 aa 27 c4 3d a9 59 c1 3d c7 0f fa 3c b7 f4 03 bc
       0.09577878 0.094409294 0.030525101 -0.00805395
000360 65 8d 18 be cc 27 3d 3e 5e be 00 bc 2b ca 69 3d
       -0.14897688 0.18472213 -0.007857887 0.057077568
000370 27 8e bf 3d 42 83 cd 3d 7a e6 d9 3c 0f 05 0f 3e
       0.09353285 0.10034801 0.026599158 0.13966773
000380 c2 10 64 3d 67 22 56 3d 55 51 dd bd 83 45 c5 3d
       0.055680044 0.052278902 -0.108065285 0.09632399
000390 db 9a 96 3d 70 8f 50 3d e0 6a da bd 61 69 95 bd
       0.07353755 0.050918043 -0.10664916 -0.0729549
0003a0 0d 2c b9 bd e8 ae 00 bc a6 8c cd bb bb cd 7f 3c
       -0.09041605 -0.007854201 -0.00627287 0.015613015
0003b0 95 33 89 bd 8c 70 51 3d 7e 5b ad bd ed 4b 34 be
       -0.066992916 0.051132724 -0.084647164 -0.17607088
0003c0 84 54 60 bd 10 39 0d bd ac 22 fe 3d d2 60 24 3b
       -0.0547681 -0.034478247 0.12408957 0.0025082123
0003d0 44 73 7d bd 3c 48 24 be 38 22 fb 3c 6d 55 85 3c
       -0.061877504 -0.1604318 0.030655965 0.016276086
0003e0 c4 c3 fe 3c e3 d9 60 bc 89 59 57 bd 8d cb dc bc
       0.031099208 -0.013723823 -0.05257562 -0.02695253
0003f0 29 7c b1 3d b8 e6 0b bd e8 9a f2 3d d5 45 c8 3d
       0.0866626 -0.034155577 0.11845952 0.097789444
