results/test9/MoveToGoal/checkpoint.pt (torch, 672239 bytes, 17 tensors)

discrete_act_size_vector f4 [1, 2]
0	0x40000000	2.0
1	0x40000000	2.0

network_body._body_endoder.seq_layers.0.weight f4 [128, 6]
0	0xbf837fe2	-1.0273402
1	0x3e9e714e	0.3094582
2	0x3c4b1eec	0.012397509
3	0xbeb97582	-0.36222464
4	0x3e9029e4	0.2815696
5	0xbf572206	-0.8403629
6	0xbf05a66c	-0.52207065
7	0x3e3a8ce0	0.18217802
8	0xbd1392c0	-0.036028624
9	0xbe6cdea8	-0.23131812
10	0x3f2f5358	0.6848655
11	0x3e075484	0.13215834
12	0x3ebc999d	0.36835948
13	0xbcacfd90	-0.021117002
14	0xbe47fe11	-0.19530512
15	0x3eb40252	0.3515802
16	0x3f09228c	0.5356834
17	0xbe0acecb	-0.13555448
18	0xbe97dd2c	-0.29660928
19	0x3e124fa4	0.14288193
20	0x3c37adfe	0.011210917
21	0xbf32eed2	-0.6989566
22	0xbdd63063	-0.10458448
23	0xbe073eb9	-0.1320752
24	0x3eea19b9	0.4572275
25	0xbdf7b160	-0.120943785
26	0x3f684741	0.90733725
27	0xbee5f74a	-0.4491523
28	0xbf7ede38	-0.9955783
29	0xbf6a3523	-0.9148733
30	0x3d023f58	0.03179869
31	0x3dac8d6a	0.0842541
32	0xbeb783c3	-0.35842714
33	0x3f002835	0.5006135
34	0xbe05ca20	-0.13065386
35	0x3d376975	0.044778306
36	0x3d7ade9d	0.061247457
37	0x3e2c5682	0.16829875
38	0xbe2e265d	-0.17006822
39	0xbe470da0	-0.19438791
40	0xbc911073	-0.017708039
41	0x3da3997c	0.07988259
42	0x3d9c0c00	0.07619476
43	0xbec8d6e9	-0.39226463
44	0x3ecbf5bb	0.39835915
45	0x3f3bc99d	0.7335451
46	0x3e1f7424	0.15571648
47	0x3efb9f1a	0.49144822
48	0xbe9ed252	-0.31019837
49	0xbeb1e336	-0.3474366
50	0xbd219153	-0.039445233
51	0xbfbe7570	-1.4879589
52	0x3ed76a68	0.4207337
53	0x3f6490df	0.89283556
54	0x3f3b0d2e	0.73066986
55	0x3f23f90a	0.6405188
56	0xbed55b53	-0.41671237
57	0xbe3fd353	-0.18732958
58	0x3e879e76	0.26488084
59	0xbf53b85a	-0.82703173
60	0x3e081526	0.13289317
61	0xbe178891	-0.1479819
62	0x3f5e25c8	0.867764
63	0x3eaed5be	0.34147447
64	0xbefbdd45	-0.49192253
65	0xbd53a214	-0.05166824
66	0x3edbd533	0.42936096
67	0xbec7bda9	-0.39011887
68	0x3e37b93b	0.17941754
69	0x3e9a71d9	0.30164984
70	0x3eb54e71	0.3541141
71	0x3e45624d	0.1927578
72	0x3da716d0	0.08158648
73	0xbd64bb8c	-0.05584292
74	0xbe43b4e3	-0.19111972
75	0xbe7e16e4	-0.2481342
76	0x3e680f78	0.22662151
77	0xbdd8a339	-0.10578007
78	0xbf29eca5	-0.66376716
79	0xbdcb8900	-0.0993824
80	0x3c8fdf7f	0.017562626
81	0x3d5b5430	0.053547084
82	0x3e0e2257	0.13880287
83	0xbf9dc23f	-1.2324904
84	0xbf02e860	-0.51135826
85	0x3f1c28d0	0.60999775
86	0xbed09eb3	-0.40746078
87	0xbeb912f2	-0.36147267
88	0xbe4de197	-0.20105587
89	0x3f2796dc	0.6546457
90	0x3e880961	0.26569656
91	0xbd9bc527	-0.07605963
92	0x3e863614	0.26213133
93	0xbe958cde	-0.29209036
94	0xbe00b7e1	-0.12570144
95	0x3ec1124e	0.37709278
96	0x3e80c23c	0.2514819
97	0x3e03eeb4	0.12884027
98	0xbdfdfaf0	-0.12401378
99	0xbe3f9383	-0.18708615
100	0xbe017c7e	-0.12645146
101	0x3eaf9a53	0.34297428
102	0x3f586629	0.84530884
103	0xbf51c95c	-0.81947875
104	0xbeb52f5f	-0.35387704
105	0x3f8f44fa	1.1192925
106	0xbd8f66cf	-0.07002031
107	0x3eb62b92	0.35580117
108	0x3f370188	0.7148671
109	0x3e313825	0.17306574
110	0x3da7c6d1	0.08192218
111	0xbe994f3e	-0.2994327
112	0xbe5e17db	-0.21688788
113	0x3eaa8d9e	0.3331117
114	0xbde0bb80	-0.10973263
115	0x3e482d7e	0.19548604
116	0x3e9e977d	0.3097495
117	0x3e10a32a	0.14124742
118	0x3ef89399	0.48550108
119	0x3d97aca5	0.07405976
120	0xbe44bce3	-0.1921268
121	0xbe0a3d65	-0.13499983
122	0x3c350c04	0.011050228
123	0x3f322174	0.69582295
124	0x3d346770	0.04404396
125	0x3ece7f9f	0.40331742
126	0xbf3ad75c	-0.7298486
127	0xbeaadf01	-0.33373263
128	0xbdaf0e7e	-0.08547686
129	0xbf833841	-1.0251542
130	0xbea3b079	-0.31970575
131	0x3eae2c0a	0.34017974
132	0xbead819d	-0.3388795
133	0x3f88ab8a	1.067735
134	0x3dcff191	0.10153497
135	0xbf1886e4	-0.59580827
136	0x3e254d4c	0.16142768
137	0xbe46b2ef	-0.19404195
138	0xbdfcb6c5	-0.12339548
139	0x3dd484c2	0.10376884
140	0x3ed9de3f	0.42552373
141	0xbeae0f40	-0.3399601
142	0xbeeb26fd	-0.45928183
143	0xbf5af594	-0.8553097
144	0xbe9fc815	-0.31207338
145	0xbf12acbe	-0.57294834
146	0xbd026b6e	-0.031840734
147	0xbef162b4	-0.47145617
148	0x3e1eaad2	0.1549485
149	0x3ee4cfd8	0.44689822
150	0x3dcb9476	0.09940426
151	0x3f4f9851	0.8109179
152	0x3f257bcd	0.6464203
153	0x3d37f6d1	0.044913117
154	0x3e409348	0.18806183
155	0xbec859d9	-0.39131048
156	0x3e9fc066	0.31201476
157	0x3d39715a	0.045274116
158	0xbd97648e	-0.07392226
159	0xbf0de7d1	-0.5543185
160	0x3eaa0518	0.3320701
161	0x3de52219	0.11188144
162	0x3e04249e	0.12904593
163	0xbf03470f	-0.512803
164	0x3ecde18c	0.4021114
165	0xbf4a512e	-0.7903012
166	0x3e2d349f	0.16914605
167	0xbf08b7c8	-0.5340543
168	0x3f477cc7	0.7792477
169	0xbd4d95a8	-0.05019155
170	0x3ee4ee3f	0.44713017
171	0x3e1add33	0.15123443
172	0x3f0bb079	0.5456615
173	0x3e905226	0.28187674
174	0xbed4d35f	-0.41567513
175	0x3ecc3c99	0.39889982
176	0xbe852476	-0.2600438
177	0x3d45e11f	0.048310395
178	0xbf42679e	-0.7593936
179	0x3e8de922	0.2771693
180	0xbf2825b2	-0.6568252
181	0x3e1090ac	0.14117688
182	0xbe301eeb	-0.17199294
183	0xbe4a611d	-0.19763608
184	0x3f539b7d	0.8265913
185	0xbec23d4b	-0.37937388
186	0x3d4dae17	0.050214853
187	0xbf1e643f	-0.61871713
188	0xbd19545c	-0.037433967
189	0x3e108594	0.14113456
190	0x3e9c414e	0.30518574
191	0xbe309659	-0.17244853
192	0xbe644dba	-0.22295275
193	0x3eb19f1a	0.34691697
194	0xbe9eb7d6	-0.3099963
195	0xbf365801	-0.71228033
196	0x3f3afd70	0.73042965
197	0x3f1fecdc	0.62470794
198	0xbe81fd5e	-0.25388616
199	0xbee215d9	-0.44157293
200	0x3e84b7eb	0.25921568
201	0xbe568d55	-0.20952351
202	0xbe5f7d0c	-0.21825045
203	0x3e27bec1	0.1638136
204	0x3ebad58c	0.36491048
205	0xbe9f4153	-0.31104526
206	0xbeeabeca	-0.45848686
207	0x3efc6d1f	0.49302003
208	0xbf68b014	-0.90893674
209	0xbf2cf117	-0.67555374
210	0xbd06804a	-0.03283719
211	0xbe83d087	-0.2574503
212	0xbd30e35c	-0.043185577
213	0x3eb2888b	0.348698
214	0x3f0cb039	0.54956394
215	0xbe493302	-0.19648364
216	0xbe2686e2	-0.16262391
217	0xbe34344c	-0.17598075
218	0x3dbea3ee	0.09308611
219	0xbe394b8f	-0.1809523
220	0x3ef0c42b	0.47024664
221	0x3e0c8ec3	0.13726334
222	0xbe65e47f	-0.22450446
223	0x3e672d52	0.22575882
224	0x3e0faf9d	0.14031835
225	0x3e8a6e3d	0.2703723
226	0x3e893bef	0.26803538
227	0x3edf7b9b	0.4364899
228	0x3ec3d919	0.3825157
229	0x3cb5ffd8	0.022216722
230	0x3ef84b15	0.48494783
231	0xbd01bc9b	-0.03167401
232	0x3eeafc74	0.4589573
233	0x3e905c22	0.28195292
234	0xbe706ea9	-0.23479713
235	0x3e22798d	0.1586668
236	0xbf7570a4	-0.95875
237	0xbf20050b	-0.62507695
238	0xbefd5d20	-0.4948511
239	0xbe9a4d3c	-0.3013705
240	0x3e9ff074	0.3123814
241	0xbd9a9224	-0.07547405
242	0xbee4739b	-0.4461945
243	0x3de0e62b	0.10981401
244	0xbea2dec7	-0.3181059
245	0xbebf1e61	-0.37327865
246	0xbe8b8373	-0.27248725
247	0xbd6e804c	-0.058227822
248	0xbebb87aa	-0.3662694
249	0xbdad3005	-0.084564246
250	0x3e2a9872	0.16659716
251	0x3e9245e8	0.2856896
252	0xbe16e771	-0.14736725
253	0x3e9a8d6f	0.3018603
254	0x3e896f1b	0.2684258
255	0xbf183508	-0.5945592

network_body._body_endoder.seq_layers.0.bias f4 [128]
0	0x00000000	0.0
1	0x00000000	0.0
2	0x00000000	0.0
3	0x00000000	0.0
4	0x00000000	0.0
5	0x00000000	0.0
6	0x00000000	0.0
7	0x00000000	0.0
8	0x00000000	0.0
9	0x00000000	0.0
10	0x00000000	0.0
11	0x00000000	0.0
12	0x00000000	0.0
13	0x00000000	0.0
14	0x00000000	0.0
15	0x00000000	0.0
16	0x00000000	0.0
17	0x00000000	0.0
18	0x00000000	0.0
19	0x00000000	0.0
20	0x00000000	0.0
21	0x00000000	0.0
22	0x00000000	0.0
23	0x00000000	0.0
24	0x00000000	0.0
25	0x00000000	0.0
26	0x00000000	0.0
27	0x00000000	0.0
28	0x00000000	0.0
29	0x00000000	0.0
30	0x00000000	0.0
31	0x00000000	0.0
32	0x00000000	0.0
33	0x00000000	0.0
34	0x00000000	0.0
35	0x00000000	0.0
36	0x00000000	0.0
37	0x00000000	0.0
38	0x00000000	0.0
39	0x00000000	0.0
40	0x00000000	0.0
41	0x00000000	0.0
42	0x00000000	0.0
43	0x00000000	0.0
44	0x00000000	0.0
45	0x00000000	0.0
46	0x00000000	0.0
47	0x00000000	0.0
48	0x00000000	0.0
49	0x00000000	0.0
50	0x00000000	0.0
51	0x00000000	0.0
52	0x00000000	0.0
53	0x00000000	0.0
54	0x00000000	0.0
55	0x00000000	0.0
56	0x00000000	0.0
57	0x00000000	0.0
58	0x00000000	0.0
59	0x00000000	0.0
60	0x00000000	0.0
61	0x00000000	0.0
62	0x00000000	0.0
63	0x00000000	0.0
64	0x00000000	0.0
65	0x00000000	0.0
66	0x00000000	0.0
67	0x00000000	0.0
68	0x00000000	0.0
69	0x00000000	0.0
70	0x00000000	0.0
71	0x00000000	0.0
72	0x00000000	0.0
73	0x00000000	0.0
74	0x00000000	0.0
75	0x00000000	0.0
76	0x00000000	0.0
77	0x00000000	0.0
78	0x00000000	0.0
79	0x00000000	0.0
80	0x00000000	0.0
81	0x00000000	0.0
82	0x00000000	0.0
83	0x00000000	0.0
84	0x00000000	0.0
85	0x00000000	0.0
86	0x00000000	0.0
87	0x00000000	0.0
88	0x00000000	0.0
89	0x00000000	0.0
90	0x00000000	0.0
91	0x00000000	0.0
92	0x00000000	0.0
93	0x00000000	0.0
94	0x00000000	0.0
95	0x00000000	0.0
96	0x00000000	0.0
97	0x00000000	0.0
98	0x00000000	0.0
99	0x00000000	0.0
100	0x00000000	0.0
101	0x00000000	0.0
102	0x00000000	0.0
103	0x00000000	0.0
104	0x00000000	0.0
105	0x00000000	0.0
106	0x00000000	0.0
107	0x00000000	0.0
108	0x00000000	0.0
109	0x00000000	0.0
110	0x00000000	0.0
111	0x00000000	0.0
112	0x00000000	0.0
113	0x00000000	0.0
114	0x00000000	0.0
115	0x00000000	0.0
116	0x00000000	0.0
117	0x00000000	0.0
118	0x00000000	0.0
119	0x00000000	0.0
120	0x00000000	0.0
121	0x00000000	0.0
122	0x00000000	0.0
123	0x00000000	0.0
124	0x00000000	0.0
125	0x00000000	0.0
126	0x00000000	0.0
127	0x00000000	0.0

network_body._body_endoder.seq_layers.2.weight f4 [128, 128]
0	0x3e3019b1	0.171973
1	0xbcac7afe	-0.021054741
2	0x3d42e9e5	0.04758634
3	0xbd397886	-0.045280956
4	0xbd7ca1e1	-0.061677817
5	0xbd31bf51	-0.043395344
6	0xbd6b9675	-0.057516534
7	0xbc87a02e	-0.016555872
8	0xbbb1ed18	-0.005429875
9	0x3de9e764	0.114210874
10	0x3b81f72e	0.0039662337
11	0x3dbca566	0.09211235
12	0xbbb49127	-0.0055104676
13	0x3e397c23	0.1811376
14	0x3c4dce88	0.012561448
15	0x3dcfe127	0.10150366
16	0x3e1aa490	0.15101838
17	0xbdf51487	-0.11966806
18	0x3c9518c2	0.018200282
19	0xbd45358e	-0.048146777
20	0xbc7dbac6	-0.015486425
21	0x3c5e4ab9	0.01356762
22	0x3d96be7c	0.07360551
23	0xbd95cc87	-0.07314401
24	0x3b03dfd5	0.0020122428
25	0xbd7be7aa	-0.06150023
26	0x3c67fe92	0.014159815
27	0xbe10192b	-0.14072101
28	0xbd8fdeca	-0.070249155
29	0xbb07a9bf	-0.0020700542
30	0xbdccc1a4	-0.099978715
31	0x3d64c10f	0.055848178
32	0xbcf8e056	-0.03038041
33	0x3d9c316c	0.07626614
34	0xbcf580b6	-0.0299686
35	0xbca9e6a1	-0.020739855
36	0xbc8c3cd9	-0.017118858
37	0xbc774d01	-0.015094043
38	0xbd9ee4e7	-0.077585034
39	0x3c21fc94	0.0098868795
40	0x3cc95bb5	0.024579862
41	0xbe0525c2	-0.13002685
42	0xbdf0eb21	-0.11763597
43	0x3b33fb24	0.0027462924
44	0x3d89f079	0.0673532
45	0x3e37b12b	0.17938678
46	0x3d1b0595	0.03784712
47	0x3d832ca8	0.06405002
48	0xbd217e0b	-0.039426845
49	0xbe1b616b	-0.15173881
50	0xbdaa1fdb	-0.08306857
51	0xbc005e67	-0.007835007
52	0x3e6861d9	0.22693576
53	0xbd30abbc	-0.04313253
54	0xbc116166	-0.008873319
55	0x3d12afd7	0.035812225
56	0xbcfd01df	-0.030884681
57	0xbe5763f7	-0.21034227
58	0xbc589590	-0.013219252
59	0xbd10792a	-0.0352718
60	0xbc381715	-0.011235972
61	0x3d3e213c	0.046418414
62	0xbccd4526	-0.025057387
63	0xbd89fb48	-0.06737381
64	0x3dcb9d97	0.09942167
65	0xbd490998	-0.049081415
66	0xbe0858c8	-0.13315117
67	0xbcf8d0d7	-0.03037302
68	0x3d00112f	0.031266388
69	0xbd9c727b	-0.07639023
70	0x3c9c1ec3	0.019057637
71	0xbd6ee7d4	-0.058326557
72	0xbd9000cb	-0.07031401
73	0x3da7c515	0.08191887
74	0xbdb1ea55	-0.086872734
75	0xbde3fe6f	-0.11132514
76	0x3dc5e96c	0.09663662
77	0xb926fe2b	-0.00015925679
78	0xbe3f6924	-0.18692452
79	0x3deb2811	0.114822514
80	0x3db24e83	0.08706381
81	0x3dbe7cdf	0.09301161
82	0x3d336f65	0.043807406
83	0xbd3f01a0	-0.04663241
84	0xbd3e38a7	-0.046440747
85	0xbe430bce	-0.19047472
86	0x3db77201	0.089572914
87	0xbc0c49e9	-0.008562543
88	0xbdd51ba0	-0.1040566
89	0xbe31e9de	-0.1737437
90	0x3d8758df	0.06608748
91	0xbd48f901	-0.049065594
92	0xbcde32eb	-0.027123889
93	0xbd18c318	-0.03729543
94	0x3e0414ee	0.12898609
95	0x3d814a30	0.06312978
96	0x3e0cbeb5	0.13744624
97	0x3e032c9f	0.1280999
98	0x3de69d52	0.11260475
99	0xbc2773c8	-0.0102204755
100	0xbdb971d7	-0.09054916
101	0xbc1e7bc9	-0.009673067
102	0x3d7a8882	0.06116534
103	0x3caa5bba	0.020795692
104	0xbdadafcf	-0.084807985
105	0x3bcc5dee	0.006236783
106	0xbd10883e	-0.03528618
107	0x3c81e268	0.01585503
108	0x3d0f85a5	0.035039563
109	0x3d93131b	0.071813785
110	0x3c99890a	0.018742103
111	0x3dc635c1	0.096782215
112	0xbce2edbd	-0.027701253
113	0x3cebd858	0.028789684
114	0xbe22ba51	-0.15891387
115	0xbd2a3292	-0.041552134
116	0xbbf3f0ef	-0.007444493
117	0x3dea72bb	0.11447664
118	0xbd0176ef	-0.031607565
119	0xbbd75660	-0.006571576
120	0xba828a77	-0.0009959479
121	0xbd5437f9	-0.051811192
122	0xb9e64085	-0.0004391709
123	0xbbc87a06	-0.006118062
124	0x3d7f941a	0.0623971
125	0xbae63df2	-0.0017566069
126	0x3dd7ed23	0.10543277
127	0x3ddf320d	0.10898218
128	0x3dbf3af4	0.09337416
129	0x3c0367ba	0.008020336
130	0x3d4b2b2c	0.04960172
131	0x3bf2f7e7	0.007414806
132	0x3de229c1	0.1104312
133	0x3d8e9c87	0.06963449
134	0x3d9d68fb	0.07686039
135	0xbdb45532	-0.08805312
136	0xbd890c98	-0.06691855
137	0xbda719aa	-0.08159192
138	0xbd64a3c9	-0.05582026
139	0x3d26df66	0.040740393
140	0x3d37e0c7	0.0448921
141	0xbc39773d	-0.0113199325
142	0x3d100105	0.035157222
143	0xbd8a447d	-0.06751344
144	0x3d8d6b50	0.06905234
145	0xbe224697	-0.1584724
146	0x3dbf880f	0.09352123
147	0x3d27231f	0.04080498
148	0x3d09e8cc	0.033669278
149	0xbdf236e9	-0.118268795
150	0xbe3a7de2	-0.18212083
151	0xbdcf9f26	-0.10137777
152	0xbd022a5e	-0.031778686
153	0xbe1cc85c	-0.15310806
154	0xbdcd0eb8	-0.10012573
155	0xbcf11ecd	-0.029433632
156	0xbcb4e86d	-0.022083485
157	0x3da7020f	0.081546895
158	0xbd3465bf	-0.044042345
159	0x3e1e6153	0.15466814
160	0x3d5bf596	0.053701006
161	0xbdb0f6dc	-0.08640835
162	0x3dccee53	0.10006394
163	0xbd368013	-0.044555735
164	0x39f2ebdc	0.00046333566
165	0x3c599a9e	0.0132814925
166	0xbcffa4aa	-0.031206448
167	0xbe11201b	-0.14172404
168	0x3d6282ed	0.05530064
169	0xbe067d0b	-0.13133638
170	0xbd748d13	-0.05970485
171	0xbceb4c7a	-0.02872299
172	0x3cd6d7e4	0.026225992
173	0x3d59c88c	0.053169772
174	0xbdb386ad	-0.08765922
175	0xbe6e0f79	-0.2324809
176	0xbe298d4b	-0.16557805
177	0x3d488305	0.048953075
178	0xbddb7851	-0.10716308
179	0xbb932b39	-0.0044912365
180	0x3d0dc3d6	0.03461059
181	0x3c034487	0.008011944
182	0x3d94511a	0.072420314
183	0x3e0d0a05	0.13773353
184	0x3d288e04	0.04115106
185	0xbd9e8891	-0.07740892
186	0xbdbf5ace	-0.093434915
187	0x3d90bd9e	0.070674166
188	0x3e0fcf17	0.14043842
189	0xbb17da41	-0.002317086
190	0x3b8e609b	0.0043450124
191	0x3b26e0e4	0.0025463635
192	0x3d8fb274	0.07016459
193	0x3d8025d1	0.06257213
194	0xbc584533	-0.013200092
195	0x3d8691fd	0.06570814
196	0xbca685a5	-0.020327399
197	0xbe312b92	-0.17301777
198	0x3d56447a	0.052311398
199	0x3abfa54b	0.0014621405
200	0x3d7d5b6e	0.061854772
201	0x3db58c80	0.08864689
202	0x3ddea9fb	0.10872265
203	0xbd37ba83	-0.044855606
204	0x3cdf0729	0.027225094
205	0x3d5d79c0	0.054071188
206	0x3dc93459	0.09824438
207	0x3d84cf7c	0.06484887
208	0xbd296e1d	-0.041364778
209	0xbe368585	-0.17824371
210	0x3d79675f	0.060889598
211	0x3d998f2f	0.07498013
212	0x3d42132c	0.047381565
213	0xbd875240	-0.06607485
214	0x3c841c68	0.016126826
215	0x3e297ddf	0.16551922
216	0x3d66f706	0.056387924
217	0xbb4bb9d2	-0.00310861
218	0x3d5affe5	0.053466696
219	0xbcaf8d60	-0.021429718
220	0xbe2cbfdb	-0.16870062
221	0x3da50d88	0.080592215
222	0x3d7934f1	0.060841504
223	0xbdace48b	-0.084420286
224	0x3da49bb7	0.08037513
225	0xbd27afef	-0.040939268
226	0x3c3ab5f7	0.011395923
227	0xbda81165	-0.08206443
228	0xbe04f4d2	-0.12984017
229	0x3d26e6fd	0.04074763
230	0x3c0d677b	0.008630629
231	0x3dd7de84	0.10540488
232	0xbbd4dd33	-0.0064960956
233	0x3d69c2de	0.057070605
234	0xbcbff951	-0.023434313
235	0x3c0da104	0.008644346
236	0xbcc0a7bb	-0.02351748
237	0x3db212c1	0.08694983
238	0x3df1bee8	0.118039906
239	0x3cdb0c9e	0.026739415
240	0xbd154e2c	-0.036451504
241	0xbe0383dc	-0.12843269
242	0xbda731d1	-0.081637986
243	0x3d9723e8	0.073798954
244	0xbc397eec	-0.011321764
245	0x3db444b9	0.0880217
246	0xbda4c5e4	-0.08045557
247	0xbcc16969	-0.023609834
248	0xbdaacfeb	-0.083404385
249	0xbe1bc2a7	-0.15210973
250	0xbdaaf510	-0.08347523
251	0xba867f08	-0.0010261247
252	0x3db0af9d	0.086272456
253	0x3d13d5c5	0.03609254
254	0x3e104936	0.14090428
255	0x3d5b9b19	0.05361471

network_body._body_endoder.seq_layers.2.bias f4 [128]
0	0x00000000	0.0
1	0x00000000	0.0
2	0x00000000	0.0
3	0x00000000	0.0
4	0x00000000	0.0
5	0x00000000	0.0
6	0x00000000	0.0
7	0x00000000	0.0
8	0x00000000	0.0
9	0x00000000	0.0
10	0x00000000	0.0
11	0x00000000	0.0
12	0x00000000	0.0
13	0x00000000	0.0
14	0x00000000	0.0
15	0x00000000	0.0
16	0x00000000	0.0
17	0x00000000	0.0
18	0x00000000	0.0
19	0x00000000	0.0
20	0x00000000	0.0
21	0x00000000	0.0
22	0x00000000	0.0
23	0x00000000	0.0
24	0x00000000	0.0
25	0x00000000	0.0
26	0x00000000	0.0
27	0x00000000	0.0
28	0x00000000	0.0
29	0x00000000	0.0
30	0x00000000	0.0
31	0x00000000	0.0
32	0x00000000	0.0
33	0x00000000	0.0
34	0x00000000	0.0
35	0x00000000	0.0
36	0x00000000	0.0
37	0x00000000	0.0
38	0x00000000	0.0
39	0x00000000	0.0
40	0x00000000	0.0
41	0x00000000	0.0
42	0x00000000	0.0
43	0x00000000	0.0
44	0x00000000	0.0
45	0x00000000	0.0
46	0x00000000	0.0
47	0x00000000	0.0
48	0x00000000	0.0
49	0x00000000	0.0
50	0x00000000	0.0
51	0x00000000	0.0
52	0x00000000	0.0
53	0x00000000	0.0
54	0x00000000	0.0
55	0x00000000	0.0
56	0x00000000	0.0
57	0x00000000	0.0
58	0x00000000	0.0
59	0x00000000	0.0
60	0x00000000	0.0
61	0x00000000	0.0
62	0x00000000	0.0
63	0x00000000	0.0
64	0x00000000	0.0
65	0x00000000	0.0
66	0x00000000	0.0
67	0x00000000	0.0
68	0x00000000	0.0
69	0x00000000	0.0
70	0x00000000	0.0
71	0x00000000	0.0
72	0x00000000	0.0
73	0x00000000	0.0
74	0x00000000	0.0
75	0x00000000	0.0
76	0x00000000	0.0
77	0x00000000	0.0
78	0x00000000	0.0
79	0x00000000	0.0
80	0x00000000	0.0
81	0x00000000	0.0
82	0x00000000	0.0
83	0x00000000	0.0
84	0x00000000	0.0
85	0x00000000	0.0
86	0x00000000	0.0
87	0x00000000	0.0
88	0x00000000	0.0
89	0x00000000	0.0
90	0x00000000	0.0
91	0x00000000	0.0
92	0x00000000	0.0
93	0x00000000	0.0
94	0x00000000	0.0
95	0x00000000	0.0
96	0x00000000	0.0
97	0x00000000	0.0
98	0x00000000	0.0
99	0x00000000	0.0
100	0x00000000	0.0
101	0x00000000	0.0
102	0x00000000	0.0
103	0x00000000	0.0
104	0x00000000	0.0
105	0x00000000	0.0
106	0x00000000	0.0
107	0x00000000	0.0
108	0x00000000	0.0
109	0x00000000	0.0
110	0x00000000	0.0
111	0x00000000	0.0
112	0x00000000	0.0
113	0x00000000	0.0
114	0x00000000	0.0
115	0x00000000	0.0
116	0x00000000	0.0
117	0x00000000	0.0
118	0x00000000	0.0
119	0x00000000	0.0
120	0x00000000	0.0
121	0x00000000	0.0
122	0x00000000	0.0
123	0x00000000	0.0
124	0x00000000	0.0
125	0x00000000	0.0
126	0x00000000	0.0
127	0x00000000	0.0

action_model._continuous_distribution.log_sigma f4 [1, 1000]
0	0x00000000	0.0
1	0x00000000	0.0
2	0x00000000	0.0
3	0x00000000	0.0
4	0x00000000	0.0
5	0x00000000	0.0
6	0x00000000	0.0
7	0x00000000	0.0
8	0x00000000	0.0
9	0x00000000	0.0
10	0x00000000	0.0
11	0x00000000	0.0
12	0x00000000	0.0
13	0x00000000	0.0
14	0x00000000	0.0
15	0x00000000	0.0
16	0x00000000	0.0
17	0x00000000	0.0
18	0x00000000	0.0
19	0x00000000	0.0
20	0x00000000	0.0
21	0x00000000	0.0
22	0x00000000	0.0
23	0x00000000	0.0
24	0x00000000	0.0
25	0x00000000	0.0
26	0x00000000	0.0
27	0x00000000	0.0
28	0x00000000	0.0
29	0x00000000	0.0
30	0x00000000	0.0
31	0x00000000	0.0
32	0x00000000	0.0
33	0x00000000	0.0
34	0x00000000	0.0
35	0x00000000	0.0
36	0x00000000	0.0
37	0x00000000	0.0
38	0x00000000	0.0
39	0x00000000	0.0
40	0x00000000	0.0
41	0x00000000	0.0
42	0x00000000	0.0
43	0x00000000	0.0
44	0x00000000	0.0
45	0x00000000	0.0
46	0x00000000	0.0
47	0x00000000	0.0
48	0x00000000	0.0
49	0x00000000	0.0
50	0x00000000	0.0
51	0x00000000	0.0
52	0x00000000	0.0
53	0x00000000	0.0
54	0x00000000	0.0
55	0x00000000	0.0
56	0x00000000	0.0
57	0x00000000	0.0
58	0x00000000	0.0
59	0x00000000	0.0
60	0x00000000	0.0
61	0x00000000	0.0
62	0x00000000	0.0
63	0x00000000	0.0
64	0x00000000	0.0
65	0x00000000	0.0
66	0x00000000	0.0
67	0x00000000	0.0
68	0x00000000	0.0
69	0x00000000	0.0
70	0x00000000	0.0
71	0x00000000	0.0
72	0x00000000	0.0
73	0x00000000	0.0
74	0x00000000	0.0
75	0x00000000	0.0
76	0x00000000	0.0
77	0x00000000	0.0
78	0x00000000	0.0
79	0x00000000	0.0
80	0x00000000	0.0
81	0x00000000	0.0
82	0x00000000	0.0
83	0x00000000	0.0
84	0x00000000	0.0
85	0x00000000	0.0
86	0x00000000	0.0
87	0x00000000	0.0
88	0x00000000	0.0
89	0x00000000	0.0
90	0x00000000	0.0
91	0x00000000	0.0
92	0x00000000	0.0
93	0x00000000	0.0
94	0x00000000	0.0
95	0x00000000	0.0
96	0x00000000	0.0
97	0x00000000	0.0
98	0x00000000	0.0
99	0x00000000	0.0
100	0x00000000	0.0
101	0x00000000	0.0
102	0x00000000	0.0
103	0x00000000	0.0
104	0x00000000	0.0
105	0x00000000	0.0
106	0x00000000	0.0
107	0x00000000	0.0
108	0x00000000	0.0
109	0x00000000	0.0
110	0x00000000	0.0
111	0x00000000	0.0
112	0x00000000	0.0
113	0x00000000	0.0
114	0x00000000	0.0
115	0x00000000	0.0
116	0x00000000	0.0
117	0x00000000	0.0
118	0x00000000	0.0
119	0x00000000	0.0
120	0x00000000	0.0
121	0x00000000	0.0
122	0x00000000	0.0
123	0x00000000	0.0
124	0x00000000	0.0
125	0x00000000	0.0
126	0x00000000	0.0
127	0x00000000	0.0
128	0x00000000	0.0
129	0x00000000	0.0
130	0x00000000	0.0
131	0x00000000	0.0
132	0x00000000	0.0
133	0x00000000	0.0
134	0x00000000	0.0
135	0x00000000	0.0
136	0x00000000	0.0
137	0x00000000	0.0
138	0x00000000	0.0
139	0x00000000	0.0
140	0x00000000	0.0
141	0x00000000	0.0
142	0x00000000	0.0
143	0x00000000	0.0
144	0x00000000	0.0
145	0x00000000	0.0
146	0x00000000	0.0
147	0x00000000	0.0
148	0x00000000	0.0
149	0x00000000	0.0
150	0x00000000	0.0
151	0x00000000	0.0
152	0x00000000	0.0
153	0x00000000	0.0
154	0x00000000	0.0
155	0x00000000	0.0
156	0x00000000	0.0
157	0x00000000	0.0
158	0x00000000	0.0
159	0x00000000	0.0
160	0x00000000	0.0
161	0x00000000	0.0
162	0x00000000	0.0
163	0x00000000	0.0
164	0x00000000	0.0
165	0x00000000	0.0
166	0x00000000	0.0
167	0x00000000	0.0
168	0x00000000	0.0
169	0x00000000	0.0
170	0x00000000	0.0
171	0x00000000	0.0
172	0x00000000	0.0
173	0x00000000	0.0
174	0x00000000	0.0
175	0x00000000	0.0
176	0x00000000	0.0
177	0x00000000	0.0
178	0x00000000	0.0
179	0x00000000	0.0
180	0x00000000	0.0
181	0x00000000	0.0
182	0x00000000	0.0
183	0x00000000	0.0
184	0x00000000	0.0
185	0x00000000	0.0
186	0x00000000	0.0
187	0x00000000	0.0
188	0x00000000	0.0
189	0x00000000	0.0
190	0x00000000	0.0
191	0x00000000	0.0
192	0x00000000	0.0
193	0x00000000	0.0
194	0x00000000	0.0
195	0x00000000	0.0
196	0x00000000	0.0
197	0x00000000	0.0
198	0x00000000	0.0
199	0x00000000	0.0
200	0x00000000	0.0
201	0x00000000	0.0
202	0x00000000	0.0
203	0x00000000	0.0
204	0x00000000	0.0
205	0x00000000	0.0
206	0x00000000	0.0
207	0x00000000	0.0
208	0x00000000	0.0
209	0x00000000	0.0
210	0x00000000	0.0
211	0x00000000	0.0
212	0x00000000	0.0
213	0x00000000	0.0
214	0x00000000	0.0
215	0x00000000	0.0
216	0x00000000	0.0
217	0x00000000	0.0
218	0x00000000	0.0
219	0x00000000	0.0
220	0x00000000	0.0
221	0x00000000	0.0
222	0x00000000	0.0
223	0x00000000	0.0
224	0x00000000	0.0
225	0x00000000	0.0
226	0x00000000	0.0
227	0x00000000	0.0
228	0x00000000	0.0
229	0x00000000	0.0
230	0x00000000	0.0
231	0x00000000	0.0
232	0x00000000	0.0
233	0x00000000	0.0
234	0x00000000	0.0
235	0x00000000	0.0
236	0x00000000	0.0
237	0x00000000	0.0
238	0x00000000	0.0
239	0x00000000	0.0
240	0x00000000	0.0
241	0x00000000	0.0
242	0x00000000	0.0
243	0x00000000	0.0
244	0x00000000	0.0
245	0x00000000	0.0
246	0x00000000	0.0
247	0x00000000	0.0
248	0x00000000	0.0
249	0x00000000	0.0
250	0x00000000	0.0
251	0x00000000	0.0
252	0x00000000	0.0
253	0x00000000	0.0
254	0x00000000	0.0
255	0x00000000	0.0

action_model._continuous_distribution.mu.weight f4 [1000, 128]
0	0xbc52d162	-0.012867304
1	0x3af9b733	0.001905179
2	0x3cba263d	0.022723312
3	0x3c3cb9e3	0.011518928
4	0xb98d174a	-0.00026910967
5	0xbc11c1c0	-0.008896291
6	0xbb8149f7	-0.003945585
7	0xbcea404a	-0.028595109
8	0xbc718dfd	-0.014743325
9	0x3c61a245	0.013771598
10	0x38845e5a	6.311825e-05
11	0x3c7ab1ad	0.01530115
12	0x3ce712a7	0.028207136
13	0xbc49eeef	-0.012325033
14	0xbc896253	-0.016770517
15	0xbb4065cc	-0.002935755
16	0x3cf64840	0.030063748
17	0xbc0c9299	-0.0085798735
18	0xbc27ae31	-0.010234402
19	0xbc224f1d	-0.009906557
20	0x3b94772a	0.004530807
21	0x3a759982	0.0009368883
22	0xbcf8fcff	-0.030394075
23	0xbcda19f3	-0.026623702
24	0x3c61a2ca	0.013771722
25	0xbd09ba63	-0.033625018
26	0x3d542dd7	0.05180153
27	0xbaff7093	-0.0019488506
28	0x3aa4a18f	0.0012560355
29	0xbce6fd7a	-0.028197039
30	0x3bc7ad8b	0.006093686
31	0xbc6e4315	-0.014542361
32	0x3cf045ef	0.029330222
33	0x3cb0bfa0	0.021575749
34	0x3cfb39df	0.030667244
35	0x3cc0f75b	0.023555448
36	0xb9ded652	-0.0004250282
37	0x3cdc1997	0.026867671
38	0x3c29293c	0.010324772
39	0x3cfe410f	0.031036882
40	0x3cefddcf	0.029280571
41	0xbd382781	-0.04495955
42	0x3d211173	0.03932328
43	0xbcaa761d	-0.020808274
44	0x3ba8bc50	0.0051494017
45	0xbb801a21	-0.003909365
46	0xbc27cefc	-0.01024222
47	0xbb5115dd	-0.00319039
48	0x3cbdd777	0.02317403
49	0x3c3244ff	0.010880708
50	0x3c2ded5e	0.010615675
51	0xbcbf0f91	-0.023322852
52	0xb998c197	-0.00029135935
53	0x3c90c3af	0.017671434
54	0x3d08e0e3	0.033417594
55	0xbc8e1aef	-0.017346827
56	0x3c4455ac	0.011983316
57	0x3c102dfe	0.008800028
58	0x3c9b20f4	0.018936612
59	0x3c906294	0.01762513
60	0xbbe4b260	-0.006979272
61	0xbb8c3c64	-0.00427966
62	0xbb14a89f	-0.0022683514
63	0xbc99770b	-0.018733522
64	0xbc6e0830	-0.014528319
65	0xbc8f6a63	-0.017506784
66	0x3c7f7d8d	0.0155938985
67	0x3b397979	0.0028301163
68	0x3cb86e8f	0.022513656
69	0x3cdb8c18	0.0268002
70	0x3c389079	0.011264914
71	0xbb996ccb	-0.0046821586
72	0x3d13b3e6	0.036060236
73	0xbce08a12	-0.027409587
74	0x3bd79c05	0.0065798783
75	0xbd17bf1b	-0.037047487
76	0x3cbc4ad5	0.022984901
77	0xbbccb495	-0.006247113
78	0xbc17ab17	-0.0092571
79	0xbc1a7ba7	-0.009428895
80	0x3d1adfec	0.037811205
81	0x3be1a3e7	0.0068859938
82	0xbbe6e00f	-0.007045753
83	0x3c1e5fb9	0.009666377
84	0x3a71af25	0.0009219519
85	0xbc25e3d7	-0.010125122
86	0xbc1166bb	-0.0088745905
87	0xbc470713	-0.012147683
88	0x3cc1a43d	0.023637885
89	0xbc87a69f	-0.016558943
90	0x3c93f0b1	0.018059107
91	0x3be3d8e2	0.0069533447
92	0x3b614905	0.0034375798
93	0x3cca86c1	0.024722459
94	0xbbb306ff	-0.0054634805
95	0x3be3593b	0.0069381273
96	0xbcba8262	-0.02276725
97	0x3c189b3a	0.009314353
98	0xbbd2940a	-0.006426339
99	0xbb72c6b3	-0.0037044703
100	0x3cd1d48b	0.025614044
101	0xbcb00034	-0.021484472
102	0xbb6dd08f	-0.003628764
103	0x3cbeb406	0.023279201
104	0xbce7bcfb	-0.028288355
105	0x3c2aa1b8	0.010414533
106	0xbc697e97	-0.014251373
107	0xbc741338	-0.01489716
108	0x3cbdf137	0.02318631
109	0xb91eaaa0	-0.00015131617
110	0x3d0d98b6	0.034569465
111	0xbbcbbcb7	-0.006217565
112	0xbba01287	-0.004885021
113	0xbb1f90e7	-0.0024347843
114	0xbcbf693f	-0.023365615
115	0x39d594a8	0.00040737283
116	0xbc1e8b05	-0.0096766995
117	0xbb04eee3	-0.002028399
118	0x3c295993	0.010336298
119	0x3c27338d	0.010205162
120	0xbbba8784	-0.0056924243
121	0x3cce3787	0.025172962
122	0xbbbfbfaa	-0.0058517056
123	0x3c6561b5	0.014000346
124	0x3d18e90b	0.037331622
125	0xbcf77210	-0.030205756
126	0x3ad14410	0.0015965719
127	0x3d33d40f	0.043903407
128	0x3cf45bf2	0.029829
129	0xbbe51a30	-0.006991647
130	0xbc35241b	-0.0110559715
131	0x3c5f1baf	0.01361744
132	0xbc8efd03	-0.01745463
133	0xbc5ef5a7	-0.013608373
134	0x3d690d3f	0.056897398
135	0xbcf28f5b	-0.029609373
136	0xbc5c6507	-0.013451821
137	0x3cda6fa0	0.026664555
138	0xbb8036cb	-0.003912782
139	0x3c6c13ef	0.014409049
140	0x3cb71700	0.022349834
141	0xbc152aab	-0.009104411
142	0xbc4150f2	-0.011799084
143	0x3cd648d5	0.026157776
144	0xbcc041a2	-0.023468796
145	0xbc6c267b	-0.014413471
146	0xbba7915e	-0.0051137647
147	0x3cb798a2	0.022411648
148	0x3bfffc47	0.007812056
149	0x3d01ad02	0.031659134
150	0x3d3d3e87	0.04620221
151	0x3d143643	0.03618456
152	0xbc65c2ad	-0.014023465
153	0xbbd217ad	-0.006411514
154	0xbc474f8c	-0.012164962
155	0xbc815012	-0.01578525
156	0xbc8b19e5	-0.01698012
157	0xbcd2eb7a	-0.02574705
158	0x3d07ab3c	0.033122286
159	0x3c2b173f	0.010442554
160	0x3d3a8707	0.04553893
161	0xbcb6d500	-0.022318363
162	0x3ceb9bff	0.028760908
163	0xbc80d02b	-0.015724262
164	0x3b7192d5	0.00368612
165	0xbb44756f	-0.0029977222
166	0x3caf57e3	0.021404212
167	0x3cbc52b7	0.02298866
168	0x3ce21ee3	0.027602619
169	0x3c4c20c8	0.0124589875
170	0xbc033687	-0.008008606
171	0x39515052	0.00019961715
172	0xbccf3f3b	-0.025298705
173	0x3c2f35fd	0.010694024
174	0x3cc1709a	0.023613263
175	0xbc64600a	-0.013938913
176	0x3c3693f2	0.011143671
177	0x3c66cdfa	0.014087195
178	0xbbad0e81	-0.00528127
179	0x3c9b3d6b	0.018950185
180	0xbc4f621d	-0.012657669
181	0xbd122934	-0.035683826
182	0xbc3ffac8	-0.011717506
183	0x3a8b924f	0.0010648462
184	0x3c4734a4	0.012158547
185	0x3b9b95e7	0.0047480944
186	0xbc86856c	-0.016421042
187	0xbca4cb16	-0.02011637
188	0x3bd873bd	0.006605594
189	0xbd361ed7	-0.044463005
190	0x3cc9119f	0.024544535
191	0x3cae153b	0.021250358
192	0x3ba70578	0.0050970875
193	0xbc8c9c51	-0.017164381
194	0x3cd0ecdd	0.02550357
195	0xbc8999c9	-0.016796963
196	0x3cdd4367	0.027009679
197	0xbb57bbbf	-0.0032918302
198	0x3c3c1899	0.011480474
199	0x3cc1e741	0.02366984
200	0x3cd95033	0.0265275
201	0x3b801d35	0.0039097317
202	0x38617aa5	5.3758402e-05
203	0x3c606857	0.013696752
204	0xbc8fa1c4	-0.01753319
205	0xbc6bcfbb	-0.0143927885
206	0xbc0ed7cd	-0.008718443
207	0xbc16ff7f	-0.009216188
208	0xbd1af81f	-0.037834283
209	0xbd808ca7	-0.06276827
210	0x3b5076ba	0.0031809048
211	0x3ced2995	0.028950492
212	0x3be93b48	0.0071176626
213	0x3b61aceb	0.0034435343
214	0xbc6193e2	-0.013768168
215	0x3cbf66fe	0.02336454
216	0x3b894677	0.0041893083
217	0xbcb5ccce	-0.022192385
218	0xbd1fc7c8	-0.039008886
219	0xbb45d13b	-0.0030184526
220	0xbc94de5d	-0.018172437
221	0xbbb3ef37	-0.005491163
222	0xbcb38bd4	-0.021917261
223	0x3d169e62	0.03677214
224	0x3c857ad4	0.01629392
225	0x3b04d50e	0.0020268592
226	0xbb9c5647	-0.0047710272
227	0x3bc266e3	0.005932675
228	0xb8bdbbe2	-9.047218e-05
229	0xbac55a16	-0.0015056755
230	0x3c96b7fb	0.018398276
231	0xbbeddd8f	-0.007259078
232	0x3c28bedd	0.010299412
233	0xbcb3865b	-0.021914652
234	0x3cbefeea	0.023314912
235	0x3c6a9767	0.014318324
236	0xbc2c5ae5	-0.010519718
237	0xbc4761ac	-0.012169283
238	0xbcd76f00	-0.026298046
239	0xbc791e30	-0.015204951
240	0x3c1a70e3	0.009426328
241	0xbcb76ff9	-0.02239226
242	0xbc0fbade	-0.00877258
243	0x3bc889c5	0.006119939
244	0xbbe4b015	-0.0069789984
245	0xbc1d0fea	-0.009586314
246	0xbb0c503c	-0.0021410128
247	0xbc313a15	-0.0108170705
248	0xbb63c10d	-0.0034752518
249	0x3c1fbe16	0.00974991
250	0xbc8b5c05	-0.017011652
251	0x3bdd175a	0.0067471685
252	0xbb4fe7da	-0.0031723888
253	0x3cb1489b	0.021641066
254	0xbbe6872d	-0.007035157
255	0xbc501b17	-0.012701771

action_model._continuous_distribution.mu.bias f4 [1000]
0	0x00000000	0.0
1	0x00000000	0.0
2	0x00000000	0.0
3	0x00000000	0.0
4	0x00000000	0.0
5	0x00000000	0.0
6	0x00000000	0.0
7	0x00000000	0.0
8	0x00000000	0.0
9	0x00000000	0.0
10	0x00000000	0.0
11	0x00000000	0.0
12	0x00000000	0.0
13	0x00000000	0.0
14	0x00000000	0.0
15	0x00000000	0.0
16	0x00000000	0.0
17	0x00000000	0.0
18	0x00000000	0.0
19	0x00000000	0.0
20	0x00000000	0.0
21	0x00000000	0.0
22	0x00000000	0.0
23	0x00000000	0.0
24	0x00000000	0.0
25	0x00000000	0.0
26	0x00000000	0.0
27	0x00000000	0.0
28	0x00000000	0.0
29	0x00000000	0.0
30	0x00000000	0.0
31	0x00000000	0.0
32	0x00000000	0.0
33	0x00000000	0.0
34	0x00000000	0.0
35	0x00000000	0.0
36	0x00000000	0.0
37	0x00000000	0.0
38	0x00000000	0.0
39	0x00000000	0.0
40	0x00000000	0.0
41	0x00000000	0.0
42	0x00000000	0.0
43	0x00000000	0.0
44	0x00000000	0.0
45	0x00000000	0.0
46	0x00000000	0.0
47	0x00000000	0.0
48	0x00000000	0.0
49	0x00000000	0.0
50	0x00000000	0.0
51	0x00000000	0.0
52	0x00000000	0.0
53	0x00000000	0.0
54	0x00000000	0.0
55	0x00000000	0.0
56	0x00000000	0.0
57	0x00000000	0.0
58	0x00000000	0.0
59	0x00000000	0.0
60	0x00000000	0.0
61	0x00000000	0.0
62	0x00000000	0.0
63	0x00000000	0.0
64	0x00000000	0.0
65	0x00000000	0.0
66	0x00000000	0.0
67	0x00000000	0.0
68	0x00000000	0.0
69	0x00000000	0.0
70	0x00000000	0.0
71	0x00000000	0.0
72	0x00000000	0.0
73	0x00000000	0.0
74	0x00000000	0.0
75	0x00000000	0.0
76	0x00000000	0.0
77	0x00000000	0.0
78	0x00000000	0.0
79	0x00000000	0.0
80	0x00000000	0.0
81	0x00000000	0.0
82	0x00000000	0.0
83	0x00000000	0.0
84	0x00000000	0.0
85	0x00000000	0.0
86	0x00000000	0.0
87	0x00000000	0.0
88	0x00000000	0.0
89	0x00000000	0.0
90	0x00000000	0.0
91	0x00000000	0.0
92	0x00000000	0.0
93	0x00000000	0.0
94	0x00000000	0.0
95	0x00000000	0.0
96	0x00000000	0.0
97	0x00000000	0.0
98	0x00000000	0.0
99	0x00000000	0.0
100	0x00000000	0.0
101	0x00000000	0.0
102	0x00000000	0.0
103	0x00000000	0.0
104	0x00000000	0.0
105	0x00000000	0.0
106	0x00000000	0.0
107	0x00000000	0.0
108	0x00000000	0.0
109	0x00000000	0.0
110	0x00000000	0.0
111	0x00000000	0.0
112	0x00000000	0.0
113	0x00000000	0.0
114	0x00000000	0.0
115	0x00000000	0.0
116	0x00000000	0.0
117	0x00000000	0.0
118	0x00000000	0.0
119	0x00000000	0.0
120	0x00000000	0.0
121	0x00000000	0.0
122	0x00000000	0.0
123	0x00000000	0.0
124	0x00000000	0.0
125	0x00000000	0.0
126	0x00000000	0.0
127	0x00000000	0.0
128	0x00000000	0.0
129	0x00000000	0.0
130	0x00000000	0.0
131	0x00000000	0.0
132	0x00000000	0.0
133	0x00000000	0.0
134	0x00000000	0.0
135	0x00000000	0.0
136	0x00000000	0.0
137	0x00000000	0.0
138	0x00000000	0.0
139	0x00000000	0.0
140	0x00000000	0.0
141	0x00000000	0.0
142	0x00000000	0.0
143	0x00000000	0.0
144	0x00000000	0.0
145	0x00000000	0.0
146	0x00000000	0.0
147	0x00000000	0.0
148	0x00000000	0.0
149	0x00000000	0.0
150	0x00000000	0.0
151	0x00000000	0.0
152	0x00000000	0.0
153	0x00000000	0.0
154	0x00000000	0.0
155	0x00000000	0.0
156	0x00000000	0.0
157	0x00000000	0.0
158	0x00000000	0.0
159	0x00000000	0.0
160	0x00000000	0.0
161	0x00000000	0.0
162	0x00000000	0.0
163	0x00000000	0.0
164	0x00000000	0.0
165	0x00000000	0.0
166	0x00000000	0.0
167	0x00000000	0.0
168	0x00000000	0.0
169	0x00000000	0.0
170	0x00000000	0.0
171	0x00000000	0.0
172	0x00000000	0.0
173	0x00000000	0.0
174	0x00000000	0.0
175	0x00000000	0.0
176	0x00000000	0.0
177	0x00000000	0.0
178	0x00000000	0.0
179	0x00000000	0.0
180	0x00000000	0.0
181	0x00000000	0.0
182	0x00000000	0.0
183	0x00000000	0.0
184	0x00000000	0.0
185	0x00000000	0.0
186	0x00000000	0.0
187	0x00000000	0.0
188	0x00000000	0.0
189	0x00000000	0.0
190	0x00000000	0.0
191	0x00000000	0.0
192	0x00000000	0.0
193	0x00000000	0.0
194	0x00000000	0.0
195	0x00000000	0.0
196	0x00000000	0.0
197	0x00000000	0.0
198	0x00000000	0.0
199	0x00000000	0.0
200	0x00000000	0.0
201	0x00000000	0.0
202	0x00000000	0.0
203	0x00000000	0.0
204	0x00000000	0.0
205	0x00000000	0.0
206	0x00000000	0.0
207	0x00000000	0.0
208	0x00000000	0.0
209	0x00000000	0.0
210	0x00000000	0.0
211	0x00000000	0.0
212	0x00000000	0.0
213	0x00000000	0.0
214	0x00000000	0.0
215	0x00000000	0.0
216	0x00000000	0.0
217	0x00000000	0.0
218	0x00000000	0.0
219	0x00000000	0.0
220	0x00000000	0.0
221	0x00000000	0.0
222	0x00000000	0.0
223	0x00000000	0.0
224	0x00000000	0.0
225	0x00000000	0.0
226	0x00000000	0.0
227	0x00000000	0.0
228	0x00000000	0.0
229	0x00000000	0.0
230	0x00000000	0.0
231	0x00000000	0.0
232	0x00000000	0.0
233	0x00000000	0.0
234	0x00000000	0.0
235	0x00000000	0.0
236	0x00000000	0.0
237	0x00000000	0.0
238	0x00000000	0.0
239	0x00000000	0.0
240	0x00000000	0.0
241	0x00000000	0.0
242	0x00000000	0.0
243	0x00000000	0.0
244	0x00000000	0.0
245	0x00000000	0.0
246	0x00000000	0.0
247	0x00000000	0.0
248	0x00000000	0.0
249	0x00000000	0.0
250	0x00000000	0.0
251	0x00000000	0.0
252	0x00000000	0.0
253	0x00000000	0.0
254	0x00000000	0.0
255	0x00000000	0.0

action_model._discrete_distribution.branches.0.weight f4 [2, 128]
0	0x3b52a090	0.003213916
1	0xbbc348db	-0.005959613
2	0xbc370962	-0.011171671
3	0x3bbcb6cb	0.0057590953
4	0x3bb3bc29	0.005485077
5	0xba8ea035	-0.0010881486
6	0xbbe6383f	-0.007025748
7	0x3bf285b7	0.007401194
8	0xbc42366a	-0.011853794
9	0xbba95daf	-0.0051686387
10	0x3c196a13	0.009363669
11	0x3b0bc8cb	0.0021329399
12	0x3c65fa9b	0.0140368
13	0x3c019def	0.007911189
14	0xbca2cbb0	-0.019872516
15	0xbc987712	-0.018611465
16	0xbc405893	-0.011739868
17	0x3cb8633c	0.022508256
18	0x3b9b28b2	0.004735076
19	0xbbb8de9e	-0.0056417724
20	0xba9a5b17	-0.0011776414
21	0x3b3361a3	0.0027371428
22	0xbc586397	-0.013207338
23	0x3a9dbef7	0.0012035061
24	0x3bdb375a	0.006689948
25	0x3c71f96d	0.01476894
26	0xbbce82a2	-0.0063021937
27	0xbc4cad76	-0.012492528
28	0xbbb5251f	-0.005528107
29	0xba968e01	-0.0011486412
30	0x39539fc5	0.00020182047
31	0x3bc3defb	0.005977509
32	0xbb9de48b	-0.004818504
33	0x3c05b04e	0.00815971
34	0x3c0b730a	0.008511314
35	0x3bb1cd46	0.005426082
36	0x3bbd3925	0.0057746344
37	0x3b2b9a87	0.0026184635
38	0x3c6479ea	0.013945082
39	0x3bfcd62b	0.0077159605
40	0x3bd8e947	0.0066196057
41	0xbc0e6774	-0.008691657
42	0xbbf24fe8	-0.0073947795
43	0xbb20591d	-0.0024467178
44	0xb9340738	-0.00017168827
45	0xbbd2867a	-0.0064247223
46	0x3b494c16	0.0030715517
47	0x3b3d33ff	0.0028870103
48	0xbad8852f	-0.0016519184
49	0x3c0b2e6d	0.0084949555
50	0x39facf47	0.0004783815
51	0xbc51e57a	-0.012811059
52	0x3c15c5f0	0.00914143
53	0xbc7630f2	-0.015026318
54	0xbc006922	-0.007837566
55	0x3b543785	0.0032381725
56	0x3b6ba3ba	0.0035955743
57	0xbc8d1c1e	-0.017225321
58	0xbbb67a7e	-0.0055688014
59	0xbb4a6bd8	-0.0030887034
60	0xbc4fc592	-0.012681382
61	0x3be7fb57	0.0070795226
62	0x3a09056f	0.0005226945
63	0x3aa2549e	0.0012384837
64	0xbc129f75	-0.00894915
65	0x3c480994	0.012209315
66	0x3abfaf52	0.0014624393
67	0x3ab881e7	0.00140768
68	0x3a41391c	0.00073708757
69	0xbbe94688	-0.0071190037
70	0xbb9fe209	-0.0048792404
71	0x3bc04a4c	0.005868232
72	0xb9194fa7	-0.0001462089
73	0x3c300978	0.010744445
74	0xbc593af7	-0.013258687
75	0xbc3a5d46	-0.011374777
76	0x3b058b4b	0.0020377215
77	0xbbdf7cf2	-0.0068203146
78	0xbb15089b	-0.0022740725
79	0xbc0ce9f7	-0.008600703
80	0xbb8c02dc	-0.004272802
81	0xbad025a3	-0.0015880357
82	0xbc8587c7	-0.016300095
83	0x3c99f889	0.018795269
84	0x3c9f6dff	0.01946163
85	0xba800dfc	-0.0009769793
86	0xbc539883	-0.01291478
87	0x3a53d24f	0.00080803497
88	0xbc66d80f	-0.014089598
89	0xbc8530f3	-0.016258692
90	0x3b48a953	0.0030618503
91	0x3c2beae7	0.010493017
92	0xbc787442	-0.015164437
93	0xbc360988	-0.011110671
94	0x3bb5c76b	0.005547454
95	0xbb04ca76	-0.0020262278
96	0xba8ef018	-0.0010905294
97	0xbb616483	-0.0034392185
98	0xbc47b57f	-0.012189268
99	0xbcc4bbb8	-0.024015293
100	0x3c3fec51	0.011714057
101	0x3abe19b4	0.001450351
102	0x3bbac76d	0.005700043
103	0x3bc89f2f	0.006122492
104	0xbb931ee3	-0.004489766
105	0x3cab572b	0.020915588
106	0xbc74974f	-0.014928653
107	0x3c9c3da7	0.019072367
108	0xbbe2399a	-0.0069038393
109	0x3c1f4033	0.009719896
110	0x3c338c5b	0.010958756
111	0xbae70458	-0.0017625196
112	0xbc8b8134	-0.017029382
113	0x3b299184	0.0025874088
114	0x3c82f9ea	0.015988309
115	0xbc670e7b	-0.0141025735
116	0xbadc39c3	-0.0016801882
117	0x3b3b8760	0.0028614625
118	0xb9dfdf5a	-0.00042700284
119	0xb990d823	-0.00027626855
120	0x3bd657c7	0.0065412256
121	0xbc6ba625	-0.014382874
122	0x3c5d8b35	0.013521959
123	0x3bfa6b6b	0.0076421998
124	0x3b681ab8	0.0035416316
125	0xbb670577	-0.003525106
126	0xbc4b63ff	-0.012413978
127	0xbb44fee1	-0.0030059146
128	0xba533a45	-0.0008057694
129	0xbbedf663	-0.0072620376
130	0xba9d29b6	-0.001199058
131	0xbc1fb5e1	-0.009747953
132	0xba62dcca	-0.0008654116
133	0xbc57952f	-0.013158127
134	0xbb8ace72	-0.004236036
135	0xbc04ba96	-0.008101126
136	0xbbdbdd77	-0.0067097503
137	0x3c11c8fa	0.008898014
138	0xbb01ddae	-0.001981597
139	0x3b22c9c6	0.0024839505
140	0x3bde2ee0	0.0067804903
141	0x3af722a7	0.0018854932
142	0xbb87d95b	-0.004145784
143	0xbc85416c	-0.016266547
144	0xbb032f53	-0.002001722
145	0x3b88d22a	0.004175444
146	0xbc024467	-0.007950879
147	0xbc0ea021	-0.00870517
148	0x3c283943	0.0102675585
149	0x3bb7a557	0.005604427
150	0xba9f682e	-0.0012161785
151	0x3b264c58	0.0025375094
152	0x3bce41fb	0.0062944866
153	0x3bb405fb	0.005493877
154	0x3bd8aab8	0.006612148
155	0x3c19ca1f	0.009386568
156	0x3b8a469f	0.0042198445
157	0xbbeb2f5a	-0.0071772756
158	0xbcb2fa3a	-0.021847833
159	0x3b6191fa	0.0034419284
160	0xbc9cd6a2	-0.019145314
161	0xbc87d051	-0.016578825
162	0xbc02e3ef	-0.007988914
163	0xba2cb5b3	-0.00065883546
164	0x3bfd78a5	0.007735329
165	0xbbe10ba3	-0.0068678423
166	0xbbcc2481	-0.0062299375
167	0x3c54cf6b	0.012988905
168	0xbca26f24	-0.019828387
169	0xbbab1740	-0.0052212775
170	0x3c110946	0.008852309
171	0x3b3edbaf	0.002912264
172	0xbb7e3475	-0.003878859
173	0x3c334095	0.0109406905
174	0x3c751d28	0.014960565
175	0x3bb60285	0.0055544996
176	0x3cc5a3fe	0.02412605
177	0x3b93d2b3	0.0045112013
178	0x3c44ef0c	0.012019884
179	0x3c67036a	0.014099935
180	0xbbabd1e1	-0.0052435254
181	0xbba20353	-0.004944244
182	0x3baec383	0.0053333654
183	0xbc651b5d	-0.013983575
184	0xbc0cebd8	-0.008601151
185	0xbcb3993e	-0.021923658
186	0x3b44c577	0.0030024925
187	0xbc30584b	-0.010763238
188	0x3b9ad42f	0.0047250013
189	0x3c543512	0.012952106
190	0x3bba4bc3	0.005685301
191	0xbc06797c	-0.008207675
192	0xbb2d0f06	-0.002640666
193	0x3c27fa99	0.010252618
194	0x3b7b57a3	0.0038351796
195	0x3c6fccc2	0.01463622
196	0x3be862ba	0.0070918472
197	0x3b0b8d8d	0.0021294088
198	0x3b1f101d	0.002427108
199	0x3c4e040f	0.01257421
200	0x3b1731d2	0.0023070467
201	0xbc5370e5	-0.012905334
202	0xbb4536a7	-0.003009239
203	0x3c43ff57	0.011962733
204	0x3cc7892f	0.024357406
205	0xbb736d37	-0.0037143955
206	0x3b289e0e	0.0025728974
207	0x3b0dc4fd	0.0021632307
208	0xbbbacfd7	-0.005701046
209	0xbd15db13	-0.03658588
210	0xbab912f1	-0.0014120025
211	0xbb6e81aa	-0.0036393204
212	0x3b1945f6	0.0023387647
213	0xbb3da383	-0.0028936572
214	0xbb97d6bc	-0.0046337526
215	0x3bb0b5ee	0.0053927815
216	0xbbb96787	-0.0056580934
217	0x3accdcbf	0.0015629752
218	0xbc3d00fb	-0.011535878
219	0x3b9c314a	0.004766618
220	0x3c39ca92	0.0113398
221	0x39f19caf	0.0004608384
222	0xbbbf3abd	-0.0058358596
223	0xbbd9cada	-0.0066464962
224	0xbb9c557d	-0.004770933
225	0x3a8b9797	0.0010650036
226	0x3c24fa33	0.010069418
227	0x3af34f9d	0.0018563155
228	0x3a47d023	0.00076222623
229	0xbbc4372f	-0.0059880237
230	0xbc375c70	-0.011191472
231	0x3b73512d	0.0037127242
232	0x3bd01efb	0.0063513494
233	0x3c2242dc	0.009903636
234	0x3bfba22f	0.007679246
235	0xbb14d5a3	-0.0022710345
236	0xbc1550c5	-0.009113495
237	0x3bc29ad5	0.0059388676
238	0xbb9cf864	-0.0047903527
239	0x3b6692ed	0.003518279
240	0xbb1e2052	-0.002412815
241	0x3b80f4c7	0.0039354297
242	0xbbbc76eb	-0.005751481
243	0x3c9d17de	0.01917642
244	0x37e5bef3	2.7387845e-05
245	0xbbf60b12	-0.007508644
246	0xbc7fc3f8	-0.015610687
247	0xbbb4b1eb	-0.0055143735
248	0x3bcc8201	0.0062410836
249	0xbb55be8a	-0.003261479
250	0xbc228c03	-0.009921077
251	0x3bf70aa3	0.00753911
252	0x3c98fded	0.018675769
253	0x3a37dc91	0.0007013763
254	0xbb0cdbc7	-0.0021493302
255	0xbbb2c094	-0.005455086

action_model._discrete_distribution.branches.0.bias f4 [2]
0	0x00000000	0.0
1	0x00000000	0.0

action_model._discrete_distribution.branches.1.weight f4 [2, 128]
0	0xbb829d37	-0.0039860266
1	0xbc003b0b	-0.007826577
2	0x3c643c53	0.013930398
3	0xbc874ba8	-0.016515568
4	0x3c5bd015	0.01341631
5	0xbc547562	-0.012967439
6	0xbc084fb2	-0.008319782
7	0x3a0f7835	0.00054729293
8	0x3a8e4336	0.0010853771
9	0x3b7ebd90	0.0038870312
10	0x3b10460f	0.0022014414
11	0xbc9dad55	-0.01924769
12	0x3be529f0	0.0069935247
13	0x3c5a883b	0.013338144
14	0xbbac26bf	-0.0052536423
15	0xbc508fc0	-0.012729585
16	0xbb870564	-0.0041205157
17	0x3b542847	0.003237264
18	0x3b01487f	0.001972705
19	0x3b1f110e	0.002427164
20	0x3bcd7e3b	0.0062711514
21	0x37b9502b	2.209105e-05
22	0xbc5c53da	-0.013447726
23	0xbc8bc984	-0.017063864
24	0xbba5c184	-0.0050584693
25	0xbb47c65b	-0.003048322
26	0x3c2de54b	0.01061375
27	0xbc15d8a3	-0.0091458885
28	0x3c4affcc	0.012390088
29	0xbb994066	-0.0046768663
30	0x3ab978ca	0.0014150378
31	0xbc5cc002	-0.013473513
32	0x3b6898bb	0.0035491425
33	0x3b7f2d60	0.0038936958
34	0xbba16a0c	-0.004925972
35	0xbb5bb3d2	-0.003352393
36	0x3be10d12	0.006868013
37	0xbc3d60fe	-0.011558769
38	0x3c3ee93b	0.011652286
39	0x3bb6ecba	0.005582419
40	0xbc7eb94b	-0.015547107
41	0x3b70e477	0.003675727
42	0xbc073b48	-0.00825388
43	0x3c0ae9e0	0.008478612
44	0xbc8eb0f4	-0.017418362
45	0x3b8da920	0.00432314
46	0xbc859132	-0.016304586
47	0xbc10a28a	-0.008827815
48	0xbb9e317f	-0.0048276777
49	0x3bb6bf23	0.0055769845
50	0x3bdbc31a	0.0067066075
51	0xbbb9d7f9	-0.005671498
52	0xbbd2688b	-0.006421154
53	0xbc367d23	-0.011138233
54	0xbbc28efc	-0.005937455
55	0xbac6fc0a	-0.0015181315
56	0xbbcff6f8	-0.0063465796
57	0xbc985c10	-0.018598586
58	0xbc37320f	-0.0111813685
59	0xbc0e8343	-0.008698287
60	0xbb833464	-0.004004048
61	0x3b80d6cb	0.0039318553
62	0xbb0706c0	-0.0020603389
63	0xbb47910a	-0.003045144
64	0xbb96fa1e	-0.004607453
65	0xbcca654c	-0.024706505
66	0x3aa98ca5	0.0012935592
67	0xbb59b1d5	-0.0033217568
68	0xbc2ac3f5	-0.010422696
69	0x3b6b8e87	0.0035943107
70	0x3c45c972	0.012071954
71	0x3b89fd4f	0.004211105
72	0xbb04eeec	-0.002028401
73	0xbcbc1a50	-0.022961766
74	0x3c761488	0.0150195435
75	0xbbd71a28	-0.0065643974
76	0xbb84cc08	-0.0040526427
77	0xbbe3bda5	-0.0069500976
78	0x3bab450c	0.005226737
79	0xba9e3511	-0.0012070258
80	0x3b3902a3	0.0028230331
81	0xba8b78f2	-0.0010640903
82	0x3bec35e2	0.007208572
83	0x3ccfb8d0	0.02535668
84	0x3bb50caa	0.0055251913
85	0xbc59d388	-0.013295062
86	0xbbaf96c2	-0.005358548
87	0x3b87acef	0.0041404883
88	0x3b988813	0.004654893
89	0x3a1b8b83	0.00059335696
90	0x3b94b57a	0.0045382353
91	0xbba0671f	-0.0048951055
92	0xba6efc55	-0.000911658
93	0x3b961c39	0.004581001
94	0x3c487747	0.012235469
95	0x39c7bebb	0.00038098343
96	0x3b9d0bf7	0.004792686
97	0xbb040eb7	-0.0020150372
98	0x3ba66064	0.0050774086
99	0xbbbe3143	-0.0058042123
100	0x3933a144	0.00017130846
101	0x3bf16c35	0.0073676356
102	0x3bacfc1b	0.0052790768
103	0x3be1b473	0.0068879663
104	0x3ca2939e	0.01984578
105	0xb9c14baa	-0.00036868203
106	0x3bf80aa2	0.007569627
107	0x3bba8ca5	0.0056930357
108	0xbbb2cc94	-0.0054565165
109	0xbbbae3bf	-0.005703419
110	0x3c1630d4	0.009166915
111	0xbc491a2f	-0.012274309
112	0xbc1ad6db	-0.00945064
113	0xb8e5bcf2	-0.00010954765
114	0xba50bb73	-0.00079625024
115	0xba50df5d	-0.0007967854
116	0x3b679a0a	0.0035339617
117	0xbb31fdd4	-0.002715935
118	0xbbd0e1d7	-0.0063745785
119	0x3b1365af	0.0022491028
120	0xbbab78c0	-0.0052329004
121	0xbad40e50	-0.0016178582
122	0x3ad1d078	0.0016007563
123	0xbbd1d658	-0.0064037256
124	0xbbba72f9	-0.0056899753
125	0xbaa1562e	-0.0012309009
126	0x3b258cf5	0.002526102
127	0xbb974d84	-0.004617395
128	0x3b8697e8	0.004107464
129	0x3b3fdc0a	0.002927544
130	0x3b8eb7fb	0.0043554283
131	0xbb77e183	-0.0037823624
132	0x3b5d3cc7	0.003375815
133	0x3ba7a2e2	0.0051158527
134	0xb9e38c10	-0.0004340117
135	0xba24da6f	-0.00062886527
136	0x3c369d33	0.011145878
137	0x3b6b02d3	0.0035859838
138	0xbc2b33a3	-0.010449323
139	0x3b60d7e8	0.0034308378
140	0xbbdce1ca	-0.0067407833
141	0x3b62e31d	0.0034620233
142	0xbc1bb9a2	-0.0095047075
143	0x3be5dea8	0.007015068
144	0x3c059027	0.008152044
145	0x3b315009	0.0027055761
146	0xbbacc220	-0.005272165
147	0x3abb7f75	0.0014304953
148	0x3b76d28b	0.0037662114
149	0xbb25b481	-0.002528459
150	0x3baabc8e	0.0052104658
151	0xbbfd01af	-0.007721148
152	0xbbe77d38	-0.007064488
153	0xbad780dd	-0.0016441602
154	0xbbb2a022	-0.005451218
155	0xbbe739af	-0.007056437
156	0xbb8ddd53	-0.0043293624
157	0x3bee7938	0.007277634
158	0x3bcb1a30	0.00619819
159	0x3c0c6a72	0.0085703
160	0xbb539727	-0.0032286139
161	0x3b1dfdef	0.0024107655
162	0x38dfd420	0.0001067298
163	0x3b81bd1b	0.0039593107
164	0xbb9f603b	-0.0048637665
165	0xbc0f126a	-0.008732418
166	0x3c12191c	0.008917119
167	0xbc277200	-0.010220051
168	0x3b67c922	0.0035367687
169	0xbbb26f6b	-0.005445411
170	0x3a64fcc3	0.0008735174
171	0xbbe33898	-0.0069342367
172	0xbb163b1f	-0.0022923423
173	0xbc434eaf	-0.011920615
174	0x3c041862	0.008062454
175	0x3badfcfa	0.005309698
176	0xbc465acf	-0.012106611
177	0x3b4c2c87	0.003115447
178	0x3b94b742	0.0045384476
179	0x3b917086	0.0044384627
180	0x3b5b27eb	0.003344054
181	0xbc490af2	-0.012270676
182	0xbbc11dc1	-0.0058934395
183	0x3ab96657	0.001414488
184	0xbb3b9fa7	-0.0028629096
185	0x3c2a41a2	0.010391625
186	0x369b1653	4.621959e-06
187	0x3bcf4095	0.0063248374
188	0x3c82ab52	0.015950833
189	0x3c59a1fb	0.013283248
190	0xbc9dfb72	-0.019284938
191	0x39b6a21b	0.00034834523
192	0xbc0034e9	-0.007825115
193	0xbb035668	-0.0020040516
194	0x3bf4d52a	0.0074717
195	0x3b2082d0	0.0024492033
196	0xba91d944	-0.0011127372
197	0x3c7ed725	0.015554224
198	0x3b5f0103	0.0034027703
199	0x3b9608e7	0.004578698
200	0xbbd1e54b	-0.0064055077
201	0xbbaf225f	-0.0053446735
202	0xbbc3abf5	-0.0059714266
203	0x3bc83024	0.0061092544
204	0x3b1b72d0	0.0023719557
205	0x3c2aec4e	0.010432316
206	0xbc577a1a	-0.01315167
207	0x3bfe39e7	0.0077583673
208	0x3c282e91	0.010265009
209	0x3a2cd0ec	0.0006592411
210	0x3bd50310	0.006500609
211	0x3a8de9dc	0.0010827142
212	0x3bd9fd5b	0.006652517
213	0x3acb1d93	0.0015496485
214	0x3b9af177	0.004728492
215	0xbbc10365	-0.0058902972
216	0x3b6a04e0	0.0035708472
217	0xbbb88ee1	-0.005632267
218	0xbb45c868	-0.0030179266
219	0xbc711f27	-0.0147169
220	0x3c9ef741	0.01940501
221	0x3bb25f49	0.005443488
222	0xbb970c17	-0.0046095955
223	0xbba8bd7f	-0.005149543
224	0x3c3b825b	0.011444653
225	0xbbe38617	-0.006943475
226	0x3bfead9b	0.00777216
227	0xbc48e285	-0.012261038
228	0x3c63f3e5	0.013913129
229	0xbce3e0f0	-0.02781722
230	0x3af66545	0.0018798491
231	0xbb4bff5b	-0.0031127546
232	0xbc968a32	-0.018376444
233	0xbbb97f6a	-0.005660941
234	0x3c0ffad0	0.008787826
235	0x3b4b2974	0.003100005
236	0x3bd2b11d	0.006429805
237	0x3c4f30af	0.012645884
238	0x3749cd5d	1.20283485e-05
239	0x3c466f43	0.012111488
240	0x3ae58d92	0.0017513505
241	0x3c27bac3	0.010237399
242	0x3bbbc70e	0.0057305163
243	0x3bfa09e8	0.0076305754
244	0x3b33bb2e	0.00274248
245	0xbb99d832	-0.004694962
246	0x3bf63b0f	0.0075143646
247	0xbb7bce4d	-0.0038422525
248	0xbb4e07b3	-0.0031437695
249	0xbb2797e2	-0.0025572707
250	0xbc00f077	-0.007869831
251	0x3c0d48f0	0.008623347
252	0xbc062520	-0.008187562
253	0x3b9513c9	0.0045494777
254	0x3bf0f2af	0.007353149
255	0xbbd72b97	-0.0065664756

action_model._discrete_distribution.branches.1.bias f4 [2]
0	0x00000000	0.0
1	0x00000000	0.0
