results/test11/MoveToGoal/MoveToGoal-153661.onnx (onnx, 595363 bytes, 12 tensors)

action_model._continuous_distribution.log_sigma f4 [1, 1000]
00000000: e8ae deba a782 06bc e751 0abb 40c2 cebc
00000010: 5cc8 5d3b fa55 7dbb 93b8 72bc aa0f 5ebb
00000020: c8a9 8a3b fb25 72bb 5d0c 59bc afa8 243a
00000030: 43fb 8cbb 400c 903a 878b f7ba dab8 a83b
00000040: 7afc 3abc c74d 9cb9 4d3b c6bb 89f3 04ba
00000050: e6d3 dcba b957 74bc 872c 17bb 433e 313b
00000060: b530 4e3c f48e 5e3b 91e7 25ba f7d2 373c
00000070: 2706 56bc e9b0 e337 cdaf 56bc 56a4 b8bb
00000080: c9b1 063c 7452 dbba 9721 063c 5ee8 0abc
00000090: 4432 91bb d05e 13bb c2db 99ba 11f2 a83b
000000a0: 2786 9bbc c328 51bc e966 b9bb afe2 02bc
000000b0: ef85 173b ea69 7bbc 7918 eebb 67f1 a7bb
000000c0: 205b 48bc 048d 553c 0110 02bc c788 1bbc
000000d0: 6c21 363c 739a aebb 3449 413c ab8b a23b
000000e0: f002 a6ba 1417 1a3b 762d 4fbc 2841 6fbb
000000f0: 6c41 383c a263 a7bc 43de d4ba 3862 003b
00000100: 1e81 49bb 3a0a 3fbc 87d7 90bb cdb8 b93b
00000110: bc3d 93bb 15df 35bb 9a85 bcbb 0624 d23b
00000120: 7858 8a3c 4d62 103c da5f 133b d5b5 723b
00000130: 3aa5 85bb cddf a33a d4a7 df3a b08f 9a3b
00000140: 0cb6 f4bb be66 d8b9 bddc 65bc d240 61bc
00000150: 60c2 2cbc c2ec 4d3a 5ee5 b7bc 1328 32bc
00000160: 794c 6fbc 26d5 b9bb 7749 d9ba a64e 013c
00000170: ad45 a53b a35e 813c 4677 8a3b 2f6e 3d3b
00000180: 6687 bfbb dbd3 2abc f1d0 30bb 806c 423c
00000190: 9417 63bc 5e11 023c a0db 55bc c84f a8bb
000001a0: 198e c9ba 3ed1 2ebb 40fc 10bb 4e74 c3bb
000001b0: deb0 36bc 0e2f a2bb 4c88 8fbc caec 00bb
000001c0: b468 08bc b516 65ba a06f 90bc 8c19 58ba
000001d0: f334 673c 2999 cfba b45d e7bb 804f d2ba
000001e0: 0ced 6dbb 8f1c 0cbb 5852 603b 2d34 8c3c
000001f0: 5411 ac3b c4be 753b d9fd 2cbc a35b d7ba
00000200: 4c43 02ba 506d 9a3a 8f8a 393c f334 e13b
00000210: 6217 7abc 1573 42bc eab2 41bc 20ea 9e3b
00000220: f26b 173b eb89 82bc a0fe 46bc d9af 9c3b
00000230: 467b 203c 2535 45bb 23cf 94bb 86a4 b3b8
00000240: 9ed1 ef39 5c14 d13a 7540 49bc 0dec 643c
00000250: c248 f1bb 5f3d 81bb 7bbf aa3b 23ee 2cbc
00000260: f6de 8fbb 5a06 68ba 4cfe b7bb 54fd 81bb
00000270: 445b 873b 9a74 69bc 4b05 2e3c 9f11 4ebc
00000280: ed5b 913b 7f9b e63b 8947 93bb ebdb 06bb
00000290: 1b36 5f3a 1677 5d3b 75d7 b93b e738 5e3b
000002a0: f0ec 26bc 5d53 353c ae47 3ebb c736 9b3a
000002b0: c8c3 05bc 79ff 13bc db12 6f3b e537 f63b
000002c0: 005e 13bc 1ff5 b2ba e3f2 8abc 99ac 463c
000002d0: 8a2a 60bc 3a0e cdbb c10a 20ba 4048 ad3b
000002e0: f7ae f73b 3544 74bc 8a0f 35bb 174b 4cbb
000002f0: 64f8 edbb c4d7 72bc 04b6 0ebb d1d0 983b
00000300: fff3 be3a 60a2 b03c bc2d 0bbc 6e8c 09bc
00000310: 2076 cc3c bce9 27bb d82b 11bb 8386 253c
00000320: 0a76 80ba 5c0d cb3b 54b4 05bc c12c b3bb
00000330: 52be b5bb d067 21bb a2d4 97bc 1861 8bba
00000340: 621c 2e3c 2e82 273c 5dd7 97bb b441 0539
00000350: e1f4 62ba c45f 5dbb dab7 5e3b bb05 56bc
00000360: 775d 173c 51b2 7d3c 2ef1 7039 3626 2cba
00000370: 3aac 5c3c 0fe2 643b 4908 93bb e562 acbc
00000380: 8b69 c03b 007b 7fbc c353 953c 10c5 23bc
00000390: 0dbb 32bb 48eb 79bc 9c9b 6d3a 2ac0 093b
000003a0: d335 953b 01d3 21bc 5193 2bbb 126a 8b3c
000003b0: 92e9 813c 7101 cabb fb77 a53b 7dd8 cbbb
000003c0: 9853 9e3c bb4e e3b9 6a53 1ebc 3eb1 3d3c
000003d0: 2909 fe3b 507d 18bb 8ace 20bc 5883 3cbc
000003e0: 9568 dbbb 55c2 21bc fa77 9e3b 142e 7a3b
000003f0: b83d 45bb 2b8b 8cbc dd88 66bc 8647 e8bb
-0.0016989382 -0.008209861 -0.0021105947 -0.02523911 0.0033841347 -0.0038655982 -0.014814514 -0.0033883848
0.0042316653 -0.0036948908 -0.013247577 0.00062812393 -0.0043024137 0.0010989979 -0.0018886187 0.005148989
-0.011412734 -0.00029812587 -0.0060495497 -0.000507169 -0.0016847819 -0.014913493 -0.0023067312 0.0027045168
0.012584855 0.0033959718 -0.00063287566 0.0112197315 -0.01306299 2.7142889e-05 -0.013103438 -0.0056348247
0.008221098 -0.0016732947 0.008186719 -0.008478252 -0.004431041 -0.0022486933 -0.0011738467 0.0051558097
-0.018984867 -0.012766066 -0.00565802 -0.007988616 0.0023120602 -0.015345076 -0.007266101 -0.005125213
-0.012228757 0.013034109 -0.007938386 -0.0094930595 0.011116367 -0.0053284704 0.011797238 0.0049604974
-0.001266567 0.002351229 -0.012645116 -0.0036507342 0.011246067 -0.02043325 -0.0016240556 0.0019589793
-0.0030747126 -0.011660153 -0.004420224 0.005667782 -0.0044934433 -0.0027751375 -0.0057532312 0.0064129857
0.016887888 0.008812499 0.0022487552 0.003703465 -0.0040785344 0.0012502611 0.0017063566 0.004716836
-0.0074679907 -0.0004127528 -0.014029679 -0.0137483645 -0.0105443895 0.0007855409 -0.022448238 -0.010873812
-0.014605635 -0.005671161 -0.001657768 0.007892286 0.0050437064 0.015792197 0.0042256443 0.0028904786
-0.005844998 -0.010426487 -0.0026980008 0.011866689 -0.013860602 0.007938711 -0.013052851 -0.005136464
-0.0015377431 -0.002667501 -0.002212301 -0.0059647923 -0.011150567 -0.004949457 -0.017521046 -0.0019672387
-0.008325744 -0.00087390403 -0.017631352 -0.0008243553 0.014111745 -0.0015838492 -0.007060731 -0.0016045421
-0.003630462 -0.0021379327 0.0034228768 0.017114723 0.005251089 0.0037497738 -0.010558569 -0.0016430508
-0.00049691345 0.0011781845 0.011324539 0.006872767 -0.015264364 -0.011868258 -0.011822442 0.004849687
0.0023105112 -0.015934905 -0.012145668 0.004781705 0.009795016 -0.003009149 -0.004541294 -8.56603e-05
0.0004574181 0.0015951502 -0.012283434 0.0139722945 -0.0073634097 -0.0039440836 0.0052108145 -0.010554823
-0.0043905927 -0.0008851044 -0.0056150313 -0.0039669666 0.0041307528 -0.014248991 0.010621379 -0.012577443
0.0044360072 0.0070375795 -0.0044946116 -0.0020577859 0.0008514837 0.0033792905 0.0056714364 0.0033908428
-0.010188326 0.011067239 -0.0029034424 0.0011841886 -0.008164354 -0.009033077 0.0036479745 0.0075139874
-0.008994579 -0.0013653374 -0.01696152 0.012126111 -0.013682017 -0.0062577995 -0.0006105118 0.005288154
0.007558699 -0.01490884 -0.002762767 -0.0031172687 -0.0072622765 -0.01482195 -0.002177597 0.0046635647
0.0014568566 0.021561801 -0.008494791 -0.008395297 0.02495867 -0.0025621494 -0.0022151377 0.010102871
-0.0009800803 0.006196661 -0.008160669 -0.0054679816 -0.0055463696 -0.0024628527 -0.018534008 -0.0010633795
0.010626884 0.010223908 -0.0046338276 0.00012708345 -0.00086577056 -0.0033779005 0.0033984096 -0.01306289
0.009238592 0.0154844085 0.0002297803 -0.0006566973 0.013468796 0.003492478 -0.0044870717 -0.02104325
0.0058719567 -0.01559329 0.018228417 -0.009995714 -0.0027272135 -0.015253849 0.000906402 0.002101908
0.0045535355 -0.009876967 -0.0026180337 0.017018352 0.015858445 -0.0061647226 0.005049703 -0.006220876
0.01932697 -0.00043355473 -0.009663442 0.011577902 0.007752557 -0.0023268051 -0.009814868 -0.011505924
-0.0066958168 -0.0098729925 0.0048360797 0.0038174437 -0.0030096602 -0.017156204 -0.014070717 -0.0070886044

action_model._continuous_distribution.mu.bias f4 [1000]
00000000: 114c 493b 168f 96ba 2e10 62b9 830d 8bba
00000010: 1a41 9dba 8d23 0dba f522 893a 4a3d 6cba
00000020: f046 94ba a0af ccb8 32d9 ce3a 4299 ccba
00000030: 61fa eeba 25e1 31bb 3179 723b 7839 de39
00000040: 8dd3 53b9 8122 303a 6a4a 8739 4f26 ba3a
00000050: 3444 f239 856b 8f3a ad8d 82ba a03f e73a
00000060: 76cc 073b dfe9 233b eeb4 e3ba e165 9a3a
00000070: f9f8 983a 7caa 8e3a 25b2 bcba e618 c5b8
00000080: 1202 c438 dead 463a cfb7 ef3a 1f4a b23a
00000090: 97c6 f3ba 7528 063a 67f2 6238 3743 d5b9
000000a0: f44a aeba cb38 d939 ccc8 3b3a 5223 1c3a
000000b0: 6f6b 92ba c6c2 e73a c22d 0b3a a5a4 02ba
000000c0: 870d 913a 5727 cb3a e749 103b 6fbb 1dbb
000000d0: 4219 9eb9 09eb b139 2a92 a53a 5c89 20ba
000000e0: 5b5d d5ba 1e72 aa3a 6c94 efb9 aec4 2d38
000000f0: eafd 2ebb e1c9 21b9 5ef5 ba3a 7ff1 a5ba
00000100: 76ee 233a 3de5 2339 8c40 8eba cde2 9fba
00000110: cc83 5fb8 86a2 fa3a ef7c bab9 4314 66ba
00000120: e962 b1ba 6733 94ba ce3e 05ba e99f 9c3a
00000130: 1594 283b ea76 c439 92a2 1abb e1e7 3aba
00000140: 3a85 993a 4670 87ba a94f 9a39 239d 0ebb
00000150: 2307 dc38 2e4e acb9 9d0c 1c3a 3a9b 983a
00000160: 62d8 18ba 62f3 f4b9 3165 31ba f43e a039
00000170: 0060 803a c0d5 2639 a456 1abb 68c5 b03a
00000180: 0a1a ebba c12a 423b 7290 2ebb a8ae 233a
00000190: 179e 003a 7d4e 64b9 ece3 ea3a 6c7d e5ba
000001a0: 2de3 c5b8 6506 58ba 32af 20bb bb88 9a3b
000001b0: 9c1f 21bb ab1e b53a c8c9 9bb9 4e0a 03b9
000001c0: 5b87 81ba 3f10 54ba 0002 7bba c084 8e3a
000001d0: a665 a73a a4ee 1dba da3f f5b9 2acf e739
000001e0: eb01 92ba b926 91ba ce75 bc3a 5e5b 5d3a
000001f0: 02f6 dcba 04d4 b838 90c1 74b9 d728 7339
00000200: 1748 df39 b714 0cbb ca83 d83a 528e 89b8
00000210: 72b6 db3a 4149 e939 6938 a739 09f2 bbba
00000220: f8f2 dab8 2124 753a 19af 27ba 9fca 39b8
00000230: f992 4c39 0a3e 8fba ac58 143b b499 033b
00000240: 8715 743a ca00 9aba f09f 02ba 14c7 2bba
00000250: 1a31 31b9 0d52 9e38 18c5 633a 9511 00b9
00000260: d1e5 6339 ddc5 2a3b 80c8 41b9 4db6 87b9
00000270: 36b3 e3ba b523 8fba 0563 c53a f54f 3eb9
00000280: e560 0939 311e 9c3a 64a1 18ba d008 f739
00000290: 0f47 113a 65d5 143b 09b0 fc39 285f 113a
000002a0: d12d 1a3a 3186 aeba df58 7fba 19ca 6239
000002b0: 28b6 88b9 f6a8 3239 afaa 09ba 6541 51ba
000002c0: 2c40 d739 1744 9939 022d 0e3b 3f64 b6b9
000002d0: 835b 5f3a ac7d b439 1fc5 3cb9 b5fc ef3a
000002e0: faf7 a23a 3156 24b7 b83d bd39 de75 b53a
000002f0: 5c0c 0b3b a1e9 3ebb e0ae d5ba e78c 3f3a
00000300: 4c68 aab8 a4b8 a83a f095 3fba 9e07 41ba
00000310: 011c 0abb 2492 0d3b 6b8a f8ba aa20 923a
00000320: 2a90 8d39 5695 ce3a fced c6b9 8fea a03a
00000330: 807e caba 3ad3 7e39 6d78 0d3b 8bbf ce3a
00000340: b43e 2739 0e77 04bb 510d 26b9 682d a7ba
00000350: 653d 28b9 e623 aaba 4415 143a cfe6 1f3a
00000360: 199f ebba e6c3 8e38 95d5 8bba 21b8 b4ba
00000370: 61cd 46ba 1ec3 38b9 77d2 373a d3ac 1fb9
00000380: 0aea 3639 c281 c9b9 7d94 2b3b 0849 243a
00000390: 508e e13a b0ea c039 42ad e5b9 b45d 073b
000003a0: a808 84ba b574 2f3b 9ed7 bdba cdc7 fab8
000003b0: 8088 feb9 5881 b0b9 dbf9 e239 9669 423b
000003c0: 5671 093b 228d 60ba 612b 703a 42b2 8539
000003d0: 7263 68b9 92ba ec3a 6c66 1c3b cc55 623a
000003e0: ff95 08bb 0a6e ca36 bfc0 353b c4bf ac39
000003f0: d86e 533a da3b b338 1446 4939 60b1 74ba
0.0030715505 -0.0011486735 -0.00021559067 -0.0010608885 -0.0011997551 -0.00053840206 0.0010462689 -0.00090118183
-0.0011312645 -9.760191e-05 0.0015781282 -0.0015609639 -0.0018232578 -0.0027142253 0.0036998505 0.00042385957
-0.00020201337 0.00067190087 0.0002580465 0.0014202091 0.00046208652 0.0010942077 -0.0009960436 0.0017642863
0.0020721233 0.0025011224 -0.0017372647 0.001177963 0.0011670879 0.0010884549 -0.0014396353 -9.39833e-05
9.346394e-05 0.0007579009 0.0018289032 0.0013602412 -0.0018598613 0.0005117723 5.4108354e-05 -0.00040676605
-0.0013297484 0.0004143178 0.0007163405 0.0005956191 -0.0011170934 0.0017681948 0.00053092476 -0.00049836404
0.0011066654 0.0015499395 0.0022016705 -0.0024068018 -0.00030154927 0.00033935186 0.0012632061 -0.0006123984
-0.0016278432 0.001300398 -0.00045696215 4.1429586e-05 -0.0026701638 -0.00015429362 0.0014263799 -0.0012660472
0.000625349 0.00015630289 -0.0010852977 -0.0012198329 -5.329009e-05 0.0019121922 -0.00035569767 -0.0008776823
-0.0013533506 -0.0011306823 -0.0005082906 0.0011949512 0.002572303 0.0003747263 -0.0023595435 -0.00071298896
0.0011712678 -0.0010333143 0.0002943252 -0.0021761141 0.00010491747 -0.00032864645 0.0005952807 0.0011642941
-0.00058305834 -0.0004672064 -0.0006767093 0.00030564482 0.0009794235 0.00015910622 -0.0023550177 0.0013486566
-0.0017936837 0.0029627534 -0.002663639 0.00062439824 0.000490637 -0.00021773014 0.0017920709 -0.0017508692
-9.436007e-05 -0.0008240699 -0.0024518487 0.0047160066 -0.002458549 0.0013818344 -0.00029714243 -0.00012496972
-0.0009882258 -0.0008089579 -0.0009575188 0.0010873303 0.0012771382 -0.0006024635 -0.00046777615 0.00044214103
-0.0011139488 -0.0011074162 0.001437837 0.0008444096 -0.0016857984 8.813295e-05 -0.00023341761 0.000231895
0.00042587586 -0.0021374652 0.0016518768 -6.559178e-05 0.0016762747 0.00044495802 0.0003189475 -0.00143391
-0.000104403065 0.0009351392 -0.0006396636 -4.4296143e-05 0.00019509708 -0.0010928523 0.002263586 0.0020080628
0.0009311069 -0.0011749503 -0.0004982939 -0.0006552797 -0.00016898327 7.54931e-05 0.0008688732 -0.00012213581
0.0002173402 0.0026057877 -0.00018480606 -0.0002588503 -0.0017372135 -0.0010920676 0.0015059417 -0.00018149598
0.00013101434 0.0011910853 -0.0005822389 0.00047118077 0.00055418996 0.00227102 0.00048196342 0.00055454904
0.0005881461 -0.0013315139 -0.0009740721 0.00021628327 -0.00026075658 0.00017038346 -0.0005251569 -0.0007982462
0.00041055807 0.00029233165 0.0021694307 -0.00034788434 0.0008520411 0.00034425908 -0.0001800251 0.0018309565
0.0012433522 -9.79523e-06 0.00036094873 0.0013844331 0.0021217084 -0.0029130953 -0.0016302727 0.0007307068
-8.1256585e-05 0.001287241 -0.0007308414 -0.0007363501 -0.002107382 0.0021602 -0.001896215 0.0011148651
0.00027001026 0.0015761058 -0.00037942815 0.0012276935 -0.0015449077 0.00024302016 0.0021586672 0.0015773637
0.0001594972 -0.0020212564 -0.00015835954 -0.0012754621 -0.000160446 -0.0012980669 0.0005648921 0.0006099762
-0.0017976492 6.8075766e-05 -0.0010668511 -0.0013787785 -0.00075837044 -0.00017620294 0.00070122577 -0.00015227804
0.00017444059 -0.00038434385 0.0026181035 0.0006266986 0.001720855 0.0003679595 -0.0004380737 0.0020655217
-0.001007338 0.0026772444 -0.0014483815 -0.00011958145 -0.00048548356 -0.00033665705 0.00043292236 0.0029664985
0.0020972094 -0.00085659523 0.00091617374 0.0002550055 -0.0002216229 0.0018060973 0.002386476 0.00086340006
-0.0020841358 6.0328794e-06 0.0027733294 0.00032949273 0.0008065528 8.546533e-05 0.0001919496 -0.0009334292

action_model._continuous_distribution.mu.weight f4 [1000, 128]
00000000: bf14 3e3b e304 21bd 9392 30ba f749 723a
00000010: 0864 24bc 13ed 503c 2b3a 973a 5301 f838
00000020: 1414 f3bc 7cca 8f3a 2218 42bb 17db 0cbc
00000030: b06a 3e3a f96f 5abc 405b 51bc 7b4f 3bbd
00000040: 9b90 383c 2b0c 52bc 3c62 a33c 10af ae3c
00000050: 6e80 73bc dd46 af3b 8d35 9e3c 244e 193d
00000060: 2fc4 be3c 6bbe b63c faaf 573c 2ed4 903c
00000070: fe21 9a3c 57ac b33c 887d d13c 79e9 843c
00000080: d222 1dbc e626 8a3c 0c2a f13c dd6e a23b
00000090: 9669 d63c 7e40 6e3b c306 0fbc 8486 d4ba
000000a0: ce45 d03c 82f4 ad38 0e55 c43c 711d 043d
000000b0: 8dd7 f33c 11ed 80bb ce03 d83c b4e6 ff3c
000000c0: e103 3c3c 23aa 36bc 9267 573a 379a 7ebc
000000d0: 428a a53b 4156 863c b9b7 edbc 3e10 b73c
000000e0: 8086 22bc b887 1f3d 239d f0ba f5db b63c
000000f0: b368 23bd a526 da3a e189 d2bc e3f2 763c
00000100: e76f 1d3d 5c31 fdbb ada7 a23c 0188 6b3c
00000110: f960 07bd 3f7f 673b af22 99ba 40e7 873c
00000120: 5fd3 883c ed1c a4bc 384f 26bd b08b 473b
00000130: 4780 c73c 6e23 c03c 788b 14bb 787c 023c
00000140: aa02 91bc c2fb f23c e5b4 fbba 9bad 13bc
00000150: 2b61 35bc 835b 82bc 9f09 7d3c beee 0e3c
00000160: f2d8 433c 3364 d1bb dc7c 23bc 4ae6 bc3b
00000170: bee0 743c 3331 9abc 0b71 863c a771 153a
00000180: 41d7 8c3c 87c0 4f3d dc69 5e3c 666a 123a
00000190: 6542 403b 36fe d4bb 32bc 083c ae3b 263c
000001a0: 0092 9a3c d1f3 a53a 47ca 0abc 2ace be3b
000001b0: 15fd 4f3c 42e1 a4bb eb04 9d3b 326c 9bbb
000001c0: 7f65 8cbc f1f5 a13c 410d 263c 54af 14bb
000001d0: 46d9 f13b d5ca 9c3c 3470 69bb d1af 5fbc
000001e0: ca2b f43c 27d4 823c 5ade 80bc e711 9a3c
000001f0: dc15 e93c 3920 92bc 0710 e0bb 419b 43bc
00000200: 12cf 033c caa3 c43b 4ece 53bc df1c 053c
00000210: ea08 a03c 2229 d6b9 be3a e23c 7ece 193c
00000220: 4e65 0cbc 4819 8c3a 7319 f23b fe51 e3bb
00000230: 9250 213b ceff 823a aafd c8bb 2689 b6bc
00000240: 858d 2d3c 7822 e0bc 143c 19bd 762d aa3b
00000250: e836 b93c 0892 c73c 1798 87bc aa21 72bc
00000260: 5640 e2bb 2c76 8fbb f09e e0bc a411 fb3b
00000270: 8955 aabc abb8 adbc ee34 9fbc 808e 9b3a
00000280: 81b9 423c d870 52bc d5f4 c9ba 05b3 09bd
00000290: fd5a 9abb 576a 7b3c b161 ddbc 8af9 ba3b
000002a0: efc4 ccbb 69d4 17bd e9b7 a5bc 2299 bebb
000002b0: 8a92 523a 68ed 0cbd 8f39 8fbc 00bd 1ebc
000002c0: 2c07 46bc 3d78 cebb 7f02 973c ea13 bd3a
000002d0: 2d32 0d3c 444c 8dbc 5668 babc 209a 15bc
000002e0: 8ed1 54bb 130b 983c 632d be3c 4aa8 83bc
000002f0: 3922 ef3c af84 2a3d dbbf 0abc d123 cc3a
00000300: 1443 21bc 132e ea3c b174 f53a ba59 1f3d
00000310: c1ef e1bb 4ae2 2a3c 7c63 913b c251 9a3b
00000320: f4cc f4ba c06c e2bb f5bc 8c3c c35e eb3c
00000330: 302b 0abc 3327 fc3a 8df4 41bc e66c c73b
00000340: 8468 b2bb f06a b03c f4f9 253c 7fab 623c
00000350: 2138 6dbc 2c23 823c 6cb6 2abd fd1d 843c
00000360: 9144 703c 32df 8e3b 2e17 953c 39f9 a1bc
00000370: 2e14 993a 6937 9bbc 74d8 cd3c 997a 043a
00000380: a804 83bc e923 4c3c 5af3 523b 15cd fc3c
00000390: 8a33 b2bc cb90 98bc 3ba7 303c d576 613c
000003a0: 2efb 443c b5f6 1a3c 4f50 043c 3757 853b
000003b0: 2f00 883c 0400 e5bb 0d50 383c 09e0 87bb
000003c0: b4da 34bc f435 1bbd 509b b2bc 6b19 173b
000003d0: 06e3 9bbc b3c9 c7ba 6e2c b33b 63aa 7b3b
000003e0: 6f00 1dbc 0a75 f33b b53e e5bb 34ca 9abc
000003f0: a81f 923b 0192 a2bc 71bd 0b3d b70d 923b
0.0029004065 -0.0393113 -0.00067357084 0.0009242589 -0.010033615 0.012751835 0.0011537721 0.00011825808
-0.02967266 0.0010970379 -0.0029616435 -0.008597157 0.00072638225 -0.01333236 -0.012778103 -0.045730095
0.011264945 -0.012820284 0.019944303 0.02132371 -0.014862163 0.0053490237 0.019312644 0.037428036
0.023286907 0.022307595 0.013164515 0.0176793 0.018815037 0.021932764 0.025572553 0.01622461
-0.009590821 0.016864251 0.029438995 0.0049570636 0.026173394 0.0036354358 -0.008729639 -0.0016214405
0.02542391 8.294826e-05 0.023966338 0.03225464 0.029765869 -0.0039345105 0.026369002 0.031237938
0.011475534 -0.011148962 0.00082170323 -0.015539697 0.005051882 0.016398551 -0.02901827 0.022346612
-0.009919763 0.03894779 -0.0018357377 0.02232168 -0.03989477 0.0016643597 -0.025700511 0.015072557
0.038436797 -0.0077268314 0.019855345 0.014375688 -0.033051465 0.0035323647 -0.001168331 0.01658976
0.016702352 -0.020033324 -0.040602893 0.003044825 0.02435316 0.023454394 -0.0022666138 0.007964246
-0.017701466 0.029661063 -0.0019203691 -0.009013559 -0.01107053 -0.015912777 0.015444188 0.008723913
0.011953579 -0.0063901185 -0.009978499 0.0057647573 0.014946161 -0.018822288 0.016411325 0.00057008344
0.017192485 0.050720718 0.0135750435 0.00055853126 0.002933645 -0.006500031 0.0083456505 0.010146065
0.018868446 0.0012661164 -0.008471078 0.0058229165 0.012694617 -0.0050317356 0.004791846 -0.0047431225
-0.01713824 0.019770594 0.010134996 -0.0022687512 0.0073806373 0.019139687 -0.0035619857 -0.013652758
0.029806037 0.015970303 -0.015731025 0.018807365 0.028452806 -0.01783763 -0.006837848 -0.011938871
0.008044975 0.0060009705 -0.012927605 0.008124559 0.0195355 -0.00040847907 0.027615901 0.0093876105
-0.008569075 0.0010688687 0.0073882877 -0.0069372645 0.0024614674 0.0009994449 -0.0061337547 -0.022282194
0.010592823 -0.027360186 -0.03741081 0.0051934076 0.02260919 0.024361625 -0.016552014 -0.014778534
-0.006904642 -0.004378101 -0.027419537 0.007662015 -0.02079274 -0.02120622 -0.019434419 0.001186803
0.011885048 -0.012844287 -0.0015408049 -0.033617992 -0.0047105537 0.015345178 -0.027024122 0.005706017
-0.0062490623 -0.037067804 -0.020229297 -0.0058165947 0.00080327 -0.034406096 -0.0174835 -0.009688616
-0.012086671 -0.0063009546 0.018433807 0.001442549 0.00861792 -0.01724828 -0.02275483 -0.009130985
-0.0032473537 0.018559968 0.023215001 -0.016071457 0.029191123 0.041630443 -0.0084685935 0.0015574639
-0.009842653 0.028586423 0.0018726793 0.03890393 -0.006895036 0.010429928 0.0044369083 0.0047094533
-0.0018676803 -0.0069099367 0.017179945 0.02873171 -0.008433148 0.0019237756 -0.011838091 0.0060859798
-0.005444588 0.021535367 0.010130394 0.013834833 -0.014478714 0.015885912 -0.041677877 0.01612758
0.014664785 0.004360103 0.01819953 -0.019772159 0.0011678988 -0.01894732 0.025127627 0.0005053669
-0.015993431 0.0124597335 0.0032188506 0.03085951 -0.021753091 -0.01862373 0.010782058 0.013761242
0.0120227765 0.009458234 0.008075788 0.0040692347 0.01660165 -0.0069885273 0.011249554 -0.00414658
-0.011038471 -0.03789325 -0.021802574 0.0023055922 -0.019029152 -0.0015242606 0.005467943 0.003840112
-0.009582623 0.0074297236 -0.0069960007 -0.018895246 0.00445934 -0.01984501 0.034116212 0.0044572013

action_model._discrete_distribution.branches.0.bias f4 [2]
00000000: a7ae b43a a7ae b4ba
0.0013784961 -0.0013784961

action_model._discrete_distribution.branches.0.weight f4 [2, 128]
00000000: ec29 52bc 4c44 f63a baaa e7b9 704a b1ba
00000010: 6cf2 703c cf40 183c 37a9 5abc d6dd 0e3c
00000020: 81f5 dabb 2447 c2bb 6116 11ba 3740 71bc
00000030: 9d88 2e3b b328 f83b b318 5abc 351a a6bb
00000040: 18bc 68bc 24e4 4cbc b76c 5e3c eec7 07bb
00000050: 56a5 87bb cc97 7c3c 8e7c 8ebc a1d1 93ba
00000060: 7774 3b3b 554d 313a fade 8fbb c7df 88bb
00000070: 73c1 843c f7ec 12bb 37e0 f83b a10f 48bb
00000080: 9126 c63b ca3f 6cbb 5b63 853a bc03 1f3c
00000090: 0010 d93b bc8d 283c c972 fb3b 0e77 6eba
000000a0: 92e3 a0bb 0773 953a 7a01 f53b 5e8b 95bb
000000b0: 83f8 8c3b 90c0 2c3b cb69 253c 8cc3 26bc
000000c0: 7000 91bb 2c2d 5ebc 9f01 0e3c 1a2c bcbc
000000d0: 9ea6 243c 2865 1b3c c2d3 053b 0cd4 913c
000000e0: c1d3 21bc e0e1 f83a ccdb e2bb 6a0a 4fbc
000000f0: accd b6bb 9e7b 0d3c 9497 3bbb 460d 76ba
00000100: a7ab db3b d7dc 873b 48be 09bc aa8b 58bb
00000110: 0b11 8fbc 7499 e93b f720 613c 5156 55bb
00000120: 0cd8 06bc 8db2 703c c44b 74bc 7016 31bc
00000130: 2a6d f83b d405 fb37 0b86 70bc 6a82 833b
00000140: 556d 0abc 48a5 e83b 778d 6bbc 7180 8dbc
00000150: 78f6 d6bb 3c28 90ba 4e1d a9bb b508 84bc
00000160: 89e5 093a 1062 853b 04ad 993b 2498 f439
00000170: b95d 553b 7f5e 81bb 05a5 0abc 95df 00bc
00000180: 3b29 1a3c da2f a6bb b145 083c e6d5 3d3c
00000190: b350 643c fe0e ed3b 1691 bb3c cc01 dabc
000001a0: 392a ff39 a8bf cf3b f70d ed3c e5ba bcbb
000001b0: c888 0b3c 275e 75bb a9bb 6d3b 6749 a53c
000001c0: e730 093a de1c 993b 0852 f63b 6cfe 7bbb
000001d0: feb7 00bc 1682 163a 5b53 c3ba d4bc a1bb
000001e0: 742e 85bb dd07 2a3a 6393 9a3b de90 2f3b
000001f0: 8e15 aebc 4ab3 7dbb d52d 5a3b f6fa 90bb
00000200: 1871 0abb db7d 303c 3558 b8bb bddb 943b
00000210: 0c9c 13bd aea5 e2bb 24e6 8f3b d1d8 b9bb
00000220: 9e23 293c b0ee a1ba 90cd b43b 5a19 88bb
00000230: b655 d63a 9848 453c d7d9 bc3b b532 203c
00000240: 17fd b8ba c1ed e8bb 19f9 17bc 2e80 bfbb
00000250: d23e 3a3c 347b 65bb 1a05 4c3c 65f6 e93b
00000260: 6d0b 01bb 563f 213a 7f8c 153c 6085 943b
00000270: 6c4c c7bb e449 5ebb 4fb8 2c3c 54fa 5c3c
00000280: c84e 403c c019 63bc 5340 373c ab10 73bc
00000290: 20e1 eebb 6237 cb3b 5970 8e3a c693 8fbc
000002a0: 745f 023c d912 1abb f7e1 b93b 4c51 f13b
000002b0: e8f8 99bc ec44 f33b d7f7 4a3a 5b16 18bb
000002c0: a7fa 943b 2433 bfbb 9d7a a13c fc8b 553b
000002d0: 6bd1 87bc bb99 68bc e99a 69bc 344a 99bc
000002e0: 93b8 f0bb 8ba2 0cbb 3c2e 4fbc 42d3 3e3c
000002f0: 6311 37bc 2c52 1abc 5e74 e4bb 4e18 bd3c
00000300: a7d0 00bc 7783 0b3c 4c51 2c3c bd84 44bc
00000310: 3d48 fc38 3d95 8dbc 4f39 823b 7ce7 293c
00000320: 6bbc ac3b 077b fa3a cfb5 1c3c 221b 93bb
00000330: 6ff1 abbc 76e0 f03b 3c48 683b fa5e 14bc
00000340: bdba 953c 544f cfbb df37 43ba a331 17bb
00000350: df98 b4bc d9f4 923b 7065 13bc 4797 e9bb
00000360: 538f 1b3b b630 31bc 5a9a 3f3c ef12 8dba
00000370: b756 a13a b50c 293c 357b 6a3c d454 a23c
00000380: 0664 95bb 3f6b 88bb 0432 1e3c 956c 89bc
00000390: b2e1 25bb fbd9 a83b 5247 5a3b 524e 483a
000003a0: 9b2f 08b8 ad4b f43b df11 78bc 808b 053c
000003b0: 7528 0abb 331d b838 ebca 233b 6d5d a53b
000003c0: bee6 633c 3ea3 e13b 4c6c b63b f153 eebb
000003d0: 6c5b 0abc 80c2 7c3b c71c 9cbb 3bdf 76bb
000003e0: 26de 5dbc 266d 72bb 9b53 de3a 0890 183b
000003f0: 36c6 0cbc 54c5 02bb 31ce da3b 3cb0 f939
-0.012827378 0.0018788665 -0.00044186955 -0.0013526212 0.014706235 0.009292795 -0.013346008 0.008719882
-0.0066820984 -0.005928891 -0.0005534646 -0.014724783 0.002663172 0.007573211 -0.013311553 -0.005069042
-0.014205001 -0.012505565 0.013575724 -0.0020718533 -0.0041395826 0.015417051 -0.017393377 -0.0011277684
0.0028603354 0.00067635375 -0.0043905945 -0.004177067 0.016205525 -0.0022419074 0.007595088 -0.0030526894
0.006047078 -0.0036048763 0.0010176705 0.00970548 0.006624222 0.010287698 0.0076735956 -0.000909672
-0.004909941 0.0011402079 0.0074769827 -0.004563733 0.004302086 0.0026359893 0.010096024 -0.010178458
-0.004425101 -0.0135605745 0.008667379 -0.022970248 0.01004949 0.009484567 0.0020420407 0.017801307
-0.009877146 0.0018988214 -0.0069231745 -0.01263676 -0.005578717 0.00863543 -0.0028624283 -0.0009386133
0.006703812 0.004146199 -0.008407183 -0.003304223 -0.017464181 0.0071288887 0.01374077 -0.003255267
-0.0082302205 0.014691007 -0.014910642 -0.010808572 0.0075813727 2.9924246e-05 -0.014680396 0.0040133493
-0.008448918 0.007099781 -0.01437699 -0.01727316 -0.006560143 -0.0010998319 -0.005160964 -0.016117433
0.00052603387 0.004070528 0.0046898145 0.0004665266 0.0032557084 -0.0039480324 -0.008462195 -0.007865806
0.009409244 -0.0050716223 0.008317397 0.011586642 0.013935256 0.007234453 0.02289633 -0.026612185
0.00048668848 0.006339986 0.028937323 -0.0057595843 0.008516498 -0.0037440152 0.0036275184 0.020176603
0.0005233422 0.0046726307 0.007517103 -0.0038451208 -0.007856367 0.000574143 -0.0014902161 -0.00493584
-0.0040643755 0.0006486157 0.004717277 0.0026789228 -0.021250512 -0.00387116 0.0033291478 -0.004424448
-0.0021124538 0.010772194 -0.0056257495 0.0045427964 -0.03603749 -0.006916723 0.0043914486 -0.0056715985
0.010323433 -0.001235446 0.005517669 -0.0041534128 0.0016352448 0.0120412335 0.005763273 0.0097777145
-0.0014113513 -0.0071084206 -0.009275698 -0.0058441376 0.011367517 -0.0035016062 0.012452388 0.007139968
-0.0019690648 0.00061511004 0.009127735 0.004532501 -0.0060821082 -0.0033918554 0.0105419895 0.013487417
0.011737533 -0.01386112 0.01118477 -0.014835517 -0.0072900206 0.0062016705 0.0010867222 -0.017526519
0.007957328 -0.002350977 0.005672689 0.0073644277 -0.018795446 0.0074239876 0.00077426195 -0.0023206684
0.0045464817 -0.005834954 0.019711787 0.0032584658 -0.01657935 -0.014196808 -0.014258125 -0.01871214
-0.0073462217 -0.0021459188 -0.0126453005 0.0116470475 -0.011173579 -0.009419005 -0.00697188 0.023082878
-0.007862247 0.00851523 0.01051743 -0.011994538 0.00012029752 -0.017283076 0.003974117 0.010370132
0.0052714846 0.0019110151 0.009564831 -0.0044893185 -0.020989148 0.0073509766 0.0035443446 -0.009055847
0.01827752 -0.0063265953 -0.0007446985 -0.0023070357 -0.02204555 0.0044847545 -0.008996353 -0.0071286294
0.002373655 -0.010814836 0.011694515 -0.0010763089 0.0012309168 0.010317971 0.014311601 0.01981584
-0.004559043 -0.0041631754 0.009655479 -0.016775409 -0.0025311527 0.0051529384 0.003330667 0.0007641065
-3.2469263e-05 0.0074553103 -0.01514098 0.008150935 -0.0021081243 8.7792425e-05 0.0024992775 0.0050465376
0.013909994 0.006885915 0.005567109 -0.00727319 -0.008444648 0.003856808 -0.0047641727 -0.0037669677
-0.013541734 -0.0036991327 0.0016962172 0.0023279209 -0.008592179 -0.0019954043 0.006677412 0.00047624286

action_model._discrete_distribution.branches.1.bias f4 [2]
00000000: babc 1bba bfbc 1b3a
-0.0005940903 0.0005940906

action_model._discrete_distribution.branches.1.weight f4 [2, 128]
00000000: 3d00 95ba e0d9 59bc 94b1 ae3a 2169 2bbb
00000010: 4d80 cfbb 432d bc3b ea86 083c 66e5 1abc
00000020: e6fb a3bb cc7d a73c 5f3c 2b38 ab1d bbbb
00000030: 690f b13a 9709 a6ba c129 4dbb 6dbf 633c
00000040: a480 94bb 0834 92bc 40b2 19bc 63a3 0e3b
00000050: 53ea a6ba 3ceb 43bc 9419 baba 3c32 063c
00000060: 9b94 f6ba 022b d73b eedf 2fbc c98c 993b
00000070: 4f18 773c 67d5 03bc ae6b 403c 45bd d83a
00000080: aa14 3f3c 3f1b 373c 9ac8 a2ba 83e5 193c
00000090: b26d 0b3c 2735 35b8 1eff 8c3c 42f1 fabb
000000a0: 69d7 563c ffd4 1abc b772 35bc eb94 8c3b
000000b0: 21d3 1eba dd59 cc3b c216 96bc 3ee3 f2bb
000000c0: ecc0 ce3b b415 70bc 89ef 51bb ce47 183c
000000d0: e986 363b 5024 20bc 3b99 b43a e1af 5b3b
000000e0: 89c9 073c 5c0a 1bbc df5f 353c cf4c 773b
000000f0: 6aa2 91bb 9215 33bc 92ed 273c ed04 a2bb
00000100: cdf9 84bc 47b8 0539 6b43 2ebc dde2 923b
00000110: c643 31bc b1f4 87bc 8b9e aebb 7d0e 3f3c
00000120: c7f0 593c e3f6 b439 23b3 70bc e07e 0e3c
00000130: a35c 54bc 5de9 5b3b 2acf dcbb 1b3a d33c
00000140: f80e 213c d7e8 113c a50c 77bc c1cf 443c
00000150: f173 13bc 635c 34bc e52b 16bc c68e a93b
00000160: 3371 8ebb 5598 0b3c 5fea ff3b 46f3 9abc
00000170: e0b5 9a3b 7b07 5cbb cbb2 00bc f402 31bc
00000180: a2a8 e4bb ee2b edbb 48e6 4d3b 5be4 58bc
00000190: 7389 34bb 3ca5 a3bb 7803 5b3b 2507 343c
000001a0: 5c8c 5c3b 7e9c 313c b8bc b3bb 5021 203c
000001b0: fce7 8dbb d8f6 8b3b e640 b4ba 8674 b8b8
000001c0: d40a 823b 37c4 eb3a 2658 64bc 45c3 e53b
000001d0: 754c ab3c 3950 253b 6797 85bc 0d54 29bc
000001e0: 7073 a83b a2ff 9f3c 6836 5c3c a961 7e3c
000001f0: 99d7 8e3b f64c 573a ea7f 58bc 93c2 ea3b
00000200: 8677 94bb 61d5 993b 2ee4 a73c ab7b 2d3b
00000210: c08a 89bb 4345 5b3b fb2e 2ebb 49a8 433c
00000220: 8a9d 8d3c 4505 cdbc d2f3 66bc 0792 68ba
00000230: fbb9 2eb9 9c54 2dbc 68d9 12bc da38 51bb
00000240: 506e 873c b602 c3bc d6b9 dabb 022d 0f3c
00000250: 9e8a a93b 01b6 9c3c 46ff 2e3c f597 0e3c
00000260: 54db c13b d211 353c 3f9d e2bb 5c58 293c
00000270: 79d8 16bb eb0c 80bb bcd5 673c 501f 58bb
00000280: 4a6f 40ba 924e 45bc 2075 18bc 52cb c4ba
00000290: b981 a93b b5a0 59bb c5ec a2bb 9d29 aebb
000002a0: 9f99 0a3c c930 b8bb f44d 8c37 9d75 aeb9
000002b0: 48e4 81bb 34f7 623b f649 003c fa95 a93b
000002c0: d34b 28bc 1028 073c b5c4 32ba b4a5 90bb
000002d0: ceea 1dbc 76ee 283b ec23 893b 8da3 273c
000002e0: 68f6 ec3b c38f 4e3c 3c8d be38 0185 1b3b
000002f0: 19d9 163b 1a74 d13a d5f3 853b 9a95 3fba
00000300: 7207 28bc d9ec 403c 7e95 003b 2547 e73b
00000310: d275 183c f7bd 42bb 3a96 123c 82fa 2f3b
00000320: 9fda 53b9 33f1 57bc c6c6 50bc 7994 9a3c
00000330: 7bb4 27bb a76e 1bbc 4d1e 303c 576a 8b3b
00000340: 8fba 103b dca5 423b b4c0 d4ba e039 b63c
00000350: e748 5abc 4707 a5bb aee5 833b 203a 273c
00000360: a061 ae3c 97b8 1cbb 84bd 92bc 2a47 493c
00000370: 985c 82bc a15c c339 52b8 993c 7c0b 413b
00000380: be5d 223c e608 f8b9 eb98 223b a414 46bc
00000390: e7c0 0c3c 5837 233c 6d26 b83a 8c70 793c
000003a0: 1d2e 693a 0322 d4bb 47e0 813c fef7 3c3b
000003b0: c876 33bc b94f a03b d093 1cbb 08b4 0abc
000003c0: 8a68 28bb c302 86ba 5db3 9c3b 6c68 723c
000003d0: 9d39 993b b7bf feba 7b72 ebbb 7ec2 dcba
000003e0: b664 d2bb 3cfb faba dfaa 9bbb 676a 9e3c
000003f0: 021a 7f3b be41 af3b a5d6 8b3b 19eb 8d3c
-0.0011367869 -0.013296574 0.0013328069 -0.002615519 -0.0063324333 0.0057427003 0.008332947 -0.009454107
-0.005004394 0.020445727 4.0825802e-05 -0.005710324 0.0013508621 -0.0012667653 -0.0031305405 0.01390062
-0.0045319367 -0.017847076 -0.009380877 0.0021764867 -0.0012734629 -0.01195794 -0.0014198297 0.008190688
-0.0018812598 0.006566406 -0.010734541 0.0046859724 0.015081479 -0.008046485 0.011744423 0.0016535899
0.011662642 0.01117593 -0.0012419403 0.009393099 0.00851004 -4.3203265e-05 0.017211493 -0.0076581547
0.013112881 -0.009450196 -0.011074713 0.0042902133 -0.00060586823 0.0062362985 -0.018321399 -0.0074123433
0.006309619 -0.014653612 -0.0032033643 0.009294463 0.0027851409 -0.009774283 0.0013778576 0.003352158
0.008287796 -0.009462919 0.011070221 0.003773499 -0.00444441 -0.010930436 0.010249512 -0.004944435
-0.016232396 0.00012752517 -0.010636191 0.0044826106 -0.010819381 -0.01659617 -0.0053289584 0.011661169
0.013302035 0.0003451622 -0.014691147 0.008697242 -0.012961539 0.0033555843 -0.006738563 0.025784543
0.009830229 0.008905611 -0.015078698 0.012012423 -0.008999811 -0.011008355 -0.009165739 0.0051744906
-0.0043469905 0.0085202055 0.0078099216 -0.01891483 0.004721388 -0.0033573795 -0.007855128 -0.010803927
-0.0069781104 -0.007237903 0.0031417776 -0.013238038 -0.0027547746 -0.0049940627 0.0033418816 0.0109880315
0.0033652997 0.010840533 -0.0054851435 0.009773567 -0.004330633 0.0042713694 -0.0013752251 -8.795508e-05
0.003968576 0.0017987554 -0.013937032 0.0070118033 0.020910481 0.0025224818 -0.016307546 -0.010334981
0.0051407143 0.019531075 0.013440706 0.015526214 0.0043591973 0.0008213067 -0.013214091 0.0071643083
-0.00453085 0.004694626 0.020494547 0.0026471417 -0.0041974485 0.0033458031 -0.0026578296 0.011941978
0.017287035 -0.025026927 -0.014096217 -0.00088718574 -0.00016663216 -0.0105792545 -0.0089629665 -0.0031924755
0.016532093 -0.023805004 -0.0066749854 0.008738758 0.005173995 0.019129755 0.010680979 0.008703222
0.0059160385 0.011051612 -0.006915718 0.010336008 -0.0023017211 -0.00390779 0.014150079 -0.0032977648
-0.0007340802 -0.012042658 -0.0093052685 -0.0015014207 0.005172935 -0.003320736 -0.004972073 -0.0053150193
0.008459478 -0.00562105 1.67256e-05 -0.00033275495 -0.003963981 0.0034632208 0.007830134 0.0051753493
-0.010271984 0.008249298 -0.0006819473 -0.0044142846 -0.009638501 0.00257769 0.0041851904 0.010231865
0.0072315224 0.012607518 9.086213e-05 0.00237304 0.0023017584 0.0015980036 0.004087905 -0.0007308364
-0.010255681 0.011775219 0.0019620354 0.0070580416 0.009305434 -0.0029715279 0.00894695 0.0026852195
-0.00020203971 -0.013180065 -0.012742704 0.018869625 -0.0025589752 -0.009486831 0.010749412 0.00425462
0.0022083854 0.002970091 -0.0016231746 0.022244394 -0.013323045 -0.005036268 0.0040251827 0.010206729
0.021286786 -0.0023913735 -0.017912634 0.012285033 -0.015913293 0.00037262312 0.018764649 0.0029456308
0.009910045 -0.00047308876 0.0024810384 -0.012089882 0.008590913 0.009961925 0.0014049538 0.015224587
0.0008895116 -0.006473781 0.015854014 0.0028834338 -0.010953613 0.004892316 -0.0023891814 -0.008465774
-0.0025697076 -0.0010224212 0.004782124 0.014795404 0.0046760575 -0.0019435798 -0.007185278 -0.0016842631
-0.006420697 -0.001914836 -0.004750594 0.019337846 0.0038925414 0.0053484133 0.004267531 0.017324017

discrete_action_output_shape f4 [1, 2]
00000000: 0000 0040 0000 0040
2.0 2.0

network_body._body_endoder.seq_layers.0.bias f4 [128]
00000000: ad64 e5ba 1f8b b3bb 7c63 bfbb dda1 493a
00000010: 5862 f2ad 2d08 b030 c7df efb9 1c54 86ba
00000020: 441f c0bb 0b0c a3b1 cfa2 14bc d445 7bba
00000030: 4b20 65b5 989a 653b e270 d03b c792 95bb
00000040: 3b96 413b 7148 f03a 9715 9fbb e706 c8bb
00000050: 3163 a2b8 a4c8 643a 5639 94ba dbf6 cab4
00000060: 0a72 11bb 3d5b c4ba 1af3 0fbc 7bbf b2ba
00000070: 346e 43ba fde0 73b9 3e19 303b 9c42 2336
00000080: 36a4 4abb 79de 87ad bb38 a8b9 4863 d1b9
00000090: d51d debb 4012 7bbb e65a 773b 3bc2 b6bb
000000a0: 5566 24bc 4f6a 8a3a 42d7 34ba f106 8f3a
000000b0: f2a4 4233 a0b9 6dbb 8052 8c3a cfa6 16ae
000000c0: ad80 1b35 d3f7 d1b9 3896 7b37 f9dc 533b
000000d0: c1c9 95af 402a e6a9 e5b1 5532 1c3f 72bb
000000e0: b3fd 41bb a03e d736 eb46 063c 3d76 4fbb
000000f0: 55ed d23b 1137 7ab9 fd67 a934 695a 35ba
00000100: ea90 13bb f2cb 77bb 27c3 603a 0948 2939
00000110: c0ad afbb c75c ebb9 28b9 cf37 5437 74b8
00000120: 6eee caba a890 0830 0a0a dba9 c8da bf2f
00000130: beab 9db5 5bce 89ad ba38 d2bb 7586 33bb
00000140: 91ab 2ebb 194b 7cba 4e05 e93a 9b44 c1b4
00000150: d5f8 013c 6d64 ab3b cb60 f93a 3919 3dbc
00000160: a668 38b8 2ae1 cc3a e74a ea32 c8db e7bb
00000170: ee45 77ba 45a4 69b2 6a13 56b8 2ba4 0f3b
00000180: 840c f9bb a432 953a 07c4 dc3a 9fbb 25ba
00000190: e301 2bbc 1548 86bb 227d 63bb d1f6 82ba
000001a0: 3631 47bb 1bd2 19bb 8fce 493a 7465 1134
000001b0: 4111 e5bb 17e9 7430 e85b 9a3a 1eca 9d3b
000001c0: 54d5 5fbb 94bd adb9 1364 92af 05c9 8fba
000001d0: cacb a131 cad3 3239 5bc2 a4ba cf22 40bb
000001e0: be60 d4b7 2b21 fdbb f74f cbbb 8076 7abb
000001f0: f948 cc3b 4414 423b 6569 b2bb 01ac 7b3b
-0.0017501317 -0.005479231 -0.005840717 0.0007691661 -2.7555888e-11 1.2808009e-09 -0.0004575236 -0.0010248455
-0.005863102 -4.7452935e-09 -0.00907202 -0.00095852953 -8.535614e-07 0.0035034772 0.006361113 -0.0045646164
0.0029539007 0.0018332136 -0.0048548686 -0.0061043384 -7.743238e-05 0.00087274075 -0.0011308591 -3.7805043e-07
-0.0022193217 -0.0014980804 -0.008785987 -0.0013637388 -0.0007455081 -0.000232581 0.0026870514 2.4327665e-06
-0.0030920631 -1.544652e-11 -0.00032085725 -0.00039937557 -0.0067784586 -0.0038310438 0.0037743389 -0.0055773533
-0.0100341635 0.0010560247 -0.0006898531 0.0010912103 4.531916e-08 -0.0036273971 0.0010705739 -3.4254207e-11
5.792925e-07 -0.0004004823 1.4995741e-05 0.0032327755 -2.7246297e-10 -1.0221381e-13 1.243868e-08 -0.0036963886
-0.002960068 6.41479e-06 0.008195619 -0.003165617 0.0064369836 -0.00023862372 3.1554364e-07 -0.0006918074
-0.0022516795 -0.003781077 0.0008574002 0.00016143931 -0.005361289 -0.00044891817 2.4762543e-05 -5.822566e-05
-0.0015482435 4.968208e-10 -9.727295e-14 3.489815e-10 -1.1747395e-06 -1.5666737e-11 -0.0064154537 -0.0027393375
-0.0026652555 -0.00096242275 0.001777807 -3.5998968e-07 0.007932861 0.0052304775 0.0019026039 -0.011541658
-4.396648e-05 0.0015631069 2.7275247e-08 -0.0070757605 -0.00094327226 -1.3599736e-08 -5.1039657e-05 0.002191792
-0.007600369 0.001138289 0.0016843089 -0.0006322208 -0.010437462 -0.0040979483 -0.0034712036 -0.000999177
-0.0030394322 -0.002347118 0.0007698321 1.3541086e-07 -0.006990582 8.9097923e-10 0.0011776658 0.004815354
-0.0034154253 -0.00033138378 -2.6628352e-10 -0.0010969943 4.708885e-09 0.000170543 -0.001257013 -0.0029317623
-2.5317418e-05 -0.007724901 -0.006204601 -0.0038217604 0.006234285 0.002961413 -0.005444693 0.0038402083

network_body._body_endoder.seq_layers.0.weight f4 [128, 6]
00000000: c1b0 62bf 19a6 103e dd41 81be f4bd d7be
00000010: 794f c2be f4af 453f f732 10bf 0415 fd3e
00000020: 2bba 393e 35a1 09bd e2ef 583d b00f 843e
00000030: cda4 babd c194 4cbf af53 3f3e a2af 923e
00000040: 0c04 e83e 1ece a43e a2e7 103f e48e b83e
00000050: a5e6 b43e ecbe 60be 52f4 f1be c154 713e
00000060: fd6d eebd 3750 30be dd2b e13e 0b01 403e
00000070: 2bd7 a2be e675 3ebf 666c 4cbf 2c83 f8bd
00000080: 9baf 96be 154a cf3e c764 5c3f 123e 34bf
00000090: 5924 b6bd 889d e33e e3a4 52be e4b5 b83e
000000a0: 29e6 6a3f 754a 94be 1faa 993e 8746 f33e
000000b0: 2ab6 cf3e 3476 8c3e 62c6 8cbe 0843 71be
000000c0: 7bdc 6ebe 425a 383f 7b3e 623e f296 663e
000000d0: 0f3c 48ba c646 1e3e cf89 973e 0c96 473f
000000e0: 02fb 84be c20e 0bbf f6ab 853e 5e3f 78bf
000000f0: 3528 74bf ee7d 453e 3463 943e 4296 45bf
00000100: c8f5 2cbf f60a 3a3f 507d c33e b00f de3d
00000110: 651d 13bf f5ce 2abf eadf 823d 0824 babe
00000120: ae83 c43d 820a 24bf 9a31 133e f5e3 e4be
00000130: 9c3f e3bd 1289 04bf 099a 3bbf 2086 82be
00000140: 110d bd3e 3ff4 fb3d 4dd6 d7be e9d4 9b3e
00000150: 624e 17be 3ebe d4be 35a6 3abe 991f 10bf
00000160: 3a2b 843e 5b56 0cbe 5dec 88be c87b 2fbe
00000170: 9a7f d53e bf9a f53e ec05 ab3e 097b 863e
00000180: 2e58 c53c 00b5 70be 3b94 32bf 8a66 383f
00000190: 14f8 2bbd de90 623e d180 84be 0753 92bf
000001a0: 3f8f 17bf 7fea ea3e 1a41 59be d32b db3e
000001b0: 62bb f63e 40fa a2be 26a3 6bbe 09c7 d6bd
000001c0: b1d6 21bf e042 d03e 5fea 82be 7294 c9bd
000001d0: 3591 cc3e c3a0 fcbe 0c11 c33d 8b32 4b3f
000001e0: f5ea df3c 79a9 bfbe 0d0b e63d e8cc 1cbe
000001f0: cee5 2ebf 32a0 7dbe 3924 553e 28d6 d3be
00000200: fb5d 1b3f 5772 7e3e 567a 2e3f a55d 19bd
00000210: 2263 14bf c2b3 ef3e 3d01 86bd 072c 73bc
00000220: 5388 e43e cf3f 2fbe d52e 64bf a845 0f3e
00000230: a4e2 6bbe 9778 3a3e 6771 94bd 7580 00bf
00000240: 5829 acbe 3031 9e3e 14a9 9bbe a026 56be
00000250: c01d cfbe 5c6b 2f3f 29fd d2be 4994 a03e
00000260: e4ba ecbe 6bba 89be 9811 ae3e 2bd2 39bd
00000270: 7dd1 ddbe 3fc4 64be c03c efbe 19f8 99bd
00000280: f065 e23d 2379 af3d fc47 debc 9e27 003f
00000290: d713 3e3e 46c3 ed3d b54d 513f 8818 ea3b
000002a0: c27c a23e c310 46bf 8a9c 9d3e 1488 253f
000002b0: c2a3 ca3e cc32 4bbe c477 b3be 1491 ad3d
000002c0: 3c84 b83d 7f64 c13e 485e a03e 09e4 de3e
000002d0: 06db e53e b5ac 1ebe b7c3 16bf 966e 77be
000002e0: 579d 97bd 5232 16bf 75fd d3bd bf3a 8a3b
000002f0: 0b52 43be dd98 d3be 5d6c dabd 5eb4 e8be
00000300: b5c0 14be e0e9 24bf d8a0 3c3d 5a62 4ebf
00000310: 3135 5a3e b5c7 183f 5c1d 38be 94e7 a4be
00000320: cd3c 243d 1cc9 c53d a781 933c b4e3 44bf
00000330: 34fe ec3e 0622 87be c49d 1f3e 2910 46bf
00000340: 4dbd 4abf 480d 0d3f db12 ad3d 4252 b6be
00000350: 7c1a 173d 6832 883d c04c 20be 0ad7 62bd
00000360: 7396 32bf 8618 e73e a0fc 973c 2e4a 13bf
00000370: 86a6 59bd 5cc0 d83e ed45 1c3f 2d67 153f
00000380: 7742 f3be 7c3e 563e 00d9 683e 6536 0a3e
00000390: da20 67be 6876 d63d 61fa bb3e 2cdc 3ebf
000003a0: 344d 413f ec6e a43d 5922 793d a966 723d
000003b0: 3203 d33d 0a2a ba3d 617e 9b3d 9f38 02be
000003c0: bc32 133e 16ca 9e3e 92c3 93be a039 983e
000003d0: 1396 b0bd 4a5d 653f 0a75 42be 2b64 79bd
000003e0: 098d 663f aa2f 7bbc e561 b03e 185e f83e
000003f0: d902 cebe b15a bbbe 8b79 a43e fb6a 65bf
-0.88550955 0.14125861 -0.25245562 -0.4213711 -0.37951258 0.7722161 -0.56327766 0.49430096
0.18137424 -0.033601005 0.052963145 0.2579322 -0.091134645 -0.7991448 0.18684267 0.28649622
0.45315588 0.32188505 0.56603444 0.36046517 0.35332218 -0.21947831 -0.47256714 0.23567487
-0.11642072 -0.172181 0.43978778 0.18750398 -0.31804785 -0.7439865 -0.798529 -0.12134394
-0.2943085 0.40486208 0.86091274 -0.7040721 -0.088936515 0.44456124 -0.20570712 0.36076272
0.91757447 -0.28963056 0.30012605 0.47514746 0.40568668 0.27433932 -0.27495104 -0.23560727
-0.23326294 0.7201272 0.22094147 0.22518519 -0.0007638344 0.15456685 0.29597327 0.7796333
-0.25972754 -0.54319394 0.26107758 -0.9697169 -0.9537385 0.1928632 0.28981936 -0.771824
-0.6756253 0.72672975 0.38181543 0.10842836 -0.5746673 -0.6672204 0.063903645 -0.36355615
0.095954284 -0.64078534 0.1437439 -0.44705167 -0.11096117 -0.5177165 -0.73281914 -0.25492954
0.3692403 0.123024456 -0.42155686 0.30435875 -0.14775994 -0.41551393 -0.18227465 -0.56298214
0.2581423 -0.13704817 -0.2674283 -0.17137063 0.41698915 0.47969624 0.33402956 0.26265743
0.024089899 -0.23506546 -0.6975743 0.7203146 -0.041984633 0.22125575 -0.2587953 -1.1431588
-0.5920295 0.4588203 -0.2121624 0.42806873 0.48189837 -0.3183155 -0.23011455 -0.10487182
-0.6321822 0.40676022 -0.25569436 -0.09842767 0.39954534 -0.493414 0.09524736 0.79374
0.027333716 -0.37433985 0.112325765 -0.1531254 -0.68319404 -0.24768141 0.20814599 -0.41374326
0.6069028 0.24848305 0.6815542 -0.037442822 -0.57963765 0.46816832 -0.06543205 -0.01484204
0.44635257 -0.17114185 -0.8913396 0.13991416 -0.23035675 0.18210064 -0.07248192 -0.5019601
-0.33625293 0.30896902 -0.30402434 -0.20913172 -0.40452385 0.6852319 -0.4120877 0.31363133
-0.46236336 -0.26900038 0.33997798 -0.045366447 -0.4332389 -0.22340487 -0.46726036 -0.07518024
0.11054599 0.08568027 -0.027133934 0.5006045 0.18562256 0.11609511 0.81759197 0.0071440376
0.31735808 -0.77369326 0.30783492 0.64660764 0.39578062 -0.19843596 -0.3505231 0.08474937
0.09009597 0.37771985 0.3132193 0.43533352 0.44893664 -0.1549557 -0.5889239 -0.24163279
-0.07403057 -0.5867053 -0.103510775 0.004218429 -0.19074266 -0.41327563 -0.106652 -0.4545011
-0.14526637 -0.64419365 0.04605183 -0.8061882 0.21309353 0.5967973 -0.1797995 -0.3220793
0.040097047 0.09657499 0.018006159 -0.7690995 0.46287692 -0.26393145 0.15587527 -0.7736841
-0.791951 0.5509839 0.08450862 -0.35609633 0.03689049 0.06650239 -0.15654278 -0.05538086
-0.6976082 0.45135897 0.018553078 -0.57535064 -0.053137325 0.4233426 0.610442 0.5836056
-0.47511646 0.20922273 0.22739029 0.13497312 -0.22571126 0.10471803 0.3671446 -0.74554706
0.7550843 0.08028969 0.060823772 0.059179936 0.10303344 0.090900496 0.07592464 -0.12716912
0.14374822 0.31013554 -0.28860146 0.29731464 -0.086223744 0.8959547 -0.1898996 -0.060886543
0.9005895 -0.015331188 0.34449688 0.48509288 -0.40236548 -0.3659263 0.3212398 -0.89616364

network_body._body_endoder.seq_layers.2.bias f4 [128]
00000000: 57e5 71bb d584 f2ad 0813 1fbb 3117 ecba
00000010: 50e3 12ba 3373 f9ba 380e 49bb 36d8 0dbb
00000020: a183 06bb acf4 0fbb 016c 62bb 5b9c 81b3
00000030: 4bd9 0ebb bc9b 56bb 31c6 78bb be57 10bb
00000040: 9dd3 3ab9 f0ae 7bbb 988c 63bb 4c8e 9b35
00000050: bfdb 84bb 0839 5f3a 7434 0bbb 02ea e1ba
00000060: 91e1 9438 4737 2234 32f1 13bb 39e6 99bb
00000070: da4f 88bb 94a9 0eba cc48 50bb 130b 86bb
00000080: 74e9 9aba 203a 78bb cb7c 37bb 49b1 77bb
00000090: 5bd3 52bb de72 4abb 39af 0fbb 92c1 acbb
000000a0: 1269 44bb 9290 26bb dce5 2cbb d135 5bbb
000000b0: 5eb2 21bb b3b2 702f 70f7 21bb db3f 83bb
000000c0: 6170 8fbb b4eb 89bb bfc3 0aba 9eab b4b8
000000d0: 0200 82bb 5b84 25bb b8de f7ba a18c 07b9
000000e0: ee82 56bb 8db8 1fba 5509 eeba 6a36 8ebb
000000f0: eb94 66bb 692c 39bb b9b3 61bb d644 ca39
00000100: 42c1 24bb 5574 88bb 5851 74bb 0e98 2cbb
00000110: a361 81bb a528 3ebb f174 30bb 0710 8bbb
00000120: 857d 25bb fc99 29bb 672c 90ba 4365 e8ba
00000130: c6a6 01bb af36 9ebb e353 fe39 be7c 7fbb
00000140: 614b 9dbb 31fe 64bb e9ec 83bb e6d3 0931
00000150: 9c03 67bb a954 1dbb 21ff 4bbb 8b98 23bb
00000160: 183a e3ba 04b6 a3bb 2aed 0abb 504d b3bb
00000170: ff45 6abb 5ab9 c32c 6652 9ebb c24f 29bb
00000180: cf9a 30bb 3763 3bbb 3302 2ebb b816 85b7
00000190: 49b6 97bb 41d8 09ba 3fde a5bb 724f 033a
000001a0: ef6b a5b7 6669 3dbb 1e93 6abb d108 0abb
000001b0: 9f55 aeba b734 80ba 24c3 3ebb 3bb0 a4bb
000001c0: 78bb faba 35be 1dbb 8eed 4dba daed 3636
000001d0: 578e 99bb ccee 96bb 7982 2fbb ec1e aabb
000001e0: 8380 bdba 979c f8b0 f05d 08b9 0694 65bb
000001f0: 2e8d 37bb bbff 58bb a549 95b7 fd18 56ba
-0.003691038 -2.7571204e-11 -0.0024272818 -0.0018012283 -0.000560333 -0.0019031524 -0.003067864 -0.0021643764
-0.0020525234 -0.0021965904 -0.0034549239 -6.0354715e-08 -0.0021796997 -0.0032746634 -0.0037959928 -0.0022024955
-0.00017817174 -0.0038403831 -0.0034721252 1.1589814e-06 -0.004054516 0.0008515273 -0.0021240981 -0.0017235877
7.099205e-05 1.5107535e-07 -0.0022574184 -0.004696634 -0.0041599097 -0.0005442139 -0.0031781672 -0.0040906756
-0.0011818842 -0.0037876442 -0.0027997966 -0.003779488 -0.0032169435 -0.003089122 -0.002192451 -0.005272099
-0.0029969853 -0.002541576 -0.0026382124 -0.0033448825 -0.0024672966 2.189136e-10 -0.0024714135 -0.004005415
-0.0043774103 -0.004209006 -0.00052934507 -8.615035e-05 -0.003967286 -0.0025255892 -0.001891098 -0.00012926992
-0.0032731849 -0.0006092869 -0.001816074 -0.0043399828 -0.0035183977 -0.002825523 -0.0034439398 0.0003857973
-0.0025139605 -0.0041642585 -0.003727993 -0.002633575 -0.003948407 -0.0029015925 -0.0026925171 -0.004243854
-0.0025251817 -0.0025879135 -0.0010999561 -0.0017730374 -0.0019783243 -0.004828296 0.00048509156 -0.0038984264
-0.0048002456 -0.003494155 -0.0040260446 2.0056574e-09 -0.0035249954 -0.002400676 -0.003112741 -0.002496275
-0.0017336039 -0.004996063 -0.002119849 -0.005471863 -0.0035747287 5.5628115e-12 -0.0048316 -0.0025834893
-0.0026947742 -0.0028593072 -0.0026551604 -1.5865415e-05 -0.0046298844 -0.00052583596 -0.005061894 0.00050090917
-1.9719793e-05 -0.0028901934 -0.0035793255 -0.0021062384 -0.0013300664 -0.0009781335 -0.0029108012 -0.005025891
-0.0019129356 -0.002406967 -0.0007855528 2.7258561e-06 -0.0046861577 -0.0046061035 -0.0026780649 -0.0051916745
-0.0014457855 -1.808888e-09 -0.00013004965 -0.0035030856 -0.0028007734 -0.0033111412 -1.7796478e-05 -0.00081671757
